saved_models/Complete_OHLCAG_Hybrid_Model_15m.pth (torch, 194822 bytes, 17 tensors)

conv1d_1.weight f4 [64, 6, 3]
-0.18703066 -0.18436946 -0.13643882 0.18368337 -0.23682539 -0.09643446 -0.08569433 0.081833854
-0.31673357 -0.20413408 -0.07892568 -0.27699718 -0.11630956 -0.21038933 0.058908336 -0.10000132
-0.23332928 0.042380277 -0.2346206 -0.013878673 -0.21063961 -0.13506536 0.1543637 0.070066795
0.041711584 0.16186778 -0.22880001 0.13320152 0.15497132 0.12761764 0.16692363 -0.19106847
0.06575914 -0.062435776 0.11772241 0.11436291 0.11286242 0.0037440204 -0.17876436 0.17539522
-0.010126283 0.11129732 -0.13035063 -0.112237856 -0.09064039 -0.014258841 -0.06594089 -0.09176845
0.25811356 0.22860435 -0.23010738 -0.14073212 0.21191473 -0.10659439 0.14705142 -0.066416964
-0.4567727 -0.13409108 -0.23856375 -0.081183776 0.06645795 -0.40271536 -0.24450812 -0.2741826
-0.010833111 -0.49628016 -0.2892287 -0.37105426 -0.2994247 -0.08810551 -0.2499611 -0.23208252
-0.08077801 -0.019000363 0.0984008 -0.039745335 0.16213472 -0.21775752 0.00407862 0.142448
0.14129254 -0.18881056 -0.22025917 0.122369155 0.33933243 0.015043796 0.20735994 0.14992864
0.23877068 0.23618932 0.15482228 -0.11183007 -0.25060365 0.20018528 -0.10036668 -0.2679545
0.121506415 -0.1295251 -0.08756523 -0.15234147 -0.20194763 0.08469491 -0.062466133 -0.30990538
0.08089082 0.28796253 -0.08669989 0.19954112 0.22108465 -0.06795391 0.032097556 -0.012183148
-0.10011916 0.1806718 -0.03329968 -0.012720485 0.0026055397 0.18249248 -0.0077985413 0.09143766
0.26754057 0.21019182 0.26743662 0.20981012 0.09314675 0.14092337 -0.078789346 0.23819126
0.026283327 -0.03308774 0.18566877 0.10853305 0.04862266 0.06493887 0.18794557 0.16220318
0.026390346 0.15649812 0.27802503 0.18385682 0.3773226 0.18934394 -0.14088745 0.16751274
-0.011556923 0.011894003 0.008310854 -0.022859752 -0.14334658 -0.1177583 -0.036755458 0.16119866
0.03640519 0.12424283 0.039816394 -0.054834932 0.014771864 -0.118445404 0.11970706 -0.20217124
-0.21336895 -0.022211924 -0.21159758 0.03732688 0.00062261143 -0.21731552 -0.32134205 -0.39655864
-0.27269673 -0.382469 0.011387641 -0.28847373 -0.28147838 -0.12820296 -0.12071548 0.013270253
-0.07539204 -0.23764017 -0.1503663 -0.25955242 0.14316082 0.13303305 -0.0968516 -0.17361915
0.15931436 -0.046779584 0.0432335 0.09466026 0.10837029 -0.03154085 -0.1376746 -0.049209222
-0.08046473 0.40856835 -0.14940366 -0.14596468 -0.011529865 0.036955174 -0.23774892 0.050771687
0.10235204 0.0027547367 0.14556938 -0.18533067 -0.05554872 0.20060244 -0.03648779 -0.1982048
0.23332384 0.023773303 0.14747556 0.07730595 0.47202256 0.058492996 0.17206046 0.18660808
0.18544544 -0.06945112 0.12422241 0.19520368 -0.20443568 0.107523456 -0.20363143 0.105317995
-0.19644272 0.102610394 -0.22762394 0.01063475 -0.031429052 -0.22496605 -0.018106565 0.19448464
-0.1467655 -0.02577819 -0.14400697 0.17191081 -0.060703706 -0.081828795 0.024658993 0.053243533
0.00271648 0.11111512 -0.045340832 -0.15861282 0.03491259 0.23066351 0.09689823 0.040669084
0.54011285 0.21082735 0.10527686 -0.03479779 -0.15314259 0.12817836 0.069813564 0.23409224
00000000: f784 3fbe 59cb 3cbe 9eb6 0bbe 7e17 3c3e
00000010: 5b82 72be 6e7f c5bd 8280 afbd 8298 a73d
00000020: e72a a2be 8608 51be c9a3 a1bd 93d2 8dbe
00000030: b533 eebd 4d70 57be de49 713d 7ecd ccbd
00000040: dfed 6ebe f196 2d3d 6240 70be 6063 63bc
00000050: e9b1 57be 934e 0abe 8511 1e3e 2e7f 8f3d
00000060: c4d9 2a3d abc0 253e 8d4a 6abe fb65 083e
00000070: cdb0 1e3e 33ae 023e 07ee 2a3e 74a7 43be
00000080: baac 863d a8bc 7fbd 7218 f13d 1a37 ea3d
00000090: 6a24 e73d 3d5e 753b 010e 37be ce9a 333e
000000a0: b6e8 25bc d9ef e33d a37a 05be f6dc e5bd
000000b0: aba1 b9bd ea9d 69bc 040c 87bd 19f1 bbbd
000000c0: 7627 843e 4217 6a3e 45a1 6bbe 151c 10be
000000d0: 2d00 593e 294e dabd a694 163e 9e05 88bd
000000e0: 1dde e9be 2c4f 09be 0e4a 74be ae43 a6bd
000000f0: 1b1b 883d b530 cebe 5660 7abe a961 8cbe
00000100: 5c7d 31bc 6f18 febe c915 94be d3fa bdbe
00000110: 324e 99be a970 b4bd cdf5 7fbe 0aa7 6dbe
00000120: f16e a5bd a6a6 9bbc 5c86 c93d 01cc 22bd
00000130: a506 263e d4fb 5ebe f2a5 853b e3dd 113e
00000140: feae 103e 8e57 41be 9f8b 61be ae9c fa3d
00000150: fbbc ad3e 417a 763c 2a56 543e e586 193e
00000160: 4d80 743e 9ddb 713e bb89 1e3e 2a07 e5bd
00000170: 1f4f 80be 5ffd 4c3e 0c8d cdbd 5531 89be
00000180: 5bd8 f83d 3aa2 04be 6655 b3bd 67ff 1bbe
00000190: 5ccb 4ebe 8674 ad3d 7ddc 7fbd ebab 9ebe
000001a0: 16aa a53d d36f 933e b68f b1bd 8254 4c3e
000001b0: 0464 623e 6b2b 8bbd ba78 033d d49b 47bc
000001c0: 460b cdbd 0702 393e 3f65 08bd 9569 50bc
000001d0: b4c1 2a3b 4fdf 3a3e e88a ffbb ab43 bb3d
000001e0: 14fb 883e 863c 573e 74ed 883e 77d8 563e
000001f0: b9c3 be3d 374e 103e 4f5c a1bd 69e8 733e
00000200: 2250 d73c 0387 07bd f41f 3e3e 9346 de3d
00000210: 8e28 473d acfe 843d ce74 403e 9718 263e
00000220: 9130 d83c 0b41 203e 4c59 8e3e f644 3c3e
00000230: 6e30 c13e 61e3 413e cd44 10be 7688 2b3e
00000240: 4059 3dbc 10df 423c 402a 083c 6044 bbbc
00000250: 72c9 12be 432b f1bd e48c 16bd 4311 253e
00000260: 9c1d 153d 0673 fe3d 8416 233d 989a 60bd
00000270: b005 723c 8193 f2bd fa28 f53d fa05 4fbe
00000280: 647d 5abe c8f5 b5bc 09ad 58be 12e4 183d
00000290: bf36 233a f687 5ebe f286 a4be bc09 cbbe
000002a0: e89e 8bbe fad2 c3be 3a93 3a3c d4b2 93be
000002b0: ef1d 90be a347 03be ad39 f7bd 7a6b 593c
000002c0: 2467 9abd f257 73be a0f9 19be 0ee4 84be
000002d0: c098 123e d139 083e 225a c6bd 38c9 31be
000002e0: 4e23 233e f39b 3fbd 9c15 313d 3ddd c13d
000002f0: 3ef1 dd3d fa30 01bd 92fa 0cbe 9c8f 49bd
00000300: b1ca a4bd df2f d13e 46fd 18be c477 15be
00000310: c2e7 3cbc 4f5e 173d 7474 73be f9f5 4f3d
00000320: f29d d13d d088 343b 2410 153e 53c7 3dbe
00000330: 0e87 63bd ba6a 4d3e 3974 15bd 33f6 4abe
00000340: 72ec 6e3e 3bc0 c23c d503 173e 9552 9e3d
00000350: f1ac f13e 5a96 6f3d 9e30 303e 3016 3f3e
00000360: 69e5 3d3e 643c 8ebd 5268 fe3d 79e3 473e
00000370: 9657 51be 4235 dc3d c284 50be f6b0 d73d
00000380: 4828 49be 6625 d23d 4016 69be 603d 2e3c
00000390: c0bb 00bd 805d 66be 3854 94bc fb26 473e
000003a0: b249 16be c82c d3bc 9076 13be 6309 303e
000003b0: 73a4 78bd db95 a7bd a801 ca3c e415 5a3d
000003c0: f906 323b 5390 e33d 4fb7 39bd 666b 22be
000003d0: 8100 0f3d 0e33 6c3e 9472 c63d a094 263d
000003e0: d644 0a3f 20e3 573e 659b d73d 2188 0ebd
000003f0: 69d1 1cbe 3041 033e 6afa 8e3d e0b5 6f3e

conv1d_1.bias f4 [64]
0.107682176 -0.20229445 0.112527065 0.088482425 0.03295047 0.13972612 -0.025915142 0.0031497856
-0.20448732 0.13204566 -0.045950238 -0.036499947 -0.13365415 0.050635785 -0.031415317 0.08535363
-0.04826468 -0.14949033 -0.022612853 -0.21067673 -0.04216816 -0.03732483 0.054944307 -0.011385129
-0.14546925 0.054736085 0.17568067 0.041504044 -0.15721333 -0.17246296 -0.2185486 0.25845686
-0.06048627 -0.03964731 -0.050369717 -0.048810665 0.09612041 -0.19319646 0.22693388 0.039487872
-0.029772967 -0.18577331 0.15025246 -0.082699604 -0.1228579 -0.21319017 -0.13034047 -0.04680986
-0.01874928 -0.026757324 0.031055123 -0.002414809 -0.068343654 -0.07711575 0.1111312 0.15915869
-0.09010613 0.045234405 0.14851344 -0.13367862 -0.1800654 -0.16047773 0.007457467 -0.1365374
00000000: 7988 dc3d 4726 4fbe 9774 e63d 4636 b53d
00000010: 12f7 063d 5d14 0f3e fe4b d4bc a26c 4e3b
00000020: 2065 51be fa36 073e 5136 3cbd f880 15bd
00000030: a2dc 08be 7867 4f3d 59ad 00bd e2cd ae3d
00000040: 2fb1 45bd fe13 19be 973e b9bc a4bb 57be
00000050: 85b8 2cbd ece1 18bd 480d 613d b188 3abc
00000060: e4f5 14be f232 603d a2e5 333e 2500 2a3d
00000070: 88fc 20be 219a 30be 34cb 5fbe 7554 843e
00000080: 73c0 77bd 3865 22bd 7a50 4ebd b1ed 47bd
00000090: c7da c43d 4bd5 45be 5b61 683e 09be 213d
000000a0: 70e6 f3bc 5c3b 3ebe c8db 193e 695e a9bd
000000b0: ec9c fbbd 864e 5abe f977 05be b2bb 3fbd
000000c0: 1798 99bc 2d32 dbbc 5067 fe3c c641 1ebb
000000d0: c2f7 8bbd ddee 9dbd c198 e33d 7ffa 223e
000000e0: 9089 b8bd b647 393d e813 183e 0ce3 08be
000000f0: 1063 38be 4654 24be c45d f43b 76d0 0bbe

conv1d_2.weight f4 [64, 64, 3]
-0.021295602 0.083736315 -0.11789236 -0.039400157 0.020379983 -0.039056122 -0.06595126 -0.0060943267
-0.016166601 0.053611096 0.048424337 0.054609776 0.0004216028 0.051533222 0.020567529 0.05621494
-0.105415896 -0.11223961 0.061059345 -0.010255712 0.028983595 0.07350633 0.022887653 0.015152046
0.0701606 0.026247934 -0.04831712 0.0005133186 0.06996904 -0.060359333 -0.024031952 0.08482773
0.030689653 0.04943959 0.005328745 -0.059191998 0.048265897 -0.0451691 0.023303673 -0.05199233
-0.027627757 -0.032285772 0.12686206 0.1297275 -0.0064196265 0.009532836 0.0006851466 -0.04725653
0.076480255 0.033323772 0.04335947 0.009178035 -0.05427572 0.0056353435 -0.02437952 -0.0561986
0.0379072 -0.008403525 0.0013919994 0.03394626 0.030808955 0.033997566 0.0004108776 0.0013535676
-0.009369055 0.07457819 -0.08507136 0.06849588 0.012236497 0.0107686315 -0.010921385 0.007818219
0.22018544 0.1146131 0.20707811 -0.046082933 -0.035708316 -0.07352124 0.037621647 -0.06971723
-0.14859468 0.008055803 0.04065705 -0.05614794 0.07161732 0.03490805 0.012559995 0.017093824
0.016864117 0.040256504 0.120286345 0.013746444 0.032020383 0.077085696 -0.040420223 -0.1555491
-0.00813282 0.046534162 0.10281653 -0.049879856 0.06518264 -0.007991105 0.10400563 -0.16815607
0.09238333 0.049653426 -0.031316433 -0.007682829 -0.035490785 0.02698887 0.0021333315 -0.037873812
-0.017091576 0.038286306 -0.11912154 -0.0207796 -0.10749604 0.050931726 -0.033600375 -0.08808646
0.027810661 -0.006325297 0.062236596 -0.019300051 0.04592178 -0.034835413 0.030018713 -0.035119954
-0.08234915 0.08152791 0.08740492 0.07160329 0.05207792 -0.043996133 -0.05078519 0.06349911
0.07323967 0.0739647 0.0076247784 0.044207476 0.09054025 -0.028955884 0.16855898 0.11664362
0.0068798936 0.025123294 0.081310555 -0.117249645 0.055811226 0.077639475 -0.0036701912 0.07501325
0.02112862 -0.0080958605 0.10289287 0.100697756 0.040220972 0.10641341 0.08557452 0.051514048
0.10161214 -0.03309178 0.09251391 0.008496736 -0.021302821 -0.030876573 -0.10621518 -0.09873817
-0.023801824 0.039281018 0.05414018 0.029884046 -0.029729335 0.010824966 0.003033759 -0.06350687
-0.105981834 0.042851955 0.03630306 0.028091677 0.09788384 0.10840429 0.11302123 0.025592886
0.010890566 0.040930323 0.06001805 0.014561244 -0.043080226 0.005091451 -0.055952616 0.004681669
0.018574072 0.018635372 -0.04559509 -0.03338251 -0.011108052 -0.071522966 -0.003444275 -0.06721967
-0.037137784 0.04074846 0.0020877474 -0.042633887 -0.020232772 -0.06489265 0.017541757 -0.02251964
0.057064313 0.06549034 -0.066424005 -0.0671857 0.04537815 -0.024979837 -0.034472868 -0.02160372
-0.049503405 -0.024622407 -0.05924132 -0.003266957 -0.051203616 -0.0077166036 -0.029154493 0.068068236
0.051063105 0.0067600827 -0.046316065 -0.019932779 0.053808436 0.028261125 0.03325074 -0.025649505
0.029238515 -0.017904522 -0.014541461 0.005700538 -0.030516688 -0.031601474 -0.029444547 -0.04836301
-0.050097816 0.031129833 0.060761217 -0.016399529 0.041101642 0.024341643 0.069512956 -0.03318406
-0.05699509 -0.03022175 0.033458456 -0.034532513 -0.0708795 0.062131748 0.011199608 -0.05392149
00000000: 1d74 aebc f27d ab3d 8d71 f1bd 0f62 21bd
00000010: ecf3 a63c 50f9 1fbd 7411 87bd ebb2 c7bb
00000020: d26f 84bc 4f97 5b3d 9958 463d 80ae 5f3d
00000030: 920a dd39 8014 533d 3c7d a83c a341 663d
00000040: 4ae4 d7bd e1dd e5bd 5d19 7a3d 9307 28bc
00000050: 016f ed3c 7d8a 963d e37e bb3c 4a40 783c
00000060: 5cb0 8f3d e805 d73c 2ce8 45bd 3a90 063a
00000070: ee4b 8f3d 593b 77bd a8de c4bc 29ba ad3d
00000080: de68 fb3c 2b81 4a3d c19c ae3b 4f73 72bd
00000090: 76b2 453d 3c03 39bd 58e7 be3c e9f5 54bd
000000a0: 9b53 e2bc 163e 04bd 21e8 013e 49d7 043e
000000b0: bb5b d2bb 9d2f 1c3c 699b 333a 1090 41bd
000000c0: aea1 9c3d 827e 083d b399 313d 785f 163c
000000d0: 3850 5ebd b0a8 b83b 8fb7 c7bc 8130 66bd
000000e0: 9544 1b3d f0ae 09bc c073 b63a 3c0b 0b3d
000000f0: 1063 fc3c 0841 0b3d 0f6b d739 316a b13a
00000100: aa80 19bc 73bc 983d e539 aebd 9147 8c3d
00000110: 977b 483c ea6e 303c 9cef 32bc fd17 003c
00000120: 4b78 613e 46ba ea3d 490c 543e 75c1 3cbd
00000130: e242 12bd 4e92 96bd 2819 1a3d e8c7 8ebd
00000140: 3429 18be 7dfc 033c 0288 263d 62fb 65bd
00000150: 1aac 923d befb 0e3d 70c8 4d3c 5908 8c3c
00000160: 9e26 8a3c 01e4 243d b058 f63d c438 613c
00000170: ce27 033d 1bdf 9d3d ad8f 25bd 4348 1fbe
00000180: 853f 05bc 9b9a 3e3d 7991 d23d d24e 4cbd
00000190: 7a7e 853d 20ed 02bc e700 d53d 1b31 2cbe
000001a0: 7933 bd3d 6461 4b3d a945 00bd 3ec0 fbbb
000001b0: c95e 11bd c317 dd3c 5dcf 0b3b 9221 1bbd
000001c0: a203 8cbc 1ad2 1c3d fef5 f3bd fb39 aabc
000001d0: e226 dcbd c99d 503d 8ca0 09bd ad66 b4bd
000001e0: 2fd3 e33c 7044 cfbb cdeb 7e3d 241b 9ebc
000001f0: 7a18 3c3d 94af 0ebd cee9 f53c f1d9 0fbd
00000200: aca6 a8bd 1bf8 a63d 5a01 b33d bfa4 923d
00000210: a84f 553d 4a35 34bd 2204 50bd d20b 823d
00000220: aefe 953d ce7a 973d 47d9 f93b e612 353d
00000230: 2b6d b93d e434 edbc ba9a 2c3e dae2 ee3d
00000240: bb70 e13b 5ecf cd3c 2686 a63d 9520 f0bd
00000250: 509a 643d 7201 9f3d 9787 70bb 8ca0 993d
00000260: ed15 ad3c 80a4 04bc 7fb9 d23d a03a ce3d
00000270: bfbe 243d 46ef d93d b241 af3d 6500 533d
00000280: 071a d03d 3f8b 07bd ef77 bd3d e535 0b3c
00000290: 4183 aebc def0 fcbc 5887 d9bd 3d37 cabd
000002a0: 0bfc c2bc 22e5 203d 18c2 5d3d 63cf f43c
000002b0: ef8a f3bc 335b 313c 08d2 463b e40f 82bd
000002c0: 010d d9bd 8885 2f3d 84b2 143d 8420 e63c
000002d0: 5377 c83d 1203 de3d ad77 e73d 2ca8 d13c
000002e0: 586e 323c 8ea6 273d 7dd5 753d 4992 6e3c
000002f0: e474 30bd 30d6 a63b 922e 65bd b068 993b
00000300: a728 983c 35a9 983c ebc1 3abd 19bc 08bd
00000310: 8cfe 35bc a27a 92bd 58b9 61bb 77aa 89bd
00000320: ca1d 18bd dbe7 263d 97d2 083b dfa0 2ebd
00000330: 33bf a5bc 70e6 84bd bbb3 8f3c 1c7b b8bc
00000340: 45bc 693d cd1f 863d 4f09 88bd a898 89bd
00000350: 70de 393d 84a2 ccbc 6c33 0dbd 49fa b0bc
00000360: 15c4 4abd eeb4 c9bc 07a7 72bd 711a 56bb
00000370: e2ba 51bd 90db fcbb 67d5 eebc 5c67 8b3d
00000380: 8c27 513d af83 dd3b eab5 3dbd 114a a3bc
00000390: 3c66 5c3d e083 e73c ee31 083d e91e d2bc
000003a0: 9c85 ef3c 81ac 92bc 4f3f 6ebc 94cb ba3b
000003b0: 22fe f9bc 8c70 01bd b135 f1bc 4b18 46bd
000003c0: 5e33 4dbd fe03 ff3c c1e0 783d 4e58 86bc
000003d0: 325a 283d 2068 c73c cf5c 8e3d 02ec 07bd
000003e0: af73 69bd 9a93 f7bc bc0b 093d f771 0dbd
000003f0: 4529 91bd dc7d 7e3d 907e 373c c8dc 5cbd

conv1d_2.bias f4 [64]
0.0036419113 -0.023996038 0.03726719 -0.013685962 -1.7209924e-05 -0.06728457 0.062306296 -0.06828691
0.0276303 -0.0815016 0.032278426 -0.073158436 -0.00017890891 -0.0037296657 0.08301681 -0.06724375
0.039400216 -0.06266577 0.03786538 0.0065206676 0.031152202 0.047788948 0.041927442 -0.04430782
-0.016949806 -0.037794605 -0.06779765 0.024420982 -0.08910286 0.014726467 -0.01791022 0.028633926
-0.01244652 0.075374685 0.01738087 -0.02039428 0.016910616 0.022796776 -0.006380506 -0.012364288
-0.0018338604 -0.022630313 -0.027650844 -0.17209975 -0.046698492 -0.013636579 -0.055608075 0.05715057
-0.053034153 0.004069019 -0.019106248 0.00165179 0.027037255 -0.06452299 -0.026872275 -0.04780411
-0.059850812 -0.009360252 -0.028891193 -0.022130826 0.0139147 -0.011267821 -0.0056128646 -5.0482475e-05
00000000: 22ad 6e3b 5793 c4bc 7ba5 183d 163b 60bc
00000010: 085e 90b7 7ecc 89bd e334 7f3d 02da 8bbd
00000020: f058 e23c 50ea a6bd 6236 043d 17d4 95bd
00000030: 7f99 3bb9 686d 74bb b804 aa3d 17b7 89bd
00000040: 1f62 213d e956 80bd bb18 1b3d 53ab d53b
00000050: e732 ff3c 58be 433d 1cbc 2b3d 1e7c 35bd
00000060: 52da 8abc 84ce 1abd 7fd9 8abd 830e c83c
00000070: 8f7b b6bd 4847 713c 74b8 92bc b291 ea3c
00000080: 7dec 4bbc 0b5e 9a3d 5462 8e3c e811 a7bc
00000090: 2288 8a3c 4ec0 ba3c 9013 d1bb 9593 4abc
000000a0: 255e f0ba 3563 b9bc 0684 e2bc eb3a 30be
000000b0: eb46 3fbd f56b 5fbc 4bc5 63bd b716 6a3d
000000c0: 573a 59bd 6855 853b b584 9cbc e080 d83a
000000d0: 3c7d dd3c a124 84bd 3f23 dcbc 3ece 43bd
000000e0: 2026 75bd be5b 19bc 39ad ecbc b54b b5bc
000000f0: 7bfa 633c ab9c 38bc 1fec b7bb 25bd 53b8

lstm.weight_ih_l0 f4 [128, 64]
-0.06132985 -0.07158733 -0.17874224 -0.007924772 0.0163788 -0.103442125 -0.17862444 -0.010557175
-0.16795582 -0.21437879 -0.18888871 -1.6949849e-05 0.032436393 0.059475187 -0.11066297 -0.2183128
0.15784459 0.107203975 0.038906325 0.0064648725 0.064694054 0.11853835 -0.1551009 -0.12231936
0.12155716 -0.0026896584 -0.11890594 0.009488937 0.0075821765 -0.26554325 -0.16620345 0.11288407
0.073032774 -0.18552732 0.06461034 -0.07187064 -0.052453443 0.016782975 0.089368686 0.006476249
-0.040888127 -0.060329344 0.13408147 -0.091299586 -0.20857707 0.013056969 -0.25038353 0.17435351
0.044474386 -0.0911899 -0.12469555 -0.09495039 0.14908217 0.045955468 0.11749964 -0.21625343
-0.1318712 -0.22724137 -0.15298295 -0.013599638 0.074154295 -0.17090838 -0.05222682 -0.07379696
-0.16695258 0.010646949 -0.2493025 -0.11251648 -0.09510691 0.16256662 -0.24850431 -0.03146583
-0.0909991 0.031267937 -0.25932792 0.1516013 -0.028830474 0.04674939 -0.20602627 -0.046629123
-0.016988443 0.17068167 -0.17904381 -0.00035844735 -0.15685515 -0.05919988 -0.16471323 -0.17830609
-0.011526212 -0.06337795 0.08135332 -0.12899958 0.03685595 -0.01865085 0.14322422 -0.12289051
0.04520261 0.050127193 -0.15181561 -0.06298107 -0.16066656 -0.061150298 -0.05347375 -0.11702818
-0.10231564 -0.060267184 -0.16705392 0.051480416 0.07426386 0.017921044 -0.021708319 0.03131929
0.11523243 0.08629303 0.16617304 0.05146638 0.019006392 0.16915257 -0.005033604 0.1226276
-0.06788308 0.09005359 -0.14261343 0.04872142 0.10684545 0.113026634 0.1277345 -0.11384252
-0.021924987 0.058064464 -0.07641261 -0.05537019 -0.104633026 -0.0907889 -0.2822234 -0.10227605
0.022387415 0.06328125 -0.0911047 0.059866413 0.10002229 -0.15606764 0.04843579 -0.14696467
-0.10126354 -0.110682406 -0.08511794 -0.025060708 -0.25294456 0.02487919 -0.14247194 0.00082916074
-0.12035631 0.10410326 0.10034787 -0.025608474 -0.119017646 0.039965384 -0.080819406 -0.025550824
-0.035487168 -0.23883776 -0.1286271 -0.047219038 0.048134863 -0.21958002 0.13390274 -0.13418095
-0.28322273 -0.14140408 -0.13057649 -0.03275651 -0.04520541 0.044383876 -0.28130868 -0.09267725
-0.048159145 0.123670086 -0.07896693 -0.072308496 -0.051926706 0.030170096 -0.12620823 -0.23460157
-0.07633283 -0.2155415 -0.09376238 -0.04915989 0.0012617614 0.05239063 -0.012675257 0.107738495
0.017738977 0.0368712 -0.057527702 -0.160427 0.009875913 0.10012914 -0.24448407 0.11199884
0.052223846 -0.14548472 -0.16919154 -0.10960391 0.12692155 -0.24859163 -0.22898579 -0.11564675
0.11773028 0.037701115 -0.24246323 -0.00043446638 -0.042204395 0.15491661 -0.107883476 0.10859889
0.007160455 -0.12237491 -0.093095124 0.1143201 0.04573917 -0.12235329 -0.040745407 -0.05084596
0.06750895 -0.24531308 -0.06746208 0.08038117 -0.02087979 -0.17221914 -0.13239305 0.024623314
-0.16473594 -0.17487536 0.12586853 0.12446535 0.043913055 -0.045991562 -0.26421046 -0.19932885
-0.006105222 -0.08819987 -0.14229967 0.042581804 0.03165252 -0.13715619 0.1690625 0.05014917
0.061186686 -0.13106057 -0.113450944 -0.183763 -0.14826636 -0.15985367 -0.057911947 0.05277007
00000000: 0235 7bbd 619c 92bd 3508 37be e7d6 01bc
00000010: d52c 863c 77d9 d3bd 53e9 36be 00f8 2cbc
00000020: 9cfc 2bbe 1d86 5bbe 0b6c 41be 862f 8eb7
00000030: 06dc 043d 419c 733d 44a3 e2bd 648d 5fbe
00000040: 03a2 213e c28d db3d 3d5c 1f3d 48d7 d33b
00000050: 517e 843d 3cc4 f23d c5d2 1ebe 9382 fabd
00000060: f6f2 f83d fb44 30bb f584 f3bd 7d77 1b3c
00000070: e873 f83b 49f5 87be 3d31 2abe c32f e73d
00000080: 3592 953d e0fa 3dbe 6d52 843d ea30 93bd
00000090: 6cd9 56bd 737c 893c ee06 b73d b736 d43b
000000a0: 4f7a 27bd e71b 77bd a74c 093e 47fb babd
000000b0: 3a95 55be e6ec 553c 4532 80be ba89 323e
000000c0: c62a 363d c5c1 babd 6160 ffbd 5a75 c2bd
000000d0: ffa8 183e cd3b 3c3d a7a3 f03d 8a71 5dbe
000000e0: 3e09 07be f6b1 68be 90a7 1cbe 04d1 5ebc
000000f0: 35de 973d 9b02 2fbe caeb 55bd dc22 97bd
00000100: 9ef5 2abe 8a70 2e3c 2849 7fbe 0a6f e6bd
00000110: 69c7 c2bd dd77 263e ea77 7ebe 50e2 00bd
00000120: bc5d babd cf12 003d a1c6 84be 5f3d 1b3e
00000130: e32d ecbc 4a7c 3f3d 8df8 52be 2efe 3ebd
00000140: 592b 8bbc 2dc7 2e3e 4357 37be fded bbb9
00000150: a39e 20be 937b 72bd 96aa 28be df95 36be
00000160: 70d8 3cbc 4ccc 81bd 929c a63d 7718 04be
00000170: 44f6 163d abc9 98bc 5fa9 123e 05ae fbbd
00000180: 5f26 393d 2c52 4d3d 8d75 1bbe 38fc 80bd
00000190: c685 24be bc78 7abd 4a07 5bbd 78ac efbd
000001a0: dd8a d1bd b9da 76bd 2f10 2bbe 21dd 523d
000001b0: a717 983d 27cf 923c a5d5 b1bc a848 003d
000001c0: fbfe eb3d 66ba b03d 4429 2a3e 69ce 523d
000001d0: 4bb3 9b3c 5536 2d3e eef0 a4bb 2e24 fb3d
000001e0: 4906 8bbd 046e b83d 4109 12be 1d90 473d
000001f0: cad1 da3d 827a e73d d5cc 023e 4426 e9bd
00000200: 089c b3bc 01d5 6d3d 377e 9cbd dacb 62bd
00000210: d749 d6bd 88ef b9bd 967f 90be 1b76 d1bd
00000220: d065 b73c 9a99 813d 1a95 babd 7c36 753d
00000230: 7dd8 cc3d 32d0 1fbe 9b64 463d e87d 16be
00000240: 4263 cfbd 75ad e2bd 5152 aebd 1d4c cdbc
00000250: f381 81be 71cf cb3c 2ae4 11be 095c 593a
00000260: 5e7d f6bd 1734 d53d 2f83 cd3d ddc8 d1bc
00000270: 86bf f3bd beb2 233d a584 a5bd f64f d1bc
00000280: fe5a 11bd e391 74be d3b6 03be c068 41bd
00000290: 1029 453d 96d9 60be cd1d 093e bb66 09be
000002a0: 9202 91be 3bcc 10be d8b5 05be b12b 06bd
000002b0: 4f29 39bd decb 353d b107 90be 92cd bdbd
000002c0: 8642 45bd be46 fd3d 6ab9 a1bd 7a16 94bd
000002d0: 19b1 54bd 4727 f73c bb3c 01be 653b 70be
000002e0: 6354 9cbd e9b6 5cbe 7e06 c0bd e15b 49bd
000002f0: b061 a53a 8f97 563d e2ab 4fbc 00a6 dc3d
00000300: 5551 913c 4106 173d 2ba2 6bbd fa46 24be
00000310: 95ce 213c 8210 cd3d 085a 7abe a65f e53d
00000320: ace8 553d f2f9 14be 8c40 2dbe 0478 e0bd
00000330: b9f7 013e ce8e 7ebe 407b 6abe 34d8 ecbd
00000340: 931c f13d 7c6c 1a3d 4848 78be 17c9 e3b9
00000350: 84de 2cbd 76a2 1e3e 03f2 dcbd 1869 de3d
00000360: 40a2 ea3b b29f fabd a8a8 bebd a820 ea3d
00000370: ff58 3b3d 5d94 fabd a8e4 26bd da43 50bd
00000380: 2242 8a3d 5a33 7bbe 8f29 8abd e29e a43d
00000390: 180c abbc 375a 30be 0b92 07be d5b6 c93c
000003a0: 8ab0 28be 8712 33be aee3 003e b0e7 fe3d
000003b0: 2dde 333d a661 3cbd 9846 87be dd1c 4cbe
000003c0: 500e c8bb 22a2 b4bd 01b7 11be 426a 2e3d
000003d0: 13a6 013d ac72 0cbe b81e 2d3e 3769 4d3d
000003e0: e49e 7a3d be34 06be f858 e8bd 5e2c 3cbe
000003f0: 23d3 17be aeb0 23be 1435 6dbd 6e25 583d

lstm.weight_hh_l0 f4 [128, 32]
-0.09454576 0.1362653 0.0012268183 0.06547125 0.0745561 -0.243055 0.090483375 0.09334286
-0.048075896 0.099237904 -0.050370127 -0.20894448 0.032662157 -0.12077615 0.14197686 0.0061048623
0.03247205 -0.046412833 -0.08752444 0.22361077 0.13338728 -0.14383759 0.029336931 0.12939358
-0.030510822 -0.06312727 -0.15209275 -0.0020518661 -0.040863134 0.008378455 0.27438897 0.10817136
0.18838729 -0.16242667 0.059956834 -0.04193646 0.1767737 -0.17820884 0.14023408 0.2282986
0.02842151 0.1324982 -0.024737552 0.15617757 -0.024215234 0.039523 -0.19941004 -0.052497983
0.1167209 0.025929863 0.023779267 0.18371718 -0.015708724 -0.046284005 -0.118606314 -0.078099266
0.13044436 -0.033834998 -0.12217394 -0.092858225 0.03641449 -0.09903611 0.036551923 -0.016317418
0.15350428 0.03363684 0.06510667 0.11539611 -0.15571174 -0.051189996 0.23325998 -0.0025625795
-0.11668293 0.08393349 -0.117095195 -0.15370211 -0.055855036 0.08521814 -0.020229973 0.12449399
0.058233414 0.10379673 0.10845376 0.015204039 0.11500959 -0.15138155 -0.081809066 0.21685845
0.0007534708 -0.02849736 0.09401597 0.051483117 0.13493839 0.16522661 -0.0019067047 -0.076372474
0.15065846 0.080130294 -0.102396995 -0.010747042 -0.069794424 -0.2199532 -0.05805978 0.17557453
0.04412766 0.057350896 0.10092383 -0.023000753 -0.0039895577 0.18673234 0.18189804 0.15043214
-0.22714409 -0.09684317 0.013624508 0.25038195 0.13553898 0.17946628 0.01839682 0.19621353
-0.0774795 -0.07223999 -0.0552864 0.10900227 0.12293241 0.14310436 0.010629388 0.17632222
0.11209042 0.07387776 0.1392785 0.16240245 -0.103421465 0.037045676 0.23685555 0.0062826825
0.14138469 -0.02208276 -0.14120807 -0.06860172 -0.05494085 -0.097146876 0.06731306 0.16162126
-0.07195737 0.16488717 -0.18315415 0.10104061 0.048638854 0.09826592 -0.14080253 -0.10786239
0.017225139 -0.06556395 -0.048057515 0.00159901 0.025308432 0.097543776 0.2749044 0.0020606788
-0.112835 -0.012834765 0.1893167 0.10693244 -0.12682134 -0.1163133 0.01156102 0.24565455
-0.12673813 0.18708923 -0.11232145 0.1944169 -0.1358176 -0.08959196 -0.12603807 -0.13182274
0.01694318 -0.11711388 -0.25630918 -0.0046585146 0.165826 -0.01363972 -0.08255811 -0.11105076
0.01107047 -0.021006025 0.11505665 0.058784682 0.20373225 0.013652875 -0.036990434 -0.06939906
-0.06101157 -0.12281271 0.008451129 -0.054896962 -0.0658678 -0.03026514 0.011935675 0.158841
-0.10027989 0.08805124 0.05292863 -0.11644173 -0.074632935 0.14521044 0.10614601 -0.07765961
-0.008919957 0.18306074 -0.06635741 0.057552155 -0.13176098 -0.06291705 0.0724804 -0.12714873
-0.017324708 0.0416628 -0.04292355 -0.10064277 -0.09800203 -0.00047185074 -0.013258081 0.17191416
-0.013869749 0.21607172 0.16365577 -0.02194999 -0.06345628 -0.018890068 -0.05350568 0.12292856
-0.037018087 0.1831705 0.08039809 0.039931837 0.16581935 0.04514075 -0.23551765 -0.09024709
0.20067182 -0.123738125 -0.0022818565 -0.012929504 0.12190326 0.015265121 0.02316924 0.13447538
0.118578054 -0.17204191 -0.06383909 -0.045287073 0.13492234 -0.06276423 0.121894576 -0.19037263
00000000: 35a1 c1bd 2189 0b3e 31cd a03a ca15 863d
00000010: deb0 983d 69e3 78be 594f b93d 8b2a bf3d
00000020: 3beb 44bd 3e3d cb3d e850 4ebd 8bf5 55be
00000030: c1c8 053d 7c59 f7bd 6262 113e 4c0b c83b
00000040: 6a01 053d 621b 3ebd 0340 b3bd 39fa 643e
00000050: ad96 083e 294a 13be 0154 f03c c07f 043e
00000060: d5f1 f9bc df48 81bd 34be 1bbe 9a78 06bb
00000070: 1a60 27bd ca45 093c b67c 8c3e f288 dd3d
00000080: 99e8 403e 2d53 26be 4c95 753d 91c5 2bbd
00000090: 2a04 353e 617c 36be 8699 0f3e 1cc7 693e
000000a0: 3ad4 e83c 9cad 073e 68a6 cabc 03ed 1f3e
000000b0: 075f c6bc dfe2 213d 2532 4cbe 2008 57bd
000000c0: 5e0b ef3d dd6a d43c bdcc c23c 5b20 3c3e
000000d0: 95af 80bc 4c94 3dbd dee7 f2bd 82f2 9fbd
000000e0: 3593 053e 9196 0abd 5536 fabd 742c bebd
000000f0: 5c27 153d 72d3 cabd 78b7 153d 1bac 85bc
00000100: 3a30 1d3e c8c6 093d a556 853d cc54 ec3d
00000110: e672 1fbe 9aac 51bd b4db 6e3e f3f0 27bb
00000120: 76f7 eebd 52e5 ab3d 9bcf efbd 1664 1dbe
00000130: 40c8 64bd d986 ae3d 54b9 a5bc b4f6 fe3d
00000140: 2986 6e3d 6193 d43d 011d de3d 5d1a 793c
00000150: 268a eb3d c403 1bbe 838b a7bd 2410 5e3e
00000160: 9284 453a 4c73 e9bc 728b c03d f6df 523d
00000170: 4a2d 0a3e 2a31 293e 65ea f9ba 2c69 9cbd
00000180: 3646 1a3e 5a1b a43d 84b5 d1bd 5c14 30bc
00000190: 61f0 8ebd 693b 61be 18d0 6dbd cfc9 333e
000001a0: 35bf 343d c6e8 6a3d 27b1 ce3d 136c bcbc
000001b0: d6ba 82bb c336 3f3e 7b43 3a3e e20a 1a3e
000001c0: 7698 68be b655 c6bd 5439 5f3c 1032 803e
000001d0: bbca 0a3e 02c6 373e eeb4 963c 33ec 483e
000001e0: 92ad 9ebd 8ff2 93bd fe73 62bd 953c df3d
000001f0: fdc3 fb3d f389 123e e226 2e3c d08d 343e
00000200: aa8f e53d 394d 973d 069f 0e3e d44c 263e
00000210: a2ce d3bd 35bd 173d 438a 723e f6de cd3b
00000220: 26c7 103e e8e6 b4bc d998 10be 0f7f 8cbd
00000230: a809 61bd f1f4 c6bd 6edb 893d 0b80 253e
00000240: 635e 93bd 2fd8 283e c38c 3bbe 61ee ce3d
00000250: 8939 473d a53f c93d 8a2e 10be f5e6 dcbd
00000260: bc1b 8d3c 6446 86bd f5d7 44bd df95 d13a
00000270: a153 cf3c 08c5 c73d 45c0 8c3e 740c 073b
00000280: 0916 e7bd e848 52bc 3ddc 413e 65ff da3d
00000290: 74dd 01be ab35 eebd 6f6a 3d3c de8c 7b3e
000002a0: a4c7 01be 5294 3f3e ca08 e6bd 3915 473e
000002b0: c513 0bbe fd7b b7bd 2010 01be 8afc 06be
000002c0: 6ccc 8a3c 67d9 efbd f53a 83be 74a6 98bb
000002d0: 4ace 293e 2279 5fbc 3a14 a9bd 956e e3bd
000002e0: eb60 353c d414 acbc d2a2 eb3d 35c8 703d
000002f0: 309f 503e 4fb0 5f3c 4883 17bd 1821 8ebd
00000300: 45e7 79bd 3b85 fbbd 9b76 0a3c a3db 60bd
00000310: b2e5 86bd 99ee f7bc d98d 433c 37a7 223e
00000320: 8b5f cdbd 3554 b43d b1cb 583d 0079 eebd
00000330: 27d9 98bd 0cb2 143e 1463 d93d 000c 9fbd
00000340: 0325 12bc 4674 3b3e 65e6 87bd cfbb 6b3d
00000350: 5aec 06be a8da 80bd 9b70 943d 4733 02be
00000360: 8cec 8dbc 9da6 2a3d 9bd0 2fbd cc1d cebd
00000370: 4ab5 c8bd bc62 f7b9 6c38 59bc 440a 303e
00000380: f23d 63bc e841 5d3e 6195 273e 77d0 b3bc
00000390: 5ef5 81bd 58bf 9abc c628 5bbd f8c1 fb3d
000003a0: 47a0 17bd 0c91 3b3e c1a7 a43d 918f 233d
000003b0: 8ccc 293e 82e5 383d 8a2b 71be 77d3 b8bd
000003c0: ea7c 4d3e 6a6a fdbd 338b 15bb 45d6 53bc
000003d0: 6ba8 f93d 8f1a 7a3c 6bcd bd3c eab3 093e
000003e0: 0dd9 f23d c12b 30be 12be 82bd f07e 39bd
000003f0: 1529 0a3e 888a 80bd dda3 f93d 0bf1 42be

lstm.bias_ih_l0 f4 [128]
-0.06209483 -0.30934834 -0.27944398 0.026038669 -0.3264942 0.05418247 -0.16433111 0.029359205
-0.08593435 -0.060274333 -0.095908776 -0.032145686 -0.34015766 -0.251482 -0.11720005 -0.038467746
-0.118554205 -0.37516806 -0.073025994 -0.09180668 -0.05221584 -0.21442033 -0.31716692 -0.070634246
-0.05123922 -0.1335468 -0.14985104 0.06951125 0.04124242 -0.17146958 0.0070836167 -0.3280657
-0.37197074 0.026668217 -0.31119248 -0.0912237 -0.04824988 -0.08549078 -0.28324535 -0.041116495
-0.15739207 -0.06911611 -0.22391152 -0.18582161 0.020926438 -0.14186619 -0.16237713 -0.18380485
-0.3192797 -0.13258931 -0.0812466 -0.2517488 -0.1692326 -0.13010035 -0.0147416685 -0.022288758
-0.14818677 -0.06619471 0.04705372 -0.25231206 -0.09327054 -0.036363795 -0.0524374 -0.09723257
-0.045059104 -0.062659204 -0.0412468 -0.05601082 0.0055693486 -0.09663842 0.026940271 -0.07312911
-0.14218237 -0.07246984 -0.027205877 -0.08653735 -0.040562656 -0.06686783 0.06370522 -0.010725834
0.040498674 -0.07665831 -0.046448402 0.08197934 0.028384577 -0.052042484 -0.007224707 -0.05422497
-0.013676581 0.00648123 -0.009628003 -0.11417234 0.045098133 -0.12410935 -0.024694277 -0.03874722
-0.11553776 -0.31763983 -0.18690434 -0.05358044 -0.3268049 -0.068729356 -0.21841003 0.118159406
-0.21847486 -0.06205179 -0.059273537 -0.22327594 -0.183287 -0.13845922 -0.041955177 -0.025856925
-0.25397184 -0.13102758 -0.14010733 -0.15263923 -0.07290002 -0.030496707 -0.11447138 -0.10907951
-0.18760057 -0.09564516 -0.1763967 0.036836524 0.016112255 -0.10961909 0.16821828 -0.10444459
00000000: 2657 7ebd e862 9ebe 4813 8fbe 0c4f d53c
00000010: 3f2a a7be 70ee 5d3d 6a46 28be b782 f03c
00000020: 59fe afbd 38e2 76bd d26b c4bd 32ab 03bd
00000030: 2529 aebe 40c2 80be 9406 f0bd 5b90 1dbd
00000040: 8ccc f2bd 0716 c0be a78e 95bd 2405 bcbd
00000050: 47e0 55bd 0191 5bbe b463 a2be b0a8 90bd
00000060: 37e0 51bd 7ec0 08be 8d72 19be ea5b 8e3d
00000070: d0ed 283d b995 2fbe af1d e83b 3af8 a7be
00000080: f372 bebe 4e77 da3c 9f54 9fbe 7ed3 babd
00000090: aba1 45bd ca15 afbd 8905 91be c569 28bd
000000a0: 632b 21be bf8c 8dbd 1049 65be 0548 3ebe
000000b0: ec6d ab3c 5f45 11be 3146 26be 5737 3cbe
000000c0: a178 a3be 7ec5 07be 9e64 a6bd 38e5 80be
000000d0: 504b 2dbe 0739 05be 0a87 71bc ea96 b6bc
000000e0: 46be 17be 1891 87bd 67bb 403d 0c2f 81be
000000f0: a004 bfbd 34f2 14bd 99c8 56bd df21 c7bd
00000100: e58f 38bd 7853 80bd 68f2 28bd 9a6b 65bd
00000110: 157f b63b 5dea c5bd d8b1 dc3c b7c4 95bd
00000120: 4198 11be 116b 94bd dcde debc 7f3a b1bd
00000130: 0725 26bd 00f2 88bd e277 823d 69bb 2fbc
00000140: f0e1 253d 08ff 9cbd ae40 3ebd c9e4 a73d
00000150: c686 e83c 802a 55bd 3cbd ecbb 011b 5ebd
00000160: bd13 60bc 7f60 d43b c6be 1dbc 30d3 e9bd
00000170: d2b8 383d 0b2d febd a74b cabc 68b5 1ebd
00000180: 109f ecbd b0a1 a2be da63 3fbe 2a77 5bbd
00000190: f952 a7be fac1 8cbd e1a6 5fbe 8ffd f13d
000001a0: e0b7 5fbe 052a 7ebd cfc8 72bd 73a2 64be
000001b0: 96af 3bbe 41c8 0dbe 31d9 2bbd e7d1 d3bc
000001c0: 9908 82be 182c 06be 4c78 0fbe 754d 1cbe
000001d0: 9b4c 95bd 3bd4 f9bc f96f eabd 1465 dfbd
000001e0: 5d1a 40be 9ce1 c3bd 56a1 34be e5e1 163d
000001f0: d9fd 833c f97f e0bd 6a41 2c3e 0ce7 d5bd

lstm.bias_hh_l0 f4 [128]
-0.18419869 -0.36100417 -0.4039771 -0.116911545 -0.294445 -0.1505542 -0.25695303 -0.008053522
-0.23642854 -0.015586578 -0.014644791 -0.014470616 -0.067787565 -0.13222447 -0.17162843 -0.17981134
-0.1348451 -0.27328664 -0.12500468 -0.11515795 -0.2268476 -0.060487967 -0.20548478 -0.12184623
-0.012786042 0.06774555 0.029837074 0.079246566 -0.050554886 -0.20481233 0.1123254 -0.41693908
-0.04307844 -0.18652204 -0.23402378 -0.2406147 -0.29457968 -0.014206477 0.03888593 0.030993575
-0.022929441 -0.18669811 -0.06299056 0.020908073 -0.23420551 0.028430378 -0.26308146 0.017932555
-0.2835078 -0.06514212 -0.014972947 -0.21909563 -0.25513953 -0.23688166 -0.209614 -0.21626875
-0.09195929 -0.23407075 -0.004838254 -0.12679519 -0.30290455 -0.22148475 0.009371822 -0.2887159
-0.0653678 0.042593624 0.014657429 0.025562666 -0.008222815 0.03178566 -0.03780037 0.11056662
0.13450699 0.003240673 0.013921121 0.09086918 0.020456767 0.054104853 -0.09628266 0.046710223
-0.01741156 0.093048155 -0.04342494 -0.044930708 -0.013935282 0.048288897 -0.052999683 0.07133106
-0.004068649 0.029480169 0.008473347 0.05049514 0.039591156 -0.103590734 -0.116141826 -0.021506608
-0.2973696 -0.07279897 -0.14147994 -0.16349159 -0.19704166 -0.23203443 -0.14545098 -0.018976353
-0.2620634 -0.05179656 0.13432649 -0.24373166 -0.245056 -0.15383713 -0.06924381 -0.0063881036
-0.22905944 -0.14861032 0.018123563 -0.026190048 -0.16684784 -0.0073747193 -0.09199699 -0.040620644
-0.35934374 0.18440343 -0.17352644 -0.21757154 -0.024837663 0.055465374 0.06690021 -0.26663247
00000000: 959e 3cbe 8ad5 b8be 16d6 cebe 526f efbd
00000010: 7fc1 96be e12a 1abe 598f 83be ebf2 03bc
00000020: 531a 72be d95e 7fbc b5f0 6fbc 2a16 6dbc
00000030: 35d4 8abd da65 07be 5dbf 2fbe 7720 38be
00000040: d514 0abe 3aec 8bbe 3a01 00be eed7 ebbd
00000050: bd4a 68be 3bc2 77bd 9a6a 52be 848a f9bd
00000060: 8c7c 51bc 2ebe 8a3d e16c f43c 064c a23d
00000070: a412 4fbd 53ba 51be dc0a e63d 0a79 d5be
00000080: 0573 30bd a2ff 3ebe eea3 6fbe b363 76be
00000090: 26d3 96be 49c2 68bc da46 1f3d 3de6 fd3c
000000a0: 86d6 bbbc ca2d 3fbe 3201 81bd 6847 ab3c
000000b0: 92d3 6fbe d3e6 e83c 9db2 86be 4be7 923c
000000c0: ef27 91be 3b69 85bd 1751 75bc 9b5a 60be
000000d0: a6a1 82be 1b91 72be 0da5 56be 8e75 5dbe
000000e0: 2755 bcbd 3eb0 6fbe 378a 9ebb 99d6 01be
000000f0: 4e16 9bbe e6cc 62be 458c 193c 92d2 93be
00000100: 8edf 85bd a776 2e3d b725 703c cc68 d13c
00000110: fcb8 06bc ae31 023d 90d4 1abd c170 e23d
00000120: 33bc 093e 7961 543b 6a15 643c 9f19 ba3d
00000130: f394 a73c 0d9d 5d3d d82f c5bd 3853 3f3d
00000140: b0a2 8ebc 0890 be3d 5ade 31bd 4309 38bd
00000150: cf50 64bc 94ca 453d 3216 59bd 0516 923d
00000160: 4d52 85bb 6580 f13c cbd3 0a3c fed3 4e3d
00000170: 562a 223d 6127 d4bd c4db edbd a02e b0bc
00000180: d440 98be a017 95bd 1ee0 10be 576a 27be
00000190: 4ac5 49be 6f9a 6dbe 1af1 14be 4c74 9bbc
000001a0: 2d2d 86be a128 54bd e28c 093e cb94 79be
000001b0: f6ef 7abe 7b87 1dbe b3cf 8dbd 4c53 d1bb
000001c0: 8f8e 6abe 4e2d 18be de77 943c 838c d6bc
000001d0: 29da 2abe a1a7 f1bb eb68 bcbd d561 26bd
000001e0: e7fb b7be 41d4 3c3e eab0 31be 13cb 5ebe
000001f0: 5b78 cbbc a92f 633d fa02 893d 0d84 88be

lstm.weight_ih_l0_reverse f4 [128, 64]
-0.12273329 -0.04148425 -0.10000553 -0.026490869 0.059615474 -0.05783532 -0.11639788 -0.158311
-0.14941615 -0.09906651 0.13747273 -0.025754571 0.079931535 0.13432808 -0.07366624 -0.04964004
-0.017711887 0.033179328 -0.2007545 0.098346755 -0.0353357 0.13963972 -0.03447849 -0.021242553
0.09141542 0.061965197 -0.083231404 0.13834286 -0.20904031 -0.21568897 0.0752465 0.0096752895
0.06610014 -0.15759182 0.06859276 0.16629265 -0.16103539 -0.14762495 -0.089586854 0.081570685
0.12519567 0.10158054 -0.07450771 -0.16112337 -0.07268274 -0.018547453 -0.17953417 0.0784313
-0.15522993 0.13525653 -0.14665818 -0.10022982 0.083786376 0.14538382 -0.09481803 -0.13602181
-0.04545538 0.098093845 -0.12059873 -0.05337683 -0.09570769 0.034281567 0.098216206 0.017245704
0.018227935 -0.076853134 0.17775774 0.20218347 0.13165815 -0.104951344 0.16676623 0.07603021
0.06792646 0.03138208 0.26082286 0.0662356 -0.01938835 -0.06382806 0.24755622 -0.07096017
-0.128375 0.070292264 0.07812775 0.049254205 0.12771338 0.035838522 0.10404156 0.121649295
0.06876458 -0.03161557 0.004101664 0.10035282 0.20947076 0.205033 0.033698726 0.114730954
0.113970615 0.2533007 0.10485001 0.0076705962 -0.15023208 0.20938662 0.04180257 -0.098808445
0.13047068 -0.09383332 -0.10412235 -0.03202533 0.13395981 0.1471224 0.117064446 0.13991728
-0.030317618 -0.056106944 0.012793437 -0.10653524 -0.032279797 -0.14068162 -0.14471984 -0.050319046
0.141196 0.010860334 -0.15270488 0.001457143 -0.017161772 0.07043202 0.027090613 -0.019222818
0.13792524 -0.08310524 -0.033926785 -0.10831479 -0.050096817 0.020396844 -0.110549755 0.117140904
0.052647345 0.15176365 -0.2335641 0.0027792305 0.026909618 -0.15374033 0.04745661 0.08986298
0.14547344 0.03889358 -0.02711481 -0.12871033 0.015277207 0.12876146 0.03634169 -0.095108464
-0.10926218 0.0075637856 -0.15123829 0.026071142 -0.0911885 -0.10198675 -0.025752276 0.053677786
-0.10760399 0.010279983 -0.05581306 0.024666756 0.104193576 -0.068499684 -0.008782685 0.06387358
-0.19204721 -0.10746728 0.13753146 0.14253533 -0.10591876 -0.10150545 0.016260065 0.04969965
-0.11790075 0.16253628 -0.032363236 -0.10732003 -0.16777779 -0.16898085 0.06763408 -0.0034051582
-0.11914612 0.10518401 -0.09183918 0.08205077 0.02740264 -0.13542767 -0.0204559 0.15991832
-0.116527095 -0.039771497 0.05789837 0.06519851 -0.18358824 0.13270704 -0.08234616 -0.07152074
0.07572017 -0.024112543 0.025177034 -0.016737118 -0.10132121 -0.029236155 -0.049567085 -0.033472765
0.057235893 0.05688475 4.819462e-05 -0.020274619 0.07486754 -0.17456923 -0.09910976 0.10933875
0.17331584 0.083765134 -0.11179574 -0.079898536 -0.16476598 -0.14152558 0.08030856 0.041638885
0.13058485 -0.21692415 0.17053623 0.122973725 0.13405515 0.04789629 0.053695723 0.081053
-0.13739297 -0.15843299 0.12566419 0.031303305 0.07635924 -0.039362825 -0.1439207 -0.094477646
0.025238862 -0.14552784 0.026761562 0.16910206 -0.12746869 -0.07874053 0.09388177 -0.20734015
0.013834581 -0.15130784 -0.09494587 -0.054255582 -0.03130528 0.16954677 0.13095474 -0.054348413
00000000: 975b fbbd 64eb 29bd b3cf ccbd 6103 d9bc
00000010: 5b2f 743d bae4 6cbd 0362 eebd 471c 22be
00000020: 8c00 19be 62e3 cabd a7c5 0c3e 40fb d2bc
00000030: 25b3 a33d 4d8d 093e 53de 96bd 5b53 4bbd
00000040: 8518 91bc 0ce7 073d 9692 4dbe 066a c93d
00000050: 2bbc 10bd b7fd 0e3e 5139 0dbd dd04 aebc
00000060: 0238 bb3d 38cf 7d3d 3a75 aabd c0a9 0d3e
00000070: aa0e 56be 92dd 5cbe d61a 9a3d 1b85 1e3c
00000080: 835f 873d c05f 21be 5c7a 8c3d 9f48 2a3e
00000090: 76e6 24be ff2a 17be 5079 b7bd 880e a73d
000000a0: 4b33 003e 7509 d03d 8097 98bd 86fd 24be
000000b0: b0da 94bd d4f0 97bc ced7 37be 97a0 a03d
000000c0: 98f4 1ebe b080 0a3e 902d 16be 4b45 cdbd
000000d0: 3198 ab3d 7fdf 143e f52f c2bd 4d49 0bbe
000000e0: 6c2f 3abd 6de5 c83d 78fc f6bd aaa1 5abd
000000f0: 6502 c4bd d46a 0c3d 9425 c93d dd46 8d3c
00000100: c052 953c 2d65 9dbd 2006 363e 2f09 4f3e
00000110: 65d1 063e bbf0 d6bd c4c4 2a3e bab5 9b3d
00000120: 071d 8b3d 7f8a 003d 938a 853e 88a6 873d
00000130: 51d4 9ebc 49b8 82bd 617f 7d3e 9153 91bd
00000140: bc74 03be 64f5 8f3d 7101 a03d c7be 493d
00000150: 4cc7 023e 6acb 123d be13 d53d 4423 f93d
00000160: 72d4 8c3d 547f 01bd 4067 863b c785 cd3d
00000170: 817f 563e 2cf4 513e ad07 0a3d 10f8 ea3d
00000180: 6d69 e93d a1b0 813e 9abb d63d a059 fb3b
00000190: 70d6 19be 7269 563e 2c39 2b3d 155c cabd
000001a0: 1b9a 053e af2b c0bd 193e d5bd fe2c 03bd
000001b0: c32c 093e 41a7 163e 7cbf ef3d 7a46 0f3e
000001c0: a75c f8bc 65d0 65bd 909b 513c 262f dabd
000001d0: d237 04bd d80e 10be 7031 14be 581b 4ebd
000001e0: af95 103e 8bef 313c ab5e 1cbe 9bfd be3a
000001f0: d896 8cbc aa3e 903d 22ed dd3c 2c79 9dbc
00000200: 463c 0d3e 1433 aabd d0f6 0abd 25d4 ddbd
00000210: 5232 4dbd 4817 a73c e967 e2bd 92e7 ef3d
00000220: bea4 573d ee67 1b3e 6d2b 6fbe c023 363b
00000230: 8f71 dc3c 1b6e 1dbe dd61 423d 150a b83d
00000240: fdf6 143e e04e 1f3d e11f debc a4cc 03be
00000250: 404d 7a3c 0bda 033e 06db 143d 3ac8 c2bd
00000260: dac4 dfbd a2d9 f73b 36de 1abe 2693 d53c
00000270: 09c1 babd 6ede d0bd 70f6 d2bc 3ddd 5b3d
00000280: 7b5f dcbd 606d 283c 3c9c 64bd f011 ca3c
00000290: 7163 d53d 9049 8cbd 40e5 0fbc 27d0 823d
000002a0: 06a8 44be ce17 dcbd 0cd5 0c3e c8f4 113e
000002b0: efeb d8bd 17e2 cfbd d433 853c dc91 4b3d
000002c0: f375 f1bd e96f 263e 508f 04bd 9bca dbbd
000002d0: f1cd 2bbe 5109 2dbe bd83 8a3d 1329 5fbb
000002e0: e202 f4bd b76a d73d 2e16 bcbd 3c0a a83d
000002f0: 807b e03c 8dad 0abe 2293 a7bc a1c1 233e
00000300: c2a5 eebd 70e7 22bd d726 6d3d cc86 853d
00000310: 8efe 3bbe 5be4 073e 1ba5 a8bd 7779 92bd
00000320: 2d13 9b3d ab87 c5bc 1140 ce3c 481c 89bc
00000330: 7f81 cfbd a980 efbc db06 4bbd bd1a 09bd
00000340: 2f70 6a3d fcff 683d 9424 4a38 f516 a6bc
00000350: 2754 993d 47c2 32be 0ffa cabd ffec df3d
00000360: b579 313e 0e8d ab3d 2af5 e4bd d8a1 a3bd
00000370: 6ab8 28be 15ec 10be d078 a43d 898d 2a3d
00000380: 09b8 053e 5d21 5ebe 0da1 2e3e a6d9 fb3d
00000390: c145 093e e62e 443d 0cf0 5b3d 1eff a53d
000003a0: beb0 0cbe 423c 22be 1dae 003e e537 003d
000003b0: 3c62 9c3d ea3a 21bd f35f 13be 7f7d c1bd
000003c0: bbc1 ce3c 4005 15be 103b db3c 1729 2d3e
000003d0: 2787 02be b742 a1bd 1645 c03d fa50 54be
000003e0: 70aa 623c 71f0 1abe fb72 c2bd 1a3b 5ebd
000003f0: f739 00bd ab9d 2d3e 0019 063e 719c 5ebd

lstm.weight_hh_l0_reverse f4 [128, 32]
0.15640943 0.040991306 0.17280926 0.14455695 0.1537856 -0.091164075 -0.03885387 0.15607513
0.11573459 0.030536234 -0.070754655 -0.15437426 0.00035902858 0.15678422 -0.0682623 -0.06442466
-0.1515768 0.0034401566 -0.11579315 -0.14794165 -0.01560089 0.120663956 -0.021401048 -0.15349673
0.10732348 -0.011098802 0.17122866 -0.06537948 -0.04422623 0.13290031 -0.05442273 -0.16045785
0.024486184 0.050228804 0.019684032 0.17390676 -0.1219714 -0.123864844 -0.16782999 0.15108912
-0.01818733 0.07446565 -0.06972659 -0.042362794 -0.16555382 0.04454875 -0.06969291 0.16529296
0.03476453 -0.07170146 0.17184283 0.08735825 0.13847251 0.16329746 0.03275691 0.04684475
-0.15047337 0.021269932 -0.15188691 -0.051173463 -0.09342365 -0.17447877 -0.070815235 -0.15741032
0.040051177 0.17529221 -0.11879243 0.14558898 0.060223803 -0.105472885 -0.06844503 -0.039331794
0.15442763 0.063250676 0.16613351 -0.035233542 0.005729869 -0.020818293 0.11650844 -0.17452937
0.09457226 0.10684122 -0.16485006 0.07505064 0.05120088 0.17385994 0.11870454 -0.16435987
-0.1539579 -0.03344612 -0.1058658 -0.15177654 -0.05697626 0.13485993 -0.022495255 0.105619326
0.0653097 -0.0023951828 -0.030696988 -0.117966756 0.16983475 0.05638255 0.1028599 0.112078235
0.07007986 0.013965443 0.13510595 -0.04221542 0.1077479 -0.16097833 -0.116831794 -0.012219638
0.13398369 0.10505001 0.15047966 -0.044294 -0.07778877 -0.014974326 0.026165545 0.040336803
0.04374209 -0.09231224 -0.014518857 -0.064262666 0.10267492 0.064639375 -0.15580335 -0.10708608
-0.15644608 -0.091860786 -0.04278545 -0.07754754 0.09732737 0.023009837 0.03319134 -0.057987742
0.07751797 0.06513481 -0.103423916 0.04373133 0.005828008 0.08024748 -0.05403603 0.16880713
-0.026693493 0.004173279 -0.16202037 -0.014780834 0.122663215 0.12235604 -0.10662986 -0.034921125
0.0031606108 0.14892589 -0.13450086 -0.11315042 -0.11280846 0.072558165 0.0128875375 -0.027902797
-0.049785674 0.1124133 0.11795269 -0.06541083 0.13584705 -0.020942703 0.032724753 0.05267857
-0.022419363 -0.16886558 0.11429511 0.002141565 -0.14376225 0.04520543 0.16272919 0.02723217
-0.0495317 -0.16754444 0.0038221478 -0.1484389 0.049953714 0.14066802 -0.05219613 0.09712531
0.17387883 0.04355222 0.058828756 0.03602314 0.073165774 0.15749456 0.08322023 -0.013086051
0.100381956 0.051270276 -0.100567184 -0.13778822 -0.117954046 -0.17221217 -0.1046721 -0.06781832
-0.034082994 0.14795707 -0.061206937 -0.114665285 -0.14342062 -0.009885296 -0.16352335 -0.0050008744
-0.035002276 0.13239603 -0.1247875 -0.008028552 0.15286396 0.154453 -0.095788576 -0.12686184
0.062288 -0.1743519 -0.05194991 -0.15134273 0.072870135 -0.16508286 -0.067088574 0.11670448
-0.13809967 0.061518863 -0.15241364 -0.047583222 -0.107976705 -0.13711695 0.17378832 -0.04212399
0.101570114 0.10424395 0.14424132 -0.04248607 0.015283376 -0.0083806515 -0.058172025 0.095678136
0.06283414 -0.0032059997 -0.08021121 -0.119550034 0.04272957 0.021028161 -0.08534608 0.043589085
-0.08991057 -0.010847539 0.086847976 0.120544 0.13642229 -0.042438924 -0.13782409 0.07052103
00000000: cb29 203e 80e6 273d e9f4 303e bd06 143e
00000010: f979 1d3e 3bb4 babd 3c25 1fbd 29d2 1f3e
00000020: 4206 ed3d 2027 fa3c d1e7 90bd 4914 1ebe
00000030: 003c bc39 0b8c 203e 1bcd 8bbd 13f1 83bd
00000040: f336 1bbe 4074 613b f624 edbd 047e 17be
00000050: e09a 7fbc aa1e f73d 4051 afbc 3f2e 1dbe
00000060: 6acc db3d c0d7 35bc 9156 2f3e ade5 85bd
00000070: 9026 35bd 0517 083e 5eea 5ebd 104f 24be
00000080: 4097 c83c b8bc 4d3d 6840 a13c 9d14 323e
00000090: 24cc f9bd daac fdbd a0db 2bbe 1bb7 1a3e
000000a0: 98fd 94bc 7281 983d d0cc 8ebd 9c84 2dbd
000000b0: f186 29be c078 363d 28bb 8ebd 8f42 293e
000000c0: 4065 0e3d 37d8 92bd 91f7 2f3e e2e8 b23d
000000d0: bdcb 0d3e 7337 273e 1c2c 063d 48e0 3f3d
000000e0: b115 1abe 483e ae3c 3e88 1bbe 449b 51bd
000000f0: e654 bfbd 90aa 32be 9407 91bd 2c30 21be
00000100: b40c 243d cd7f 333e 7249 f3bd 4715 153e
00000110: 3cad 763d 2b02 d8bd e82c 8cbd 601a 21bd
00000120: 4722 1e3e 9289 813d e71e 2a3e 0c51 10bd
00000130: a0c1 bb3b 208b aabc fa9b ee3d d4b7 32be
00000140: 1aaf c13d 92cf da3d 74ce 28be 26b4 993d
00000150: 04b8 513d 5708 323e 5e1b f33d f44d 28be
00000160: 24a7 1dbe ccfe 08bd 2bd0 d8bd 4f6b 1bbe
00000170: f05f 69bd b918 0a3e f847 b8bc f24e d83d
00000180: 18c1 853d 80f8 1cbb 4078 fbbc 8e98 f1bd
00000190: 29e9 2d3e 64f1 663d 36a8 d23d 4689 e53d
000001a0: 0886 8f3d 50cf 643c 3759 0a3e 14ea 2cbd
000001b0: eeaa dc3d 81d7 24be 8245 efbd e034 48bc
000001c0: 0533 093e 7624 d73d 5717 1a3e a06d 35bd
000001d0: b84f 9fbd e056 75bc 2059 d63c 3438 253d
000001e0: e82a 333d 330e bdbd 80e0 6dbc 259c 83bd
000001f0: 3a47 d23d a661 843d ea8a 1fbe f24f dbbd
00000200: 6733 20be 8221 bcbd cc3f 2fbd 3fd1 9ebd
00000210: 9253 c73d 207f bc3c a4f3 073d 8e84 6dbd
00000220: bec1 9e3d 6665 853d ebcf d3bd a01f 333d
00000230: e0f8 be3b ca58 a43d e254 5dbd c7db 2c3e
00000240: 50ac dabc 00c0 883b abe8 25be 502b 72bc
00000250: da36 fb3d ce95 fa3d c260 dabd 7409 0fbd
00000260: 4022 4f3b 0780 183e 98ba 09be 68bb e7bd
00000270: 1f08 e7bd 6099 943d 4026 533c 6894 e4bc
00000280: 10ec 4bbd f238 e63d 2e91 f13d 1df6 85bd
00000290: 7d1b 0b3e 0890 abbc 640a 063d 7cc5 573d
000002a0: d0a8 b7bc 19eb 2cbe 8e13 ea3d 8059 0c3b
000002b0: 6936 13be 5429 393d 7ba2 263e 0016 df3c
000002c0: c0e1 4abd c590 2bbe 007d 7a3b 5e00 18be
000002d0: 449c 4c3d 470b 103e 9ccb 55bd a2e9 c63d
000002e0: 4b0d 323e d063 323d 6cf6 703d 008d 133d
000002f0: f0d7 953d 4146 213e 5e6f aa3d e066 56bc
00000300: 0e95 cd3d c800 523d 2bf6 cdbd 5b18 0dbe
00000310: e491 f1bd 6358 30be 535e d6bd 55e4 8abd
00000320: 9c9a 0bbd 0f82 173e 20b4 7abd a2d5 eabd
00000330: dbdc 12be f0f5 21bc aa72 27be 60de a3bb
00000340: 8c5e 0fbd d392 073e 9790 ffbd 308a 03bc
00000350: 5f88 1c3e ed28 1e3e cd2c c4bd 12e8 01be
00000360: b421 7f3d 4e89 32be 6ec9 54bd 97f9 1abe
00000370: f03c 953d 7b0b 29be bc65 89bd c202 ef3d
00000380: 006a 0dbe 34fb 7b3d 5212 1cbe a0e6 42bd
00000390: e422 ddbd 6368 0cbe 91f5 313e 348a 2cbd
000003a0: fe03 d03d da7d d53d ffb3 133e e005 2ebd
000003b0: 2067 7a3c 004f 09bc ca45 6ebd e6f2 c33d
000003c0: 30af 803d c01b 52bb c645 a4bd a6d6 f4bd
000003d0: 3405 2f3d 4043 ac3c edc9 aebd 788a 323d
000003e0: 0823 b8bd e0b9 31bc 5add b13d c6df f63d
000003f0: 49b2 0b3e 70d4 2dbd c221 0dbe 546d 903d

lstm.bias_ih_l0_reverse f4 [128]
-0.139974 0.0017308319 -0.08762459 -0.01804127 0.053630646 -0.3308709 -0.06751705 -0.008903336
-0.07325423 -0.1739669 -0.33354852 -0.2346555 -0.18321542 -0.025414852 -0.08936233 -0.0120592
0.15564378 -0.12580267 0.17132129 -0.17388679 -0.1761459 -0.014800258 -0.3786478 -0.17426859
-0.0118255615 -0.12796132 0.00506262 -0.111987956 -0.19432023 -0.27694842 0.07451783 -0.19671182
0.10621287 0.11104952 0.13174023 -0.053723007 0.034526438 0.077347115 0.089236185 0.13575487
-0.16458543 0.020084366 -0.07734442 0.05701679 -0.07867215 -0.12878722 0.1495272 -0.063213676
0.050824225 0.0017794967 -0.06699077 -0.016841456 -0.093940645 -0.13930684 0.1378464 0.08860053
-0.018449634 0.1385883 -0.04478918 -0.084897384 -0.09657495 0.14374901 0.03779523 -0.02207011
0.019754043 0.15350005 0.044036414 0.10206808 -0.03416119 0.06938804 0.0636716 0.026870005
0.01588843 -0.12152865 0.1488936 -0.09264605 0.1109182 -0.07067846 -0.080096796 -0.00088448427
-0.12744132 -0.037518412 0.15587993 0.07754129 0.094775654 -0.063911125 0.037820432 -0.0030248729
0.09361749 0.07821602 -0.13125345 0.014205034 -0.122201085 0.01004542 0.11520705 0.15098347
-0.008377027 0.06607748 -0.36897013 -0.1649467 0.04467629 -0.27798793 -0.28356984 0.031597644
-0.07713213 -0.0065008416 -0.20864664 -0.09959429 -0.0722168 0.10374113 -0.025917774 0.022669546
0.108930334 -0.28506374 -0.03760241 -0.3542117 -0.10473285 -0.06586922 -0.13295029 0.041575707
0.16062747 0.032939274 -0.26517722 -0.0779788 -0.11476309 -0.13909584 -0.13407719 -0.012419478
00000000: 5855 0fbe 15dd e23a 8574 b3bd 49cb 93bc
00000010: cfab 5b3d e967 a9be 6146 8abd 4cdf 11bc
00000020: 5006 96bd 6124 32be dfc6 aabe 8849 70be
00000030: d39c 3bbe cf32 d0bc 9903 b7bd f393 45bc
00000040: 1561 1f3e 6ad2 00be d96e 2f3e 610f 32be
00000050: 975f 34be c87c 72bc 20de c1be 7773 32be
00000060: 00c0 41bc 4b08 03be 56e4 a53b f159 e5bd
00000070: e2fb 46be 2fcc 8dbe ce9c 983d d36e 49be
00000080: 2286 d93d ee6d e33d e9e6 063e a80c 5cbd
00000090: 986b 0d3d 2a68 9e3d 76c1 b63d 5303 0b3e
000000a0: 1589 28be f887 a43c c066 9ebd 708a 693d
000000b0: dd1e a1bd cce0 03be a91d 193e 2c76 81bd
000000c0: 102d 503d 003e e93a 7532 89bd 18f7 89bc
000000d0: f463 c0bd 74a6 0ebe 9b27 0d3e 3274 b53d
000000e0: b023 97bc 17ea 0d3e dc74 37bd aede adbd
000000f0: 16c9 c5bd f132 133e 2ccf 1a3d 60cc b4bc
00000100: 3bd3 a13c 1e2f 1d3e 875f 343d 1209 d13d
00000110: 9bec 0bbd 511b 8e3d 4166 823d 7c1e dc3c
00000120: 7428 823c 03e4 f8bd 9077 183e 36bd bdbd
00000130: 1529 e33d debf 90bd ca09 a4bd bcdc 67ba
00000140: fa7f 02be e8ac 19bd fd9e 1f3e f8cd 9e3d
00000150: bd19 c23d d6e3 82bd 99e9 1a3d f23c 46bb
00000160: 87ba bf3d b82f a03d 4e67 06be 3bbc 683c
00000170: 9044 fabd 8c95 243c adf1 eb3d 699b 1a3e
00000180: cc3f 09bc a153 873d a7e9 bcbe cae7 28be
00000190: 7cfe 363d 6f54 8ebe 1130 91be 886c 013d
000001a0: 73f7 9dbd 0305 d5bb 77a7 55be 17f8 cbbd
000001b0: 67e6 93bd 3b76 d43d 8351 d4bc 7cb5 b93c
000001c0: de16 df3d e0f3 91be fc04 1abd 3c5b b5be
000001d0: 2d7e d6bd 71e6 86bd 1f24 08be 4a4b 2a3d
000001e0: 877b 243e 55eb 063d 4fc5 87be 59b3 9fbd
000001f0: e908 ebbd 246f 0ebe 884b 09be 117b 4bbc
