saved_models/Complete_OHLCAG_Hybrid_Model_15m_sub_1.pth (torch, 194954 bytes, 17 tensors)

conv1d_1.weight f4 [64, 6, 3]
0.1442673 -0.21885811 0.16426392 0.21332917 0.17734073 0.025689382 -0.057608813 0.03299812
0.20308448 -0.0504376 -0.24321562 0.1855617 -0.14250182 0.1034058 -0.051148027 0.025076697
0.18533947 0.028255116 -0.17320094 0.19675744 -0.1264035 0.22184962 0.16175796 0.022430504
0.15649657 0.10123937 -0.08056582 0.18486238 0.19611628 -0.026581101 -0.10564667 -0.019588921
0.34500572 -0.12302617 0.17939906 0.24781533 0.026610909 0.19559087 -0.10897768 -0.057442922
-0.033319067 -0.24825901 -0.20460667 0.15205486 0.012653235 0.16658512 0.18344572 -0.088710085
0.18059099 0.22514877 0.18166476 -0.073635526 0.14800674 -0.16958095 0.14242338 -0.13451202
-0.109029606 -0.09814764 -0.10002356 0.16229057 0.10899554 0.1349942 0.09328451 0.065220416
-0.12642793 0.12108094 0.07795245 0.15005581 0.13234243 -0.07299267 0.29216376 -0.050249077
0.20475918 -0.16387625 0.13572486 0.15164797 -0.017569233 -0.0666369 0.059410952 -0.15479288
0.08470546 0.010265929 -0.23855264 0.21966173 0.06290215 -0.32964593 0.27414215 -0.1142058
0.016116157 0.03539954 0.06854762 0.16549812 0.029371504 -0.19714804 0.19822611 -0.08957599
-0.2263591 -0.17635077 0.10487081 0.028615758 0.1444695 -0.042523663 0.21693228 0.13325426
0.010858562 -0.16906685 0.21502084 -0.16803934 -0.16989854 -0.265497 -0.40985328 -0.0632545
-0.44534728 -0.31927106 -0.11954379 -0.13370037 -0.33460858 -0.35504198 -0.1748557 -0.24052015
0.25550357 -0.13006769 -0.1347234 -0.087209046 -0.16603866 -0.1418516 -0.048101787 -0.091246486
0.1727528 0.1360324 -0.2090925 0.035415757 0.20665486 -0.11302308 0.18115824 -0.15456006
0.18493031 0.2875746 0.005648393 0.18230097 0.016023306 0.058290835 0.21811438 -0.21897517
-0.04835336 -0.05550757 0.13010107 -0.1758897 -0.22986251 0.09321429 -0.025535598 0.005908057
0.17965613 0.00875999 0.077637 -0.1983438 0.0205075 0.16764106 0.018628135 0.092702165
0.16037612 0.1698304 -0.04760936 -0.2053958 0.084691316 0.161117 0.1855499 0.10550722
-0.06659132 -0.20154794 0.07602003 0.08298981 0.23290774 0.2658608 -0.14956681 0.025782494
0.37430668 -0.08296538 0.1921959 0.101730615 0.06815867 0.049587026 -0.12902209 0.017080054
-0.11085995 -0.15932566 0.12389232 0.027372286 -0.23277873 -0.052365273 -0.04207073 -0.10309914
0.21425067 0.07680701 -0.13014969 -0.04768014 0.018693998 -0.2337338 0.021941371 0.012980711
0.14559875 0.0698084 0.029191896 -0.0829898 0.05560006 -0.14527062 -0.20486383 -0.103183895
-0.15519162 0.08949672 -0.22330354 -0.029770548 -0.22172652 -0.14015326 0.1912822 0.15324472
-0.1905691 0.09932003 0.13985491 -0.08049527 -0.11231408 -0.23015326 0.04061913 0.22148488
-0.17904715 -0.09416949 -0.10699262 -0.09446961 -0.04586112 0.17283474 -0.22037788 0.026611524
0.1779802 -0.21905181 -0.16442184 0.16796821 0.16072343 0.21401282 0.059061665 -0.2293902
0.009999164 -0.11705978 0.10102684 0.12197125 0.19180082 -0.24630636 -0.14833447 0.35923764
0.19088581 -0.1760423 0.07325473 -0.045237735 -0.13278556 0.03326203 -0.05179195 -0.17463928
00000000: cfba 133e 571c 60be cd34 283e f672 5a3e
00000010: cf98 353e 8a72 d23c 38f7 6bbd 0929 073d
00000020: 61f5 4f3e a897 4ebd 840d 79be e303 3e3e
00000030: ffeb 11be 6cc6 d33d 9880 51bd a56d cd3c
00000040: a1c9 3d3e 4677 e73c 965b 31be c87a 493e
00000050: eb6f 01be 8c2c 633e e1a3 253e 2dc0 b73c
00000060: a340 203e 9656 cf3d b1ff a4bd 904c 3d3e
00000070: b5d2 483e 9cc0 d9bc 485d d8bd f278 a0bc
00000080: 97a4 b03e 25f5 fbbd 63b4 373e 4dc3 7d3e
00000090: 1fff d93c f948 483e b12f dfbd 4549 6bbd
000000a0: 9379 08bd 9c37 7ebe 6984 51be 45b4 1b3e
000000b0: 844f 4f3c 4a95 2a3e 32d9 3b3e a2ad b5bd
000000c0: d8ec 383e 668d 663e 5406 3a3e 39ce 96bd
000000d0: 148f 173e a1a6 2dbe 6fd7 113e 85bd 09be
000000e0: ea4a dfbd a101 c9bd 27d9 ccbd 802f 263e
000000f0: 0e39 df3d eb3b 0a3e f30b bf3d 4892 853d
00000100: 5376 01be 49f9 f73d 89a5 9f3d 3ba8 193e
00000110: c684 073e 2e7d 95bd 7d96 953e fad1 4dbd
00000120: 64ac 513e 2dcf 27be 75fb 0a3e 9b49 1b3e
00000130: 5aed 8fbc ed78 88bd e658 733d 0682 1ebe
00000140: 0e7a ad3d 6d32 283c 2547 74be 01ef 603e
00000150: d8d2 803d 5ac7 a8be 5c5c 8c3e bbe4 e9bd
00000160: 0806 843c 1cff 103d b262 8c3d 5778 293e
00000170: 829c f03c 2de1 49be c9fb 4a3e 9e73 b7bd
00000180: aeca 67be 4c95 34be 82c6 d63d 986b ea3c
00000190: d0ef 133e 4b2d 2ebd 7f23 5e3e ce73 083e
000001a0: 1ce8 313c dc1f 2dbe 6c2e 5c3e 8112 2cbe
000001b0: e2f9 2dbe 39ef 87be 4ad8 d1be 938b 81bd
000001c0: 8f04 e4be 7f77 a3be 60d3 f4bd c0e8 08be
000001d0: d151 abbe 10c8 b5be 5f0d 33be ea4a 76be
000001e0: 5dd1 823e 7730 05be eef4 09be a89a b2bd
000001f0: 0a06 2abe 8c41 11be 6106 45bd 70df babd
00000200: 1ce6 303e 144c 0b3e 581c 56be 1d10 113d
00000210: 559d 533e a578 e7bd 8c81 393e fe44 1ebe
00000220: 5f5e 3d3e fa3c 933e 2816 b93b 1bad 3a3e
00000230: 4f43 833c 5fc2 6e3d 6059 5f3e 073b 60be
00000240: 2c0e 46bd e85b 63bd 3739 053e 6e1c 34be
00000250: 1461 6bbe 22e7 be3d 0830 d1bc 6098 c13b
00000260: c7f7 373e 1086 0f3c 2600 9f3d a31a 4bbe
00000270: 58ff a73c 19aa 2b3e 089a 983c a2da bd3d
00000280: a339 243e 05e8 2d3e 0802 43bd 4753 52be
00000290: a472 ad3d dbfb 243e cb00 3e3e 2b14 d83d
000002a0: 0861 88bd 9562 4ebe 64b0 9b3d 90f6 a93d
000002b0: 5e7f 6e3e e81e 883e 0b28 19be cf35 d33c
000002c0: 20a5 bf3e c1e9 a9bd 01cf 443e 2458 d03d
000002d0: c696 8b3d c41b 4b3d 5e1e 04be 78eb 8b3c
000002e0: 8b0a e3bd 4426 23be 42bb fd3d d83b e03c
000002f0: 8c5d 6ebe f87c 56bd 5c52 2cbd a425 d3bd
00000300: 8764 5b3e fe4c 9d3d f645 05be 404c 43bd
00000310: 2824 993c ea57 6fbe 64be b33c 0cad 543c
00000320: d717 153e b5f7 8e3d d823 ef3c 8ef6 a9bd
00000330: e3bc 633d d2c1 14be d3c7 51be 1452 d3bd
00000340: 8dea 1ebe 0e4a b73d afa9 64be 5de1 f3bc
00000350: 470c 63be 5684 0fbe 7bdf 433e 2fec 1c3e
00000360: 8c24 43be 4d68 cb3d 2036 0f3e b4da a4bd
00000370: ed04 e6bd 4cad 6bbe 3f60 263d efcc 623e
00000380: 2358 37be efdb c0bd f21e dbbd 4879 c1bd
00000390: dfd8 3bbd 97fb 303e bdaa 61be 6900 da3c
000003a0: 7140 363e 1e4f 60be 335e 28be dcff 2b3e
000003b0: af94 243e 2d26 5b3e a5ea 713d 44e5 6abe
000003c0: 89d3 233c 0abd efbd 29e7 ce3d 10cc f93d
000003d0: 6f67 443e bc37 7cbe fee4 17be ffed b73e
000003e0: 9277 433e 6f44 34be 9306 963d 344b 39bd
000003f0: f0f8 07be c43d 083d cc23 54bd a4d4 32be

conv1d_1.bias f4 [64]
0.012609513 0.037286367 0.020775989 0.033528987 0.08382866 -0.21014366 0.08337048 -0.056247912
-0.03846012 0.120056525 -0.094389364 0.164018 0.031823948 -0.09946089 -0.07268295 -0.029333435
0.16498809 0.008237083 -0.022457335 0.025949169 -0.18708882 0.038357526 -0.010883614 0.012638163
-0.068807706 0.14657053 0.08782649 0.08890829 -0.10767916 -0.19446617 -0.01640756 0.04641776
0.032650474 0.1434447 0.2259081 -0.027402163 0.1381593 0.10888176 0.095078364 -0.19292894
0.11647356 0.0208785 -0.18862441 0.042709112 -0.00013142226 -0.081988305 0.010337718 -0.119519345
-0.00069209654 -0.1639713 -0.18719296 -0.060050547 0.16373305 0.14890696 0.04479031 0.004096029
-0.016430655 0.13891713 0.1204818 0.008154112 -0.0034722867 -0.14691721 0.18799175 0.12563369
00000000: 2198 4e3c 97b9 183d 6832 aa3c b155 093d
00000010: 5cae ab3d e62f 57be 24be aa3d 3664 66bd
00000020: 5c88 1dbd 32e0 f53d 364f c1bd 56f4 273e
00000030: d459 023d 27b2 cbbd ccda 94bd ac4c f0bc
00000040: a3f2 283e d5f4 063c 72f8 b7bc 5a93 d43c
00000050: 3694 3fbe c81c 1d3d 3051 32bc 4c10 4f3c
00000060: 0eeb 8cbd 9616 163e 60de b33d 8d15 b63d
00000070: e486 dcbd 2422 47be 2669 86bc 8d20 3e3d
00000080: 81bc 053d 2be3 123e 7454 673e 807a e0bc
00000090: a279 0d3e 66fd de3d 72b8 c23d 2a8f 45be
000000a0: b189 ee3d 6309 ab3c c226 41be c0ef 2e3d
000000b0: 65ce 09b9 7ce9 a7bd 885f 293c 8fc6 f4bd
000000c0: d06d 35ba 18e8 27be 83af 3fbe 90f7 75bd
000000d0: a3a9 273e 117b 183e 0b76 373d fb37 863b
000000e0: 9599 86bc 4b40 0e3e 29bf f63d d398 053c
000000f0: 4e8f 63bb 7771 16be e980 403e 1ea6 003e

conv1d_2.weight f4 [64, 64, 3]
0.016383946 -0.035947084 0.113608345 0.05482586 0.026176196 0.0032215628 0.061565936 0.09745952
0.04543976 0.036524672 0.047633138 0.028511887 -0.001276221 0.0027116046 -0.05018953 -0.060798638
0.008515749 -0.027367182 0.0027868855 0.09766079 -0.006819527 0.106439754 0.10541109 0.1220797
-0.004660256 -0.031601097 -0.008228026 0.113903135 0.07948764 0.09673819 0.021384768 0.02134125
0.015824884 -0.036927223 -0.068485394 -0.045433193 -0.005724814 -0.020327289 0.012772834 0.03464857
0.051273923 0.08744308 0.066164866 -0.03609962 -0.0055234134 0.040142793 -0.055137545 -0.045467578
-0.054131012 -0.03372779 0.029888807 0.010679811 0.107427 0.045714393 0.11371134 -0.021239048
-0.091480315 -0.01797742 0.01516454 0.068216994 -0.008887708 0.06655264 -0.027777959 -0.012933243
0.103343174 0.09110147 -0.0384954 -0.061406624 -0.008942574 0.052236397 0.08961742 0.082326576
-0.01866825 -0.02396667 -0.04884963 0.012790458 -0.014979417 0.06535251 0.03140441 -0.02200466
-0.016576638 0.039892122 -0.062180426 -0.04861471 -0.020253897 -0.05470479 0.014551818 -0.05029708
0.03941711 -0.0114923455 -0.037194833 0.028661638 0.067929305 0.07053902 0.0840484 -0.04758303
-0.013795588 0.06558621 -0.024608906 -0.027745891 -0.041516487 0.047499355 -0.008963361 -0.04769352
-0.006358692 0.056550816 0.050412357 0.03899707 -0.01586897 0.0045848526 0.0450599 0.088468805
-0.041633073 0.018298194 0.018646369 0.0814975 0.108584136 -0.0011894181 -0.050297126 -0.0020840764
-0.014082013 -0.042386316 -0.15179323 0.060625736 -0.022667961 0.0243698 0.03157365 0.028392583
0.086338796 0.00738672 -0.0415196 -0.027654046 0.059750903 0.03140004 0.06148781 0.0036198946
0.013015986 0.07296703 0.07947683 0.002706208 0.0781777 0.02414401 0.123347744 0.03338549
0.04097766 -0.019858938 -0.07073954 0.022545509 -0.03865467 0.06512676 0.011116556 0.079394355
0.016228942 0.004343681 -0.011365388 -0.06625434 0.07688881 0.05016629 -0.005561759 -0.051765624
0.0040092524 0.09305106 -0.082711674 0.052344024 0.016834091 0.10387991 0.02545236 0.034107484
0.0025564206 -0.017955538 0.027081506 0.05252851 -0.0014226474 -0.030429246 -0.013704313 -0.021593258
0.01838139 -0.07272036 0.0011962864 -0.015876686 -0.010106797 -0.037212875 -0.015882365 0.07424623
0.03451854 0.08940969 -0.061951246 0.00074807927 -0.060822707 0.04169745 0.041617252 0.068688706
-0.01880078 0.008216606 0.0466565 0.07243374 0.02277024 -0.025004765 0.046030503 0.015385738
0.003769089 -0.04667649 -0.011623941 0.06542984 0.0589647 -0.058011945 0.022816207 0.060500156
-0.06452692 -0.04308226 0.0659041 0.041823473 -0.032800104 0.06475421 0.005914737 0.035472013
0.07076973 0.048117824 -0.0083788335 0.08887236 0.018109586 0.070572495 0.0055499747 0.0475861
0.035295554 -2.4980505e-05 -0.021507323 -0.08291373 0.08448371 0.054559346 -0.033910215 -0.0008286871
0.013005305 0.1098622 0.014612317 -0.04978217 0.010495156 -0.037828553 0.012151801 0.039248336
-0.09536383 0.0016544658 -0.056349188 -0.0407419 0.08166132 0.047829572 0.034158114 -0.12296368
-0.101634875 0.0895183 -0.0440166 0.077534884 -0.045242865 0.06648682 -0.018939681 -0.0036862502
00000000: a037 863c 403d 13bd 7eab e83d 1591 603d
00000010: 766f d63c db20 533b 902c 7c3d db98 c73d
00000020: 0b1f 3a3d e59a 153d f71a 433d c391 e93c
00000030: df46 a7ba 2db5 313b 8993 4dbd fe07 79bd
00000040: a485 0b3c 2431 e0bc 2ea4 363b 6102 c83d
00000050: 5776 dfbb 16fd d93d c5e1 d73d ec04 fa3d
00000060: 10b5 98bb 2770 01bd d8ce 06bc 0c46 e93d
00000070: 6aca a23d ac1e c63d 1c2f af3c d8d3 ae3c
00000080: 30a3 813c 0041 17bd 1242 8cbd 2818 3abd
00000090: 3897 bbbb 6a85 a6bc 2645 513c a9eb 0d3d
000000a0: 9b04 523d 5c15 b33d 7281 873d 32dd 13bd
000000b0: c0fd b4bb c56c 243d e8d7 61bd 363c 3abd
000000c0: 7bb8 5dbd 2726 0abd 5fd9 f43c 60fa 2e3c
000000d0: b002 dc3d 043f 3b3d 7ee1 e83d 83fd adbc
000000e0: 085a bbbd 6245 93bc b174 783c 5ab5 8b3d
000000f0: c09d 11bc c04c 883d 9a8e e3bc f4e5 53bc
00000100: 96a5 d33d 6893 ba3d 5aad 1dbd 8385 7bbd
00000110: e083 12bc d5f5 553d 5789 b73d d69a a83d
00000120: 28ee 98bc c055 c4bc 8d16 48bd 128f 513c
00000130: 3b6c 75bc 89d7 853d e9a1 003d 1e43 b4bc
00000140: bbcb 87bc ec65 233d e7b0 7ebd 3820 47bd
00000150: 80eb a5bc 2112 60bd c06a 6e3c 5004 4ebd
00000160: d673 213d 644a 3cbc 9c59 18bd d0cb ea3c
00000170: 851e 8b3d c376 903d 9121 ac3d 6ce6 42bd
00000180: e406 62bc 1052 863d 9e98 c9bc 5a4b e3bc
00000190: 310d 2abd af8e 423d 10db 12bc 485a 43bd
000001a0: 935c d0bb d4a1 673d 307d 4e3d 64bb 1f3d
000001b0: a4ff 81bc 883c 963b bb90 383d 222f b53d
000001c0: 7187 2abd 18e6 953c 45c0 983c 29e8 a63d
000001d0: 5c61 de3d 40e6 9bba 5c04 4ebd 0095 08bb
000001e0: 3eb8 66bc 469d 2dbd af6f 1bbe b152 783d
000001f0: 29b2 b9bc 2da3 c73c 5f53 013d 9097 e83c
00000200: 65d2 b03d 4c0c f23b 7510 2abd bd8a e2bc
00000210: 5dbd 743d 549d 003d a4da 7b3d c13b 6d3b
00000220: 0141 553c bd6f 953d c0c4 a23d a35a 313b
00000230: a11b a03d a9c9 c53c be9d fc3d 39bf 083d
00000240: 31d8 273d 36af a2bc e4df 90bd 5cb1 b83c
00000250: 5c54 1ebd 2e61 853d 3722 363c 8299 a23d
00000260: 8ff2 843c 7055 8e3b e435 3abc 5bb0 87bd
00000270: e177 9d3d 2b7b 4d3d 6b3f b6bb 3108 54bd
00000280: 0c60 833b 8e91 be3d bd64 a9bd b066 563d
00000290: a6e7 893c febe d43d 7881 d03c 4ab4 0b3d
000002a0: 9f89 273b 7e17 93bc 09da dd3c 2328 573d
000002b0: 2078 baba c146 f9bc 0e88 60bc 58e4 b0bc
000002c0: 9294 963c 69ee 94bd b6cc 9c3a d30f 82bc
000002d0: fb96 25bc 876c 18bd bc1b 82bc 680e 983d
000002e0: 5063 0d3d 6d1c b73d 97c0 7dbd c01a 443a
000002f0: 3b21 79bd f2ca 2a3d da76 2a3d aaac 8c3d
00000300: 1804 9abc f29e 063c e31a 3f3d 2458 943d
00000310: a888 ba3c cbd6 ccbc 7b8a 3c3d 7614 7c3c
00000320: d202 773b d92f 3fbd 5872 3ebc 1400 863d
00000330: f884 713d ef9d 6dbd 0ee9 ba3c 03cf 773d
00000340: b126 84bd 0677 30bd bbf8 863d 174f 2b3d
00000350: 6759 06bd db9d 843d 69d0 c13b 1a4b 113d
00000360: b8ef 903d 3217 453d 6047 09bc b602 b63d
00000370: 8e5a 943c 5088 903d 90dc b53b a4e9 423d
00000380: 1292 103d 3a8d d1b7 2030 b0bc acce a9bd
00000390: cc05 ad3d 9f79 5f3d 70e5 0abd 403c 59ba
000003a0: 3414 553c 6fff e03d 8068 6f3c 64e8 4bbd
000003b0: e0f3 2b3c 1df2 1abd 5918 473c ddc2 203d
000003c0: 1d4e c3bd a9da d83a 68ce 66bd fbe0 26bd
000003d0: 0d3e a73d f1e8 433d 61e9 0b3d 62d4 fbbd
000003e0: f225 d0bd 5f55 b73d c04a 34bd 9cca 9e3d
000003f0: 9550 39bd 3e2a 883d 6427 9bbc 0495 71bb

conv1d_2.bias f4 [64]
0.010408812 0.05481414 0.013066374 -0.06370271 -0.048640046 -0.041627437 -0.042334147 0.06996428
-0.07209281 -0.04866608 0.06005935 0.05379733 -0.022318006 0.0071214847 0.082307875 -0.008324206
-0.062087327 -0.029596176 -0.041363478 0.057896018 -0.01010288 0.06042075 -0.048710134 -0.011116724
0.03186601 -0.05180249 0.015446963 0.03129984 0.04324455 0.032587502 0.056461122 -0.013970933
0.042956453 0.0070064086 -0.04675997 -0.056846336 -0.036900096 0.046097156 -0.0328961 0.011753809
-0.04081767 0.025315426 0.026441367 -0.0060179485 0.024791062 -0.02937762 -0.04445568 0.039290547
-0.06576548 -0.08038171 -0.040415492 0.0360908 -0.024878146 0.0122943595 -0.004363291 -0.014994653
0.033390447 -0.0034143734 -0.013925209 0.05411167 0.06695964 0.0547638 -0.0011254103 0.067576654
00000000: b989 2a3c cb84 603d 5814 563c 9176 82bd
00000010: c93a 47bd 8881 2abd 9266 2dbd 6f49 8f3d
00000020: 65a5 93bd 1556 47bd cb00 763d 975a 5c3d
00000030: 40d4 b6bc 585b e93b 0891 a83d 4062 08bc
00000040: 484f 7ebd ae73 f2bc c06c 29bd 6024 6d3d
00000050: 8d86 25bc c07b 773d 4784 47bd ec22 36bc
00000060: ef85 023d d92e 54bd 4215 7d3c 4334 003d
00000070: 3221 313d 797a 053d c743 673d 57e6 64bc
00000080: 1bf3 2f3d 0496 e53b 6287 3fbd b4d7 68bd
00000090: 8e24 17bd 5fd0 3c3d 10be 06bd 0c93 403c
000000a0: 6e30 27bd 4c62 cf3c 919b d83c 3632 c5bb
000000b0: a016 cb3c 56a9 f0bc 2917 36bd 20ef 203d
000000c0: 0db0 86bd 2a9f a4bd b78a 25bd f2d3 133d
000000d0: 41cd cbbc 486e 493c f0f9 8ebb 22ac 75bc
000000e0: 6cc4 083d aec3 5fbb 8f26 64bc 33a4 5d3d
000000f0: 2322 893d 0250 603d 8182 93ba a165 8a3d

lstm.weight_ih_l0 f4 [128, 64]
-0.14057627 0.119930826 -0.05326677 -0.07970776 0.03213405 0.03036666 0.08831095 -0.048208527
0.029072387 0.12039414 -0.086230986 0.025240202 -0.17861353 -0.11151852 0.09120849 0.1166812
-0.071907796 0.08492409 0.23486683 0.046094757 -0.053897697 0.0053087776 -0.09484212 0.12818775
-0.116746284 -0.14370807 -0.10360456 -0.06721134 -0.0038048394 -0.08011049 0.03888758 -0.09527586
-0.15619399 -0.16826004 0.11428802 0.06455606 -0.07498247 0.025989315 -0.020920988 0.039572287
0.03848361 0.11701113 0.06808721 -0.034927126 0.12380634 0.08123508 0.026442096 0.1820361
0.007886852 0.16283041 -0.09915984 -0.14588282 -0.054976225 -0.0688819 0.06887655 0.053517286
0.14919893 0.10624815 0.20175411 0.16646114 -0.10243732 0.03953292 -0.13230838 0.14248824
-0.044382736 -0.123154156 0.05163389 -0.16445693 -0.035095703 -0.098401636 0.032296658 -0.044185106
-0.17147246 -0.06721503 0.07199654 -0.024197228 0.15963161 -0.041013673 0.06841344 0.02483134
-0.04184026 0.0747382 0.058961783 0.16784297 -0.10677776 0.047698915 -0.025667338 -0.11951761
0.17240793 -0.099584 -0.095604345 -0.11377216 -0.12270063 0.09365918 0.004488062 0.09432433
-0.16349559 -0.1056997 -0.17023225 0.0388686 0.10130774 0.009638654 0.13744105 -0.09933216
-0.12937997 -0.024051871 0.14566533 0.12227589 0.018031346 -0.012988926 0.104087904 0.1610194
0.14965768 0.10287461 0.06598881 0.024264975 0.110256165 -0.13091603 0.10852064 0.18017526
-0.06466115 0.11673802 0.039634787 0.12907864 -0.028576767 -0.086585484 -0.05949812 0.046504486
0.026060496 0.12691616 0.17262803 0.16851325 0.17911406 0.12504677 0.087190494 0.025232276
0.15859246 0.13236067 -0.13250802 -0.08441178 -0.028727679 0.04842655 -0.039902788 -0.017286256
0.023848472 -0.06976286 -0.08464499 -0.0091309585 0.17615612 -0.015918257 -0.0438939 -0.10922127
-0.060877196 -0.070173405 0.02393306 -0.13380308 0.15499856 0.13180245 -0.123107284 0.020816274
-0.0005845685 0.0048515303 0.13429822 -0.1429115 0.15420504 0.020946003 -0.09174463 0.15697592
0.13152033 0.03228598 -0.15281881 -0.04426463 0.09511184 0.0025781614 -0.15002286 0.07569698
0.13965042 -0.088485464 -0.07397024 -0.06611745 -0.06986461 0.07110974 0.045842305 0.060685605
-0.038556863 0.16057213 0.03940005 0.16836365 -0.1119651 -0.12866719 0.05161461 -0.09929459
0.12625435 0.16565824 -0.0010657851 0.1754149 0.15643501 0.12884481 -0.031345405 0.036957696
-0.12545545 0.014337292 -0.05981026 0.038518295 -0.15641858 -0.13722219 0.01638301 0.011347771
-0.027381355 -0.13407168 0.18824604 0.007387765 -0.068045 -0.09861786 0.045983244 -0.14226851
-0.076577365 0.17547722 -0.0045643602 0.15729114 0.1157513 -0.18101808 0.06291076 -0.026690384
-0.07749158 -0.10883538 -0.12793204 -0.13115467 0.009055655 -0.060217697 -0.058966726 0.21128234
0.1391686 -0.14951336 -0.03159032 -0.0257024 -0.038134884 0.10260902 0.06554526 -0.06841374
0.15571511 0.03804506 0.16992284 -0.007973295 -0.023483396 0.1479135 -0.1467686 -0.022058284
0.04098868 0.12819996 -0.06528102 -0.010013272 0.20225702 0.08699645 0.16235203 0.16868201
00000000: 3af3 0fbe 4b9e f53d 422e 5abd d23d a3bd
00000010: fe9e 033d 80c3 f83c 5fdc b43d 4e76 45bd
00000020: 3729 ee3c 3491 f63d df99 b0bd 8ac4 ce3c
00000030: 77e6 36be d263 e4bd 84cb ba3d 8ef6 ee3d
00000040: 6544 93bd aeec ad3d ee80 703e dbcd 3c3d
00000050: d5c3 5cbd 41f5 ad3b 963c c2bd a643 033e
00000060: ad18 efbd 3528 13be a12e d4bd 19a6 89bd
00000070: 9d5a 79bb f810 a4bd 9548 1f3d fd1f c3bd
00000080: 51f1 1fbe 5c4c 2cbe d60f ea3d f835 843d
00000090: 6990 99bd 8be7 d43c 7e62 abbc 8d16 223d
000000a0: fda0 1d3d 88a3 ef3d 4f71 8b3d bf0f 0fbd
000000b0: 2e8e fd3d 945e a63d 189d d83c ac67 3a3e
000000c0: db37 013c 04bd 263e 5014 cbbd 4e62 15be
000000d0: c02e 61bd f411 8dbd 260f 8d3d f134 5b3d
000000e0: 9bc7 183e a198 d93d a198 4e3e ca74 2a3e
000000f0: a8ca d1bd 45ed 213d d97b 07be 70e8 113e
00000100: acca 35bd 3f38 fcbd 0f7e 533d 6667 28be
00000110: 83c0 0fbd cc86 c9bd 8049 043d 71fb 34bd
00000120: 7a96 2fbe 09a8 89bd ec72 933d 4439 c6bc
00000130: 7876 233e f4fd 27bd 581c 8c3d 186b cb3c
00000140: b160 2bbd 5710 993d e981 713d 07df 2b3e
00000150: 4cae dabd f05f 433d 4f44 d2bc a6c5 f4bd
00000160: b48b 303e b2f2 cbbd 36cc c3bd 6101 e9bd
00000170: 784a fbbd 62d0 bf3d 9810 933b 1d2d c13d
00000180: 636b 27be 1679 d8bd 5d51 2ebe ae34 1f3d
00000190: 6f7a cf3d 72eb 1d3c 59bd 0c3e a96e cbbd
000001a0: 2f7c 04be 6e08 c5bc 4b29 153e c86b fa3d
000001b0: 79b6 933c 81cf 54bc 0a2c d53d 45e2 243e
000001c0: dd3f 193e ecaf d23d 2425 873d 57c7 c63c
000001d0: fccd e13d da0e 06be 1240 de3d dd7f 383e
000001e0: 116d 84bd 5814 ef3d 1658 223d 312d 043e
000001f0: d319 eabc bb53 b1bd 4db4 73bd 7d7b 3e3d
00000200: d27c d53c 4ff6 013e 67c5 303e bd8e 2c3e
00000210: ad69 373e 430c 003e ee90 b23d ebb3 ce3c
00000220: 1066 223e 8e89 073e 2fb0 07be 15e0 acbd
00000230: 4f56 ebbc eb5a 463d 1b71 23bd e89b 8dbc
00000240: df5d c33c d5df 8ebd 5a5a adbd 049a 15bc
00000250: 4562 343e 0167 82bc 17ca 33bd 67af dfbd
00000260: 5e5a 79bd 13b7 8fbd 440f c43c ad03 09be
00000270: f1b7 1e3e 39f7 063e ac1f fcbd e486 aa3c
00000280: ba3d 19ba 96f9 9e3b 7985 093e 6457 12be
00000290: ede7 1d3e f496 ab3c 9ce4 bbbd 4cbe 203e
000002a0: 44ad 063e 4e3e 043d 897c 1cbe d44e 35bd
000002b0: ffc9 c23d 5ff6 283b 989f 19be 0507 9b3d
000002c0: 8500 0f3e de37 b5bd b67d 97bd 9668 87bd
000002d0: 2d15 8fbd fca1 913d 24c5 3b3d 7891 783d
000002e0: cded 1dbd 056d 243e f261 213d 8567 2c3e
000002f0: f54d e5bd 55c1 03be d769 533d f65a cbbd
00000300: d248 013e 50a2 293e d0b1 8bba f79f 333e
00000310: 8030 203e e5ef 033e 0a64 00bd f460 173d
00000320: 6577 00be f6e6 6a3c 9afb 74bd 5cc5 1d3d
00000330: 312c 20be f983 0cbe aa35 863c 00ec 393c
00000340: dd4e e0bc 164a 09be 92c3 403e 1115 f23b
00000350: 2d5b 8bbd 29f8 c9bd ed58 3c3d d6ae 11be
00000360: 98d4 9cbd 4db0 333e a190 95bb ee10 213e
00000370: 040f ed3d ce5c 39be 5bd7 803d cba5 dabc
00000380: e8b3 9ebd 15e5 debd 9e00 03be 694d 06be
00000390: 2c5e 143c d5a6 76bd 1887 71bd 665a 583e
000003a0: 3782 0e3e 081a 19be da64 01bd d78d d2bc
000003b0: 5333 1cbd ae24 d23d 983c 863d 811c 8cbd
000003c0: c873 1f3e 23d5 1b3d 4100 2e3e 6ca2 02bc
000003d0: 4060 c0bc a376 173e 824a 16be 93b3 b4bc
000003e0: bfe3 273d da46 033e 0eb2 85bd b50e 24bc
000003f0: 771c 4f3e 322b b23d 9c3f 263e faba 2c3e

lstm.weight_hh_l0 f4 [128, 32]
-0.015136904 0.06708438 -0.0720506 -0.13660204 0.03512054 -0.121561036 0.1510025 -0.062282056
0.09945578 -0.008400284 -0.042185836 -0.039559823 -0.0036449456 -0.1147145 -0.016753746 0.049525324
-0.011014996 -0.033685453 0.019755254 -0.10783714 0.14417209 0.087743066 -0.08805532 -0.12999469
-0.075624555 0.00050842034 0.12124575 -0.119860075 0.058712296 -0.09694675 -0.07254706 -0.14936392
-0.03571628 0.10926172 0.028599663 0.06216885 -0.09879983 0.036594637 0.039677523 -0.020050047
0.089890525 0.00045107445 0.06178304 -0.042953003 0.074115686 -0.13407937 0.110219635 0.013206764
-0.22179015 0.05631713 0.02035863 0.015156182 -0.038524665 0.0820319 -0.11091578 -0.08320668
0.084201 0.09921367 -0.041197967 0.043242455 -0.12362942 -0.16632083 -0.13631272 -0.1252942
-0.05075287 0.050700318 0.0076140324 0.08567523 -0.11592094 0.13334896 0.103593975 -0.077825375
-0.0603942 -0.12395221 -0.014755987 -0.045174316 0.0004975716 -0.117068484 0.03214782 -0.096192144
-0.12424524 0.13102144 -0.13837337 -0.10315488 0.010430398 0.030459188 0.08247959 -0.13007616
-0.10364308 0.10584737 0.0039770184 0.15190747 -0.06728877 -0.109743096 0.09879499 -0.116136596
0.15671939 -0.13402736 0.17302422 0.14192806 0.15049818 -0.05826773 -0.11359401 0.11183112
-0.15663904 -0.12827986 0.0059433402 0.086686045 -0.13250089 -0.07133217 -0.16063142 -0.022164227
0.03269806 -0.0004577666 -0.16281149 0.13867553 0.0757556 -0.13158494 0.11651288 0.06849963
0.151808 -0.08500539 0.0046954355 0.028264372 0.1730398 0.09050484 0.0050814506 0.057625514
-0.01398735 -0.18471545 -0.07415344 0.13857147 0.011520462 -0.065845475 0.028719632 -0.08482645
-0.12493177 0.15109219 -0.0052647195 -0.080405235 -0.11917543 0.19900493 0.0122102685 -0.048336893
0.09637306 -0.13676137 0.14810927 -0.04588277 0.027900146 -0.04724974 0.10177346 -0.056374606
0.046025205 -0.059022374 -0.13909005 -0.08251167 0.04449101 0.1766415 0.15185499 -0.1446074
0.14491959 0.0067075966 0.14032134 0.10949798 0.035351943 0.0034485394 0.025986891 -0.0766651
-0.028570607 0.08986073 -0.0030683812 -0.07129478 0.11421276 -0.026845826 0.07908995 0.16772503
-0.20099337 -0.09584132 -0.15703368 -0.07489591 -0.17988427 -0.08689505 0.10947493 0.06350692
0.12833942 0.03640724 -0.09358608 0.09441672 -0.019707866 -0.026731603 0.07267015 0.04039772
-0.117014796 -0.069410816 -0.038998853 -0.06416123 0.20058282 0.1822314 0.11413548 0.03364783
-0.031293586 0.1580321 0.20679381 0.08928748 0.021672495 0.07779517 -0.06798167 0.0080488175
-0.1572074 -0.08726236 -0.12900454 -0.15167345 -0.0230524 0.09531526 0.12850192 -0.15048224
-0.064301535 0.044872828 -0.13261726 -0.04183741 -0.018774709 -0.0784582 -0.105615966 -0.095583506
0.019143747 -0.21245848 0.07275839 -0.04716548 0.051432762 0.049055286 -0.14250797 -0.1846438
0.055825472 -0.074876785 0.1315606 -0.03436228 0.0045435526 0.13400571 -0.22126745 -0.051950738
-0.015909206 -0.09170513 0.026783139 0.050112586 0.036884885 0.20829752 0.05055964 -0.012952701
-0.033055298 -0.111032054 0.14597848 0.09267059 -0.005975701 -0.15713166 0.16345574 0.18930969
00000000: c700 78bc 8963 893d 448f 93bd 68e1 0bbe
00000010: 8eda 0f3d fef4 f8bd 66a0 1a3e 781b 7fbd
00000020: 79af cb3d 58a1 09bc 0ecb 2cbd 7b09 22bd
00000030: 0ae0 6ebb 70ef eabd 273f 89bc 11db 4a3d
00000040: 3e78 34bc c2f9 09bd c5d5 a13c b8d9 dcbd
00000050: d9a1 133e a3b2 b33d 5956 b4bd 541d 05be
00000060: 0ce1 9abd 8347 053a b14f f83d 3379 f5bd
00000070: 4e7c 703d 058c c6bd 8e93 94bd dbf2 18be
00000080: 3c4b 12bd 9cc4 df3d d749 ea3c c4a4 7e3d
00000090: 9157 cabd 42e4 153d e684 223d ff3f a4bc
000000a0: 8618 b83d 307e ec39 3710 7d3d 7def 2fbd
000000b0: f7c9 973d 1a4c 09be d5ba e13d 2f61 583c
000000c0: f51c 63be caac 663d 24c7 a63c a351 783c
000000d0: 0acc 1dbd 5700 a83d d027 e3bd 4468 aabd
000000e0: 9371 ac3d 8930 cb3d 33bf 28bd 001f 313d
000000f0: 6c31 fdbd 0250 2abe 9095 0bbe 1f4d 00be
00000100: 3ee2 4fbd 23ab 4f3d 227f f93b 7f76 af3d
00000110: f567 edbd a18c 083e 1429 d43d e962 9fbd
00000120: e95f 77bd a8da fdbd 18c3 71bc b408 39bd
00000130: 776f 023a 9ac1 efbd 6fad 033d 6300 c5bd
00000140: 4a74 febd 7c2a 063e c0b1 0dbe de42 d3bd
00000150: 43e4 2a3c 8c85 f93c 0feb a83d af32 05be
00000160: d342 d4bd 82c6 d83d a651 823b a28d 1b3e
00000170: b2ce 89bd fdc0 e0bd 0755 ca3d 06d9 edbd
00000180: 0c7b 203e 783e 09be 432d 313e 9755 113e
00000190: 321c 1a3e 25aa 6ebd faa3 e8bd b707 e53d
000001a0: fc65 20be cc5b 03be 5ac0 c23b 7488 b13d
000001b0: 50ae 07be 9a16 92bd 907c 24be c191 b5bc
000001c0: 67ee 053d 6500 f0b9 0eb8 26be f500 0e3e
000001d0: c125 9b3d 34be 06be 4e9e ee3d 8949 8c3d
000001e0: 8e73 1b3e 4e17 aebd 2bdc 993b af8a e73c
000001f0: 5831 313e 9a5a b93d 4c82 a63b bb08 6c3d
00000200: 332b 65bc 0c26 3dbe c2dd 97bd aee5 0d3e
00000210: 52c0 3c3c fed9 86bd 6f45 eb3c 7db9 adbd
00000220: 3adc ffbd e9b7 1a3e ab83 acbb 80ab a4bd
00000230: 3f12 f4bd f3c7 4b3e 940d 483c e8fc 45bd
00000240: 3d5f c53d 2c0b 0cbe f5a9 173e 92ef 3bbd
00000250: d98e e43c f288 41bd 9b6e d03d 0fe9 66bd
00000260: ed84 3c3d 72c1 71bd 9f6d 0ebe e1fb a8bd
00000270: 353c 363d 82e1 343e e07f 1b3e f613 14be
00000280: cd65 143e 66cb db3b 66b0 0f3e 7a40 e03d
00000290: 33cd 103d e400 623b 76e2 d43c 9802 9dbd
000002a0: e80c eabc e708 b83d e516 49bb ff02 92bd
000002b0: 61e8 e93d c7eb dbbc e9f9 a13d 1cc0 2b3e
000002c0: 35d1 4dbe 7448 c4bd 70cd 20be 0763 99bd
000002d0: 9533 38be 08f6 b1bd 6434 e03d eb0f 823d
000002e0: 696b 033e c21f 153d 0faa bfbd 8e5d c13d
000002f0: 6472 a1bc 3cfc dabc 16d4 943d 1478 253d
00000300: 74a5 efbd 4227 8ebd 43bd 1fbd f766 83bd
00000310: 9565 4d3e de9a 3a3e ddbf e93d 4fd2 093d
00000320: b42d 00bd 2bd3 213e c2c1 533e 5bdc b63d
00000330: 848a b13c 1353 9f3d f939 8bbd 30df 033c
00000340: fafa 20be 9cb6 b2bd c419 04be 4950 1bbe
00000350: 63d8 bcbc a634 c33d 0296 033e 0418 1abe
00000360: 86b0 83bd 92cc 373d d2cc 07be b45d 2bbd
00000370: 6bcd 99bc b1ae a0bd 2f4d d8bd 49c1 c3bd
00000380: 59d3 9c3c b78e 59be 5a02 953d 9730 41bd
00000390: 29ab 523d 32ee 483d 9ced 11be 4413 3dbe
000003a0: 40a9 643d 0059 99bd d2b7 063e 76bf 0cbd
000003b0: 15e2 943b cb38 093e ef93 62be 4cca 54bd
000003c0: 0654 82bc e6cf bbbd 5068 db3c db42 4d3d
000003d0: 9b14 173d f24b 553e a017 4f3d 9137 54bc
000003e0: fe64 07bd c664 e3bd 627b 153e 14ca bd3d
000003f0: d0cf c3bb 1fe7 20be f160 273e 66da 413e

lstm.bias_ih_l0 f4 [128]
0.14153844 0.1600098 0.059236255 0.10726459 -0.11180685 -0.14633466 -0.017829202 -0.10940217
-0.06111184 0.13924192 -0.073158085 -0.014887965 -0.13240348 0.038835954 -0.16544911 -0.046449903
-0.12763895 -0.010177261 0.09106746 -0.12682146 0.02436178 0.099939086 0.02356563 0.037193805
-0.078262135 0.011136027 -0.32086456 -0.21105838 -0.26090062 0.07509721 -0.051314868 -0.0741368
-0.087771036 -0.13146797 -0.1440318 -0.11729044 0.07726371 0.06842666 -0.23352018 0.05497609
-0.015708374 -0.20864671 -0.18652438 -0.019171653 0.0121501135 0.060744755 -0.028783828 -0.18993321
0.12029998 -0.13664976 -0.20356767 -0.20034926 -0.15378813 -0.068825305 -0.05075382 0.04153657
0.04001891 -0.064431556 0.020419836 -0.14953166 -0.18984304 -0.17072913 -0.09096875 -0.06949909
0.08442315 0.12938918 0.062216997 0.06559007 -0.06118175 -0.121611096 0.10338927 -0.0117506785
-0.051340587 0.017199958 0.12025845 0.14572595 0.117449984 -0.10821598 0.08629892 0.022593038
0.10733211 -0.0267279 -0.004200983 0.15404288 -0.05789385 -0.10197102 0.13113572 -0.15562624
0.04849543 0.12491392 0.18073128 0.022030462 0.04361095 -0.0540346 0.022472823 -0.10990391
-0.07907663 -0.07084245 -0.042982295 0.06617221 -0.16723937 0.030764421 -0.103864074 -0.19387108
0.09223044 0.112533405 -0.00132039 0.070859626 -0.20434538 -0.08514749 0.026196701 -0.08280673
0.1678923 -0.050174065 0.095345385 -0.05880112 0.12997444 0.18136954 0.10554749 -0.1879873
-0.1043653 0.06687353 -0.24983878 0.018173568 -0.16512257 0.08548029 -0.2443447 0.11839303
00000000: 74ef 103e 9cd9 233e b7a1 723d 8aad db3d
00000010: fdfa e4bd c1d8 15be 8c0e 92bc 3f0e e0bd
00000020: 6950 7abd 6f95 0e3e e8d3 95bd a7ec 73bc
00000030: c794 07be 7312 1f3d 7e6b 29be 4142 3ebd
00000040: c9b3 02be 87be 26bc 9481 ba3d 7cdd 01be
00000050: 5b92 c73c ddac cc3d b50c c13c 8858 183d
00000060: e647 a0bd e273 363c 5c48 a4be b01f 58be
00000070: c494 85be 91cc 993d 8a2f 52bd 09d5 97bd
00000080: 4dc1 b3bd 8a9f 06be 127d 13be f835 f0bd
00000090: 703c 9e3d 4723 8c3d ea1f 6fbe 9c2e 613d
000000a0: d9ae 80bc 7ca7 55be 3f00 3fbe df0d 9dbc
000000b0: 4511 473c 7ecf 783d 10cc ebbc da7d 42be
000000c0: d65f f63d eaed 0bbe 0b74 50be 5b28 4dbe
000000d0: a37a 1dbe 48f4 8cbd 3de3 4fbd 4022 2a3d
000000e0: deea 233d b1f4 83bd 8047 a73c d41e 19be
000000f0: 3766 42be 9ed3 2ebe d34d babd 8a55 8ebd
00000100: 0be6 ac3d 997e 043e 40d7 7e3d 1654 863d
00000110: b799 7abd 3d0f f9bd c1bd d33d eb85 40bc
00000120: 824a 52bd ede6 8c3c 104a f63d 2f39 153e
00000130: 9e89 f03d 57a0 ddbd 7dbd b03d 0915 b93c
00000140: f0d0 db3d 78f4 dabc 66a8 89bb 6bbd 1d3e
00000150: 1a22 6dbd 2fd6 d0bd 7148 063e 7c5c 1fbe
00000160: 25a3 463d dfd2 ff3d 9f11 393e 3a79 b43c
00000170: 65a1 323d 6253 5dbd ed18 b83c 4d15 e1bd
00000180: eef2 a1bd d915 91bd 340e 30bd 4c85 873d
00000190: cc40 2bbe ab05 fc3c b0b6 d4bd 2486 46be
000001a0: 50e3 bc3d ea77 e63d f010 adba da1e 913d
000001b0: ea3f 51be cf61 aebd 779a d63c 9396 a9bd
000001c0: f6eb 2b3e 5283 4dbd 7144 c33d 71d9 70bd
000001d0: 0518 053e f0b8 393e 4829 d83d be7f 40be
000001e0: 79bd d5bd fdf4 883d bdd5 7fbe bce0 943c
000001f0: e415 29be 4a10 af3d 7f35 7abe 0b78 f23d

lstm.bias_hh_l0 f4 [128]
-0.081826024 0.10114949 0.107805476 0.050204184 -0.1956697 -0.11642337 -0.015238171 0.08926565
-0.17461477 -0.15676643 -0.012658446 -0.024877014 0.044407867 -0.14974289 -0.009154748 -0.10716342
0.045700584 -0.11669112 0.17160365 -0.14202872 0.13385019 0.10736958 -0.09075522 0.12703581
0.017766152 -0.10369497 -0.30695736 -0.13652183 -0.23144956 0.03843902 -0.14787215 0.14624147
-0.052573718 -0.08929243 -0.12748969 -0.06275961 -0.083048284 -0.080096 0.0840455 -0.19868936
-0.05745585 -0.15838003 -0.09309976 -0.16599709 0.009520276 -0.11607412 -0.16154459 0.08414687
0.06564155 -0.0047530327 -0.16854458 -0.14239222 -0.063413545 0.009738217 0.17652902 -0.054699913
-0.23427123 0.020346113 -0.06563135 -0.23231529 0.038398247 -0.16311723 -0.05199756 -0.08617823
0.035946883 0.102971435 0.11996183 0.12042852 -0.09769228 -0.123745106 0.072798945 0.13125487
-0.07744745 -0.02931896 -0.13995343 -0.1575617 -0.054916 -0.062155128 -0.110099815 0.095585205
0.020131188 0.113912076 0.06634722 -0.082686804 0.103757426 0.046350066 -0.14057522 0.13286898
-0.10134016 0.027908832 -0.16338725 0.075948 -0.09812619 0.034320757 0.06397328 -0.041502144
-0.052355736 -0.0021415583 0.14183918 -0.10258931 -0.19619071 -0.044084072 -0.08381353 -0.14341357
0.13525602 0.1581256 -0.14775683 -0.2404512 -0.11188454 0.08533954 -0.06639204 0.051465232
0.024312392 -0.2034704 0.07805046 -0.13515382 -0.14973365 0.124618374 -0.027681902 -0.08508037
-0.0014407006 -0.0064541292 -0.2739583 -0.10776015 -0.0832199 -0.24517906 -0.23595817 -0.0069527654
00000000: 6794 a7bd 7727 cf3d 1ec9 dc3d e7a2 4d3d
00000010: a35d 48be 606f eebd 86a9 79bc e9d0 b63d
00000020: 37ce 32be 6187 20be 5f65 4fbc e1ca cbbc
00000030: 06e5 353d 3356 19be ccfd 15bc 7f78 dbbd
00000040: 8930 3b3d c1fb eebd deb8 2f3e fa6f 11be
00000050: 0610 093e 95e4 db3d dfdd b9bd ad15 023e
00000060: 528a 913c 075e d4bd 8429 9dbe 61cc 0bbe
00000070: 1d01 6dbe 3c72 1d3d cc6b 17be 53c0 153e
00000080: 8a57 57bd f3de b6bd a88c 02be 1c88 80bd
00000090: 3815 aabd 5f09 a4bd 0c20 ac3d 3975 4bbe
000000a0: d356 6bbd 602e 22be 16ab bebd 24fb 29be
000000b0: effa 1b3c 45b8 edbd f26b 25be 3255 ac3d
000000c0: 146f 863d 54bf 9bbb f396 2cbe 44cf 11be
000000d0: f6de 81bd 0b8d 1f3c 06c4 343e 040d 60bd
000000e0: cce4 6fbe e4ac a63c bb69 86bd 0fe4 6dbe
000000f0: 7b47 1d3d 3408 27be 65fb 54bd 367e b0bd
00000100: 0a3d 133d b0e2 d23d 8cae f53d 3aa3 f63d
00000110: e412 c8bd 136e fdbd 9d17 953d ad67 063e
00000120: c59c 9ebd 512e f0bc f44f 0fbe db57 21be
00000130: 9aef 60bd 6096 7ebd 037c e1bd 2dc2 c33d
00000140: 29ea a43c bc4a e93d 0de1 873d b357 a9bd
00000150: c67e d43d 91d9 3d3d f3f2 0fbe ce0e 083e
00000160: 6e8b cfbd 10a1 e43c fd4e 27be a08a 9b3d
00000170: 62f6 c8bd ec93 0c3d 6c04 833d 27fe 29bd
00000180: f872 56bd 6359 0cbb 4a3e 113e 581a d2bd
00000190: 38e6 48be 8091 34bd 6ea6 abbd 02db 12be
000001a0: 8e80 0a3e adeb 213e 914d 17be d738 76be
000001b0: b923 e5bd 7fc6 ae3d 8df8 87bd 35cd 523d
000001c0: c82a c73c 8b5a 50be ebd8 9f3d c365 0abe
000001d0: c753 19be eb37 ff3d 28c5 e2bc 9e3e aebd
000001e0: e4d5 bcba 297d d3bb 4344 8cbe 5bb1 dcbd
000001f0: 326f aabd 3810 7bbe 059f 71be 06d4 e3bb

lstm.weight_ih_l0_reverse f4 [128, 64]
-0.10282488 0.15913445 -0.16309305 0.13214324 0.093250684 -0.049047336 -0.048947558 0.10321627
-0.06989875 -0.15034837 0.08484675 0.0844116 0.031081857 0.03580667 -0.016153436 -0.08407567
0.107648864 -0.086499155 0.11425599 -0.028543208 -0.09700598 0.0030383496 -0.034560792 0.0058292523
-0.1382328 -0.04346364 -0.0038387263 0.196189 0.21133368 0.13367526 0.13522592 0.10372862
0.049413342 -0.061739273 -0.059705265 -0.09149395 0.020001447 -0.04853663 0.017593978 0.15508647
0.024995252 0.1368419 0.15148221 0.056053706 0.06182809 -0.030250138 -0.0638157 0.111113645
0.0076449364 -0.082763806 -0.054469302 0.1522011 -0.13340923 0.059663963 -0.010080725 0.16422275
0.047131862 0.1707167 0.055476964 -0.112255864 0.07225438 0.13211118 -0.13927384 0.09752509
0.040557444 -0.06806308 -0.12162838 -0.0435237 0.026721332 0.015712306 0.05220543 -0.10829671
0.09821412 -0.07851497 0.06183515 -0.0555911 0.09903837 -0.015766002 0.17932141 -0.041416064
-0.08111697 0.020666117 0.19468799 0.08029091 0.012077994 0.054991167 0.09439519 -0.08501143
-0.03411049 0.07509261 0.14823456 -0.055650696 0.14936915 0.091586426 -0.0062917443 -0.00738215
-0.09913597 -0.008097072 0.11632587 0.11357708 0.18794963 0.13060182 0.17981191 0.15480499
-0.11491397 -0.10909843 -0.0062598493 -0.088737965 0.03027793 0.029218052 -0.024320379 0.19992769
-0.046774447 -0.026848273 0.17654382 -0.0098165 0.0010902663 -0.04225119 0.14617 -0.019472593
-0.06828687 0.10083586 0.18259598 -0.03535987 0.032394394 -0.17268673 0.06125702 0.095404364
0.11614329 -0.1269489 0.06944109 -0.07721448 0.20045029 0.01229699 -0.14911124 0.14848089
-0.15095057 -0.10169748 -0.0092271445 0.17583327 -0.16315137 -0.06303066 0.10398477 -0.028312162
-0.15588953 0.14620744 -0.019652449 -0.13560636 -0.06567118 -0.04554094 0.026967034 -0.01432311
0.09225077 -0.109185375 0.110854074 0.20232117 0.081492774 -0.18484592 -0.103071906 -0.020301279
-0.09873903 -0.1008145 0.13783796 0.025970416 0.19806774 -0.04498263 0.16661629 -0.0017432107
-0.05681713 0.032355215 0.17148526 0.006990279 -0.05007845 0.21123362 -0.1260091 0.20611389
0.17557956 0.22037528 -0.14482209 -0.062352512 -0.0473008 -0.039188124 -0.10849029 0.15985322
0.1371317 -0.018116854 0.09642256 0.14693107 -0.05412554 -0.09440873 -0.055282343 0.10869169
0.11765318 0.025505522 0.17374763 0.013721839 -0.030893743 0.06708272 0.049811363 -0.021541
-0.10973819 -0.11666927 -0.070789605 0.119356856 -0.16483349 -0.09184864 0.11630742 -0.10260688
-0.016205618 0.13616619 0.05486867 0.11616447 -0.11565864 0.052336477 0.11303382 -0.062283766
0.00307678 0.09677685 -0.03294131 -0.11656676 -0.12647513 -0.13658486 0.1995803 0.045267303
0.094078615 -0.14661582 0.12832029 0.192052 -0.09233856 0.20688765 0.2023627 0.036049962
-0.0820537 -0.025810491 0.05860672 0.18402506 0.13324825 -0.05700144 -0.04155886 -0.12721105
0.04017237 -0.06378397 -0.13025825 0.19563632 0.13226876 -0.07399707 0.06838623 -0.085645646
-0.01939738 -0.1053326 0.06731377 -0.028934207 -0.09079992 0.009921503 0.14765808 0.034169495
00000000: da95 d2bd 24f4 223e dd01 27be 8f50 073e
00000010: 37fa be3d dce5 48bd 3c7d 48bd 0d63 d33d
00000020: 1327 8fbd ecf4 19be 22c4 ad3d fddf ac3d
00000030: 619f fe3c 04aa 123d 3654 84bc dd2f acbd
00000040: 0277 dc3d 7826 b1bd 0bff e93d 72d3 e9bc
00000050: 12ab c6bd 0c1f 473b 9e8f 0dbd 5003 bf3b
00000060: e68c 0dbe ee06 32bd 2493 7bbb c5e5 483e
00000070: db67 583e 2be2 083e aa78 0a3e ac6f d43d
00000080: a565 4a3d 52e2 7cbd 828d 74bd 2e61 bbbd
00000090: 13da a33c 58ce 46bd 3f21 903c fdce 1e3e
000000a0: d8c2 cc3c 4820 0c3e 271e 1b3e 9298 653d
000000b0: 743f 7d3d 23cf f7bc ceb1 82bd 8d8f e33d
000000c0: 6082 fa3b 1280 a9bd 341b 5fbd 9bda 1b3e
000000d0: 6e9c 08be 3362 743d a029 25bc 022a 283e
000000e0: 570d 413d 5cd0 2e3e d03b 633d 67e6 e5bd
000000f0: 1bfa 933d 2748 073e cd9d 0ebe 3cbb c73d
00000100: 901f 263d a864 8bbd 4d18 f9bd e845 32bd
00000110: b2e6 da3c 18b7 803c 5cd5 553d aaca ddbd
00000120: 7c24 c93d 75cc a0bd db46 7d3d 7eb3 63bd
00000130: a1d4 ca3d b427 81bc 08a0 373e e4a3 29bd
00000140: a720 a6bd fd4b a93c 4a5c 473e 906f a43d
00000150: c7e2 453c 6b3e 613d 4452 c13d 791a aebd
00000160: 71b7 0bbd 28ca 993d cdca 173e fcf1 63bd
00000170: 3af4 183e aa91 bb3d fa2a cebb f6e5 f1bb
00000180: cd07 cbbd 95a9 04bc 423c ee3d 1a9b e83d
00000190: de75 403e 7cbc 053e 9d20 383e 3385 1e3e
000001a0: 0458 ebbd ff6e dfbd 6c1f cdbb 40bc b5bd
000001b0: 6c09 f83c b25a ef3c 883b c7bc d8b9 4c3e
000001c0: 9096 3fbd e9f0 dbbc e7c7 343e 63d5 20bc
000001d0: 44e7 8e3a 950f 2dbd 97ad 153e fd84 9fbc
000001e0: fdd9 8bbd 0883 ce3d 71fa 3a3e 83d5 10bd
000001f0: fcaf 043d cad4 30be a4e8 7a3d 5d63 c33d
00000200: 89dc ed3d e4fe 01be 2137 8e3d a022 9ebd
00000210: d742 4d3e 5079 493c 9eb0 18be 600b 183e
00000220: c992 1abe c546 d0bd 732d 17bc a30d 343e
00000230: 2711 27be 3816 81bd f8f5 d43d e8ee e7bc
00000240: 81a1 1fbe 67b7 153e 2cfe a0bc 65dc 0abe
00000250: 9d7e 86bd 2389 3abd f8e9 dc3c 7aab 6abc
00000260: f9ed bc3d 959c dfbd 7607 e33d 482d 4f3e
00000270: afe5 a63d 4048 3dbe 5d17 d3bd de4e a6bc
00000280: b037 cabd d577 cebd 6525 0d3e e9bf d43c
00000290: 45d2 4a3e b53f 38bd 769d 2a3e 727c e4ba
000002a0: 14b9 68bd e786 043d d599 2f3e b60e e53b
000002b0: 101f 4dbd a04d 583e 8808 01be 850f 533e
000002c0: 21cb 333e 0faa 613e 3e4c 14be 5965 7fbd
000002d0: 7cbe 41bd ba83 20bd 2830 debd 90b0 233e
000002e0: 416c 0c3e cc69 94bc 3179 c53d 1975 163e
000002f0: beb2 5dbd 5d59 c1bd bd6f 62bd c099 de3d
00000300: 27f4 f03d f5f0 d03c e6ea 313e 90d1 603c
00000310: e014 fdbc aa62 893d 0007 4c3d c076 b0bc
00000320: 6bbe e0bd 4cf0 eebd 24fa 90bd 5e71 f43d
00000330: 1cca 28be 241b bcbd 9632 ee3d 8e23 d2bd
00000340: a5c1 84bc 266f 0b3e f8bd 603d a3e7 ed3d
00000350: 70de ecbd c65e 563d 477e e73d 431d 7fbd
00000360: cda3 493b f132 c63d 78ed 06bd 8eba eebd
00000370: b282 01be e7dc 0bbe c75e 4c3e 356a 393d
00000380: 4aac c03d 7522 16be 6566 033e 48a9 443e
00000390: 001c bdbd 5bda 533e 2b38 4f3e 20a9 133d
000003a0: c50b a8bd 8670 d3bc 9a0d 703d 1171 3c3e
000003b0: 3b72 083e 587a 69bd a039 2abd 9d43 02be
000003c0: c88b 243d 2ca1 82bd 6b62 05be e354 483e
000003d0: 7671 073e c78b 97bd 140e 8c3d fc66 afbd
000003e0: 41e7 9ebc 9eb8 d7bd cddb 893d 6e07 edbc
000003f0: 4ff5 b9bd cd8d 223c ae33 173e 50f5 0b3d

lstm.weight_hh_l0_reverse f4 [128, 32]
-0.044012547 0.1728112 -0.053645164 0.031394675 0.010781124 -0.05898793 0.022188276 -0.013990372
0.04310192 0.059409633 0.10653435 -0.07974797 -0.14166333 -0.04599397 -0.033623934 -0.13962716
0.121336296 0.14572786 0.014521465 -0.16619872 0.13641392 -0.1168719 0.0058176816 -0.010330573
-0.019888207 -0.13340598 0.05688688 0.13342564 0.08596487 0.16683151 -0.16718021 0.081961915
-0.04662603 -0.061217517 0.12894191 0.13976283 -0.053667456 0.0056955367 -0.061411917 -0.069165066
-0.028227657 -0.03409545 0.15109916 -0.07600824 0.06906064 -0.13335682 0.00095276535 -0.04435438
0.14574458 0.09074332 0.021055952 0.008973017 -0.15191159 -0.07871114 -0.00052951276 -0.115044184
0.10361634 0.044736102 -0.1085737 0.100210056 -0.08547377 0.16114844 -0.095416926 -0.13581337
0.09198998 0.07171954 -0.14864469 0.03519143 -0.078689806 -0.17577703 -0.14358735 -0.120368026
-0.012680814 -0.14429471 0.079802856 -0.14484844 0.1300223 -0.1298769 0.068151474 0.06643136
0.15850525 0.11548956 0.16091467 0.041959986 -0.14364666 0.066206425 0.14323519 0.13138877
-0.1637228 -0.13456467 0.101010695 -0.15702194 0.060121745 -0.098813266 -0.023939312 -0.1425517
0.1494347 -0.036160395 0.105909094 0.08122565 -0.112716794 0.13826285 -0.1367157 0.13204001
0.03520307 0.06795299 -0.16776152 -0.08842366 -0.09534976 0.027766302 0.15229537 -0.059955537
-0.14590253 0.14950545 0.013473928 -0.0595171 -0.02931711 0.017226264 -0.018377304 0.066839084
0.068492815 0.105694845 0.030551717 -0.06771664 0.10836722 0.12830745 0.15222014 -0.14221418
0.10488443 -0.13966563 -0.15274996 0.12930419 -0.039702 0.0011994988 -0.021819353 0.1762202
-0.024365067 -0.11018933 -0.12616295 -0.17383082 0.037819505 -0.017388567 0.006863743 0.09352563
0.08898012 -0.11150583 0.06477618 0.16223134 0.14830439 0.039873496 -0.019161835 -0.16200298
-0.08478854 0.030575365 0.05511467 0.16181959 0.046944633 0.12399994 -0.1165208 0.03894578
-0.07304097 -0.06496239 -0.17303844 0.13561986 -0.037827864 -0.1443521 -0.07211054 -0.07628179
-0.073537566 -0.14160155 0.08077495 -0.13923536 -0.062193617 0.07834436 -0.10723998 -0.09225582
0.07737346 0.09158783 0.1571892 -0.12843716 0.032198787 -0.06523902 0.0003246963 0.010939598
-0.08977502 -0.03556356 0.04913515 0.06714861 -0.13194296 0.08051737 0.10420857 -0.10902833
-0.11294567 0.09816514 -0.13939625 0.09132974 -0.07055302 0.120620474 0.16344537 -0.14573139
0.12633269 0.135695 -0.1305082 0.15503831 -0.08891862 -0.016002148 -0.12783933 0.097712174
-0.028252184 0.0896896 0.037970215 0.10009365 -0.07147012 -0.139875 -0.15109839 0.055854797
-0.11045563 -0.038572043 -0.16912362 -0.10795976 0.028895304 0.17300962 0.051312 0.0526969
-0.14218995 0.069884464 -0.058561802 0.043040156 0.13245942 0.047005877 0.073182926 0.06665537
-0.15624681 -0.043397978 0.17046262 -0.12526518 -0.06306372 0.04219711 -0.082220115 0.1720288
0.13807614 0.016586065 0.08889194 -0.07496666 -0.04453756 0.11354454 -0.10731881 0.11285524
-0.11852422 0.12530811 0.06638904 -0.027148739 -0.004834965 -0.06665258 0.14341803 0.047113806
00000000: 8046 34bd 6bf5 303e 08bb 5bbd b497 003d
00000010: 50a3 303c 549d 71bd 30c4 b53c e037 65bc
00000020: a48b 303d 8457 733d ae2e da3d e752 a3bd
00000030: 3110 11be 2c64 3cbd 40b9 09bd 6cfa 0ebe
00000040: 2a7f f83d af39 153e 70eb 6d3c ff2f 2abe
00000050: 17b0 0b3e 895a efbd 40a2 be3b 9041 29bc
00000060: 98ec a2bc 949b 08be 3802 693d bba0 083e
00000070: 5a0e b03d e1d5 2a3e 4a31 2bbe a6db a73d
00000080: f0fa 3ebd 38bf 7abd 5909 043e fd1d 0f3e
00000090: 68d2 5bbd a0a1 ba3b 108b 7bbd 6aa6 8dbd
000000a0: b03d e7bc aca7 0bbd bdb9 1a3e 35aa 9bbd
000000b0: aa6f 8d3d b18e 08be 00c3 793a f0ac 35bd
000000c0: 113e 153e a2d7 b93d 887d ac3c 9003 133c
000000d0: b68e 1bbe 4e33 a1bd 00cf 0aba 499c ebbd
000000e0: ce34 d43d 343d 373d e35b debd ee3a cd3d
000000f0: df0c afbd 1904 253e f369 c3bd a912 0bbe
00000100: 3e65 bc3d b2e1 923d 5036 18be e424 103d
00000110: 1f28 a1bd e5fe 33be 9008 13be 8383 f6bd
00000120: 30c3 4fbc fec1 13be ae6f a33d 2653 14be
00000130: 9124 053e 73fe 04be 0093 8b3d 2a0d 883d
00000140: 334f 223e ca85 ec3d d1c6 243e 3cde 2b3d
00000150: 1c18 13be 3c97 873d 3fac 123e c78a 063e
00000160: f3a6 27be 52cb 09be b2de ce3d 5cca 20be
00000170: 3842 763d 9c5e cabd 601c c4bc 13f9 11be
00000180: 6905 193e ec1c 14bd dee6 d83d a259 a63d
00000190: 10d8 e6bd c794 0d3e 33ff 0bbe 7f35 073e
000001a0: 1831 103d f02a 8b3d adc9 2bbe 7717 b5bd
000001b0: bc46 c3bd 2876 e33c 51f3 1b3e f093 75bd
000001c0: 7967 15be f517 193e c0c1 5c3c 34c8 73bd
000001d0: 702a f0bc 181e 8d3c 008c 96bc eee2 883d
000001e0: f645 8c3d 8a76 d83d 9847 fa3c 06af 8abd
000001f0: a2ef dd3d 0763 033e 99df 1b3e 98a0 11be
00000200: a6cd d63d 8204 0fbe 7c6a 1cbe 5168 043e
00000210: 909e 22bd 8038 9d3a 80be b2bc 1173 343e
00000220: 4099 c7bc f2aa e1bd dc30 01be b500 32be
00000230: a0e8 1a3d 7872 8ebc 40e9 e03b 5e8a bf3d
00000240: 363b b63d 2b5d e4bd 60a9 843d f91f 263e
00000250: 1bdd 173e 6452 233d 48f9 9cbc 1ce4 25be
00000260: 9da5 adbd 3079 fa3c ecbf 613d 09b4 253e
00000270: 0449 403d aef3 fd3d 75a2 eebd 9c85 1f3d
00000280: 8196 95bd 000b 85bd fd30 31be efdf 0a3e
00000290: 64f1 1abd 09d1 13be b1ae 93bd a139 9cbd
000002a0: dd9a 96bd ffff 10be 566d a53d b793 0ebe
000002b0: bcbe 7ebd 0273 a03d a2a0 dbbd 9ff0 bcbd
000002c0: fa75 9e3d 6692 bb3d 35f6 203e 0885 03be
000002d0: e0e2 033d 099c 85bd 003c aa39 003c 333c
000002e0: f7db b7bd 18ab 11bd f041 493d 3685 893d
000002f0: 0e1c 07be 4ae6 a43d 4e6b d53d 3f4a dfbd
00000300: 0f50 e7bd ce0a c93d e4bd 0ebe 160b bb3d
00000310: 1a7e 90bd de07 f73d 395e 273e 9c3a 15be
00000320: 5b5d 013e a1f3 0a3e f1a3 05be 5dc2 1e3e
00000330: f71a b6bd f016 83bc 50e8 02be 521d c83d
00000340: 2071 e7bc 2eaf b73d a886 1b3d e6fd cc3d
00000350: ed5e 92bd 643b 0fbe 89b9 1abe 00c8 643d
00000360: 9036 e2bd b8fd 1dbd be2e 2dbe 021a ddbd
00000370: d8b5 ec3c 6f29 313e 882c 523d b4d8 573d
00000380: 3e9a 11be 961f 8f3d 80de 6fbd e04a 303d
00000390: 71a3 073e 3c89 403d eee0 953d 9c82 883d
000003a0: 2aff 1fbe 14c2 31bd c18d 2e3e 8445 00be
000003b0: 8d27 81bd e0d6 2c3d 0563 a8bd 5128 303e
000003c0: d563 0d3e 80df 873c fa0c b63d 1f88 99bd
000003d0: 046d 36bd 0a8a e83d f7c9 dbbd a620 e73d
000003e0: d4bc f2bd c550 003e faf6 873d 0867 debc
000003f0: a06e 9ebb 2681 88bd 2ddc 123e 68fa 403d

lstm.bias_ih_l0_reverse f4 [128]
0.109480776 0.12350821 0.10285281 -0.08162895 0.15440562 -0.105399124 0.072696984 0.024448883
0.07132526 -0.13899355 -0.05346348 -0.1552722 0.20827138 0.07096372 -0.09077688 -0.045854434
-0.13871956 0.077204764 -0.043513324 0.031462703 -0.09848311 0.043988004 -0.03746603 -0.061604697
0.0050280364 -0.020368805 0.07861354 0.1330781 -0.1920481 0.0041923625 0.000109325316 0.07919634
0.15049045 0.035396606 -0.019566104 -0.14646646 -0.042008415 0.15119903 -0.11661765 -0.10874803
0.13142441 -0.123351306 -0.037891403 -0.020385206 -0.16607772 -0.011697665 0.07262868 -0.14064369
0.067849874 -0.17676824 0.06483361 -0.11251917 -0.14389256 0.059528127 0.02447714 -0.04685524
-0.1543448 0.16178791 -0.06224908 -0.10690696 0.06746578 -0.023278266 0.12797691 0.06725353
0.023482675 0.1579459 0.13100925 -0.109211706 -0.103530064 -0.11315588 0.10976582 0.008836462
0.019032525 0.08284162 0.015193822 -0.13299596 0.11745759 -0.05249641 -0.04937717 -0.14692776
-0.0087321 0.14845487 -0.06941619 0.007135014 -0.032220308 0.017096259 -0.09161092 -0.14898212
-0.12802015 0.047864478 0.06736049 -0.07369093 0.036283508 0.052617826 0.045228224 0.010992424
0.16451283 -0.15613015 -0.061396353 -0.10871388 -0.10178174 -0.13910593 0.1497306 -0.10464064
-0.11440979 -0.12427066 -0.015983988 0.026950402 -0.10197402 0.039823513 -0.014370913 0.066958
0.03934609 -0.23303936 -0.031512838 -0.059168898 0.16536702 -0.2228664 0.15207234 0.14336559
0.18273783 0.050327465 0.023480063 0.06831713 -0.16050802 0.09238119 -0.18036738 0.034666847
00000000: 7537 e03d dff1 fc3d 7ea4 d23d 142d a7bd
00000010: 821c 1e3e 7fdb d7bd 28e2 943d 0649 c83c
00000020: fa12 923d 5354 0ebe 86fc 5abd adff 1ebe
00000030: 1845 553e 6d55 913d 3be9 b9bd dcd1 3bbd
00000040: 800c 0ebe 881d 9e3d 073b 32bd 09df 003d
00000050: 83b1 c9bd c42c 343d fb75 19bd 3555 7cbd
00000060: 3ac2 a43b 7bdc a6bc 2300 a13d a045 083e
00000070: 42a8 44be 1660 893b 9545 e538 b131 a23d
00000080: 2b1a 1a3e 08fc 103d 1849 a0bc 4efb 15be
00000090: 0411 2cbd ebd3 1a3e 3cd5 eebd 4ab7 debd
000000a0: 1f94 063e 9c9f fcbd 0434 1bbd e0fe a6bc
000000b0: 4710 2abe 90a7 3fbc 58be 943d e604 10be
000000c0: e0f4 8a3d bc02 35be 7cc7 843d 7370 e6bd
000000d0: 9258 13be c4d3 733d 4884 c83c 48eb 3fbd
000000e0: 900c 1ebe bbab 253e e4f8 7ebd 09f2 dabd
000000f0: 802b 8a3d 10b2 bebc 610c 033e 38bc 893d
00000100: bd5e c03c 92bc 213e 4a27 063e 63aa dfbd
00000110: 9207 d4bd 45be e7bd e7cc e03d cfc6 103c
00000120: 19ea 9b3c dea8 a93d 82ef 783c 1830 08be
00000130: 9b8d f03d 7a06 57bd b73f 4abd 3b74 16be
00000140: 1511 0fbc 8e04 183e 132a 8ebd d6cc e93b
00000150: 71f9 03bd 740d 8c3c 829e bbbd c58e 18be
00000160: b717 03be 8b0d 443d 4cf4 893d 45eb 96bd
00000170: 049e 143d ca85 573d 3b41 393d 9119 343c
00000180: 0d76 283e 95e0 1fbe be7a 7bbd 62a5 debd
00000190: f272 d0bd c971 0ebe fa52 193e d54d d6bd
000001a0: ae4f eabd 9e81 febd daf0 82bc 17c7 dc3c
000001b0: c1d7 d0bd fb1d 233d fa73 6bbc 4721 893d
000001c0: 5e29 213d dfa1 6ebe 9b13 01bd 165b 72bd
000001d0: f955 293e 1737 64be dab8 1b3e 6ece 123e
000001e0: a01f 3b3e 2c24 4e3d 4359 c03c dae9 8b3d
000001f0: 375c 24be 5932 bd3d 3ab2 38be d3fe 0d3d
