saved_models/Complete_OHLCAG_Hybrid_Model_15m_plus_1.pth (torch, 194954 bytes, 17 tensors)

conv1d_1.weight f4 [64, 6, 3]
0	0xbe174f86	-0.1477643
1	0xbe5a8820	-0.2134099
2	0xbe7dbbf9	-0.24778737
3	0xbe191e7f	-0.1495304
4	0x3c7974f1	0.015225635
5	0xbe9849c3	-0.29743776
6	0xbe3402e1	-0.17579223
7	0xbe18a81d	-0.1490788
8	0xbe345e13	-0.17614011
9	0x3d1b05f1	0.037847463
10	0xbe2ea387	-0.17054568
11	0xbe287edc	-0.16454643
12	0xbe2eb134	-0.17059785
13	0xbe41e12e	-0.18933555
14	0xbe2a3b06	-0.16624078
15	0x3a8e99ac	0.0010879538
16	0xbdbf5269	-0.0934189
17	0xbcbc5943	-0.022991782
18	0xbc8ba8a0	-0.01704818
19	0xbe17461c	-0.14772838
20	0x3e2f02dd	0.17090936
21	0xbcb273e2	-0.021783773
22	0xbe467b63	-0.19383006
23	0x3dce9d3f	0.10088586
24	0x3dcdfa06	0.10057454
25	0x3db64c64	0.08901289
26	0xbea56ba7	-0.32308695
27	0x3e7b0346	0.24512967
28	0xbe22b9d3	-0.15891199
29	0xbeb55f37	-0.35424206
30	0xbd3b522d	-0.045732666
31	0x3e36856e	0.17824337
32	0xbeb18781	-0.34673694
33	0xbe0253cb	-0.12727277
34	0xbd68ce93	-0.05683763
35	0xbe43a946	-0.19107541
36	0xbe55fd23	-0.20897345
37	0xbe2e5723	-0.17025428
38	0x3ce38479	0.027773129
39	0xbd4584d8	-0.048222393
40	0xbe5107ab	-0.20413081
41	0xbe535ae4	-0.20640141
42	0x3da6119f	0.0810883
43	0x3e4b2e09	0.1984178
44	0xbe5cb9f4	-0.2155531
45	0x3e02577f	0.1272869
46	0x3dda01b6	0.106448576
47	0x3dfc79e3	0.123279355
48	0x3e8003aa	0.25002795
49	0x3ea6a827	0.32550165
50	0x3f049d0f	0.5180215
51	0x3ea26e77	0.31724903
52	0xbd4ab568	-0.04948941
53	0x3dc7b1d4	0.09750715
54	0xbe55186a	-0.20810094
55	0xbda6684e	-0.08125363
56	0xbe51dbdb	-0.20494024
57	0x3d30a52a	0.043126263
58	0xbe740770	-0.23830962
59	0xbb8bead7	-0.0042699385
60	0xbe44a4a9	-0.19203438
61	0xbd3eace9	-0.04655162
62	0x3ddee0ad	0.10882697
63	0xbe43aebc	-0.19109625
64	0xbde18753	-0.11012139
65	0xbe74063d	-0.23830505
66	0x3d520df2	0.05128283
67	0xbd119420	-0.035541654
68	0xbe8205a1	-0.2539492
69	0xbe0b95e3	-0.13631396
70	0xbbdd9bc7	-0.006762955
71	0x3c90b28e	0.017663267
72	0x3dd2b91c	0.10289213
73	0x3e4c0036	0.19921955
74	0x3e05ab7f	0.13053702
75	0x3d9801a6	0.074221894
76	0xbe886233	-0.2663742
77	0x3d6b9d0a	0.05752281
78	0x3d7844cf	0.060612496
79	0x3e3150c4	0.17315966
80	0x3d72f84f	0.059318837
81	0xbdecea53	-0.11568131
82	0xbe808d48	-0.2510779
83	0x3e95135a	0.29116327
84	0xbd9fae20	-0.077968836
85	0xbeed51cd	-0.46351472
86	0x3f0bd2b4	0.5461838
87	0x3cc489c1	0.023991467
88	0x3e7bc35d	0.24586244
89	0x3e928095	0.28613725
90	0x3d84c84e	0.064835176
91	0x3e61dd8e	0.22057173
92	0x3e140611	0.14455439
93	0xbdf8a639	-0.121410795
94	0xbe359a51	-0.17734648
95	0xbe12edc4	-0.14348513
96	0x3e00f989	0.1259519
97	0x3e52001d	0.20507856
98	0xbdbba197	-0.0916168
99	0xbe39529b	-0.18097918
100	0xbde767ab	-0.1129907
101	0xbe0bf9a0	-0.13669443
102	0x3af1b58e	0.0018440948
103	0xbd6f9122	-0.05848802
104	0xbed788de	-0.4209661
105	0x3df7819c	0.12085268
106	0x3d589c1d	0.052883256
107	0xbd5f4041	-0.054504637
108	0xbe3d5657	-0.18489967
109	0xbe3a8edf	-0.18218563
110	0xbe91fb44	-0.28512013
111	0x3e788cdb	0.24272482
112	0x3da63e46	0.081173465
113	0xbde47632	-0.111553565
114	0xbe19f9e8	-0.15036738
115	0xbe28f634	-0.16500169
116	0xbeac0a76	-0.3360173
117	0x3e2db8b1	0.16964985
118	0xbdfb452d	-0.122690536
119	0xbd84d7b6	-0.06486456
120	0xbe3eeead	-0.18645735
121	0xbed9eab1	-0.42561868
122	0x3c82a925	0.015949795
123	0xbe8069cf	-0.25080726
124	0xbe10939d	-0.1411881
125	0x3e880e19	0.26573256
126	0xbc009101	-0.007847072
127	0x3e2c595b	0.16830961
128	0x3dc806ca	0.0976692
129	0x3e7e500c	0.24835223
130	0x3e354b89	0.17704596
131	0x3c881a73	0.016614174
132	0x3de8bf25	0.11364583
133	0x3e25640c	0.16151446
134	0x3e70ad6f	0.2350366
135	0xbd197557	-0.03746542
136	0xbbac1d96	-0.0052525504
137	0xbd84dcaf	-0.064874046
138	0x3e73dc3d	0.23814483
139	0x3e27fddb	0.16405432
140	0x3ecbf5fd	0.39836112
141	0xbe557595	-0.20845635
142	0x3ca18948	0.019718781
143	0x3da44e85	0.08022789
144	0x3d9ca221	0.07648111
145	0x3e74cb4b	0.23905675
146	0x3e2a666d	0.16640635
147	0xbd59a0b6	-0.05313178
148	0x3e0a84e6	0.13527259
149	0x3d96d32f	0.07364499
150	0x3e0a3551	0.13496901
151	0x3e7c4f50	0.2463963
152	0xbe4157a3	-0.18881087
153	0xbd5e5605	-0.054281253
154	0x3d9a114d	0.07522831
155	0xbd248f25	-0.040175576
156	0x3e8e5dae	0.27805847
157	0x3e8e04af	0.27737948
158	0x3e035f9b	0.1282944
159	0x3d12c2e1	0.035830382
160	0x3e859e0f	0.26097152
161	0x3d86781c	0.06565878
162	0xbe226f7e	-0.15862843
163	0x3dfa445a	0.12220068
164	0x3dcdef46	0.100554034
165	0xbe409bda	-0.18809453
166	0x3e076af5	0.13224395
167	0xbdfdf508	-0.124002516
168	0xbe1d7d7e	-0.15379903
169	0xbe66d9d0	-0.22544026
170	0x3d86426a	0.06555636
171	0x3e3d5ad9	0.18491687
172	0xbe5d9594	-0.21639091
173	0x3dcd06aa	0.10011037
174	0xbe69434d	-0.2277958
175	0x3e6cc065	0.23120268
176	0x3e393263	0.18085627
177	0x3e01357f	0.12618063
178	0xbe6c7581	-0.23091699
179	0x3e0959c7	0.13413154
180	0x3e40cc98	0.18828046
181	0x3c9723d6	0.018449705
182	0x3e278254	0.1635831
183	0x3c8904ca	0.016725916
184	0xbe84a67c	-0.25908267
185	0x3d739de7	0.05947676
186	0xbdaf066c	-0.08546147
187	0xbe9366e8	-0.2878945
188	0xbe7481f3	-0.23877697
189	0xbe8465c3	-0.25858888
190	0x3d3991e6	0.045305155
191	0xbe45b109	-0.19305815
192	0xbcac551b	-0.021036675
193	0xbcaf57de	-0.021404203
194	0xbeedd19b	-0.4644898
195	0x3e6ae3de	0.22938487
196	0x3e7b5a23	0.24546103
197	0xbd2ee552	-0.042699166
198	0xbe2d47a3	-0.16921858
199	0xbe68d3dc	-0.22737068
200	0xbe080a1d	-0.13285108
201	0xbdcf039c	-0.1010811
202	0xbe109316	-0.14118609
203	0xbdc259dc	-0.094897956
204	0xbe182333	-0.14857177
205	0x3e37bb0b	0.17942445
206	0xbc0ee870	-0.00872241
207	0xbaf40a80	-0.0018618852
208	0x39644800	0.00021770597
209	0x3db2273e	0.08698891
210	0x3e4ce48d	0.2000906
211	0xbe4880d2	-0.19580391
212	0x3e164be3	0.14677386
213	0xbdf71cb8	-0.120660245
214	0x3d50da94	0.050989702
215	0xbe5dcb4c	-0.21659583
216	0xbe866c51	-0.26254514
217	0xbe1dbc83	-0.15403943
218	0xbe000ce7	-0.12504922
219	0xbcaa90f1	-0.020821067
220	0xbe4c76ef	-0.19967245
221	0xbe238e3e	-0.1597223
222	0x3d66fffe	0.056396477
223	0xbd7dbae7	-0.061945822
224	0xbee11ffa	-0.4396971
225	0xbe4c8259	-0.19971599
226	0xbeb7b154	-0.35877478
227	0xbeca6029	-0.3952649
228	0x3d9118b2	0.070847884
229	0x3cb378a8	0.02190812
230	0xbe3a9ecc	-0.18224639
231	0xbe190d94	-0.14946586
232	0xbdedd843	-0.11613514
233	0x3dfd7543	0.123758815
234	0x3d3de82c	0.046363994
235	0x3d8e0b96	0.069358036
236	0xbe5803a2	-0.21095136
237	0xbe38ba40	-0.18039799
238	0x3d44a7b4	0.048011497
239	0xbd480e08	-0.048841506
240	0x3d9b2fe6	0.07577495
241	0x3dd48a1a	0.10377903
242	0x3e1a2983	0.15054898
243	0x3e36fe59	0.17870463
244	0xbd6727e0	-0.056434512
245	0xbddac5dc	-0.1068227
246	0x3e0c4f51	0.13702132
247	0x3d3f7804	0.046745315
248	0xbe520dd2	-0.20513085
249	0xbcbffda0	-0.023436368
250	0x3dd7dd1e	0.10540222
251	0xbcaa0bf8	-0.02075766
252	0x3e275472	0.16340807
253	0xbd2a1971	-0.04152817
254	0xbd3a4b07	-0.045481708
255	0x3e47cf3f	0.19512652

conv1d_1.bias f4 [64]
0	0x3e806dad	0.25083676
1	0x3ba01df2	0.0048863823
2	0x3d45e7fe	0.048316948
3	0x3e860444	0.2617513
4	0x3c597ce6	0.013274407
5	0x3de73a60	0.11290431
6	0x3e18fb54	0.14939624
7	0xbe6d8137	-0.23193823
8	0xbcc95d33	-0.024580574
9	0xbdee618a	-0.11639698
10	0x3d9a835c	0.07544586
11	0xbe0082a8	-0.12549841
12	0x3ce700c3	0.028198605
13	0xbe613bf1	-0.21995522
14	0x3c9c5998	0.01908569
15	0xbe43a755	-0.19106801
16	0xbde65002	-0.11245729
17	0xb982d1f2	-0.00024951954
18	0x3d05815e	0.032594077
19	0x3e53776c	0.20651025
20	0xbd40e416	-0.04709252
21	0x3cf341e7	0.02969451
22	0xbd5fb8d8	-0.05461964
23	0xbce5d598	-0.028055951
24	0xbe595848	-0.21225083
25	0x3c4a65cb	0.012353371
26	0x3e3beec0	0.18352795
27	0xbe585b9a	-0.21128693
28	0xbe01ce46	-0.12676343
29	0x3db72321	0.08942247
30	0xbc51d8c2	-0.012808027
31	0x3dd336b2	0.10313167
32	0xbdece5c6	-0.11567263
33	0xbca829b0	-0.02052769
34	0x3e0ec669	0.13942875
35	0xbe6214d1	-0.22078253
36	0xbe5169da	-0.20450535
37	0xbe53b1c3	-0.2067328
38	0xbd101fb0	-0.03518647
39	0xbe122fe4	-0.14276081
40	0x3d60fbd5	0.054927666
41	0x3d21fa34	0.039545253
42	0x3dcd7fae	0.100341186
43	0xbe15c16f	-0.1462457
44	0xb93e5b5b	-0.00018153845
45	0x3db9d433	0.09073677
46	0xbe458599	-0.19289245
47	0xbd91d5d8	-0.071208656
48	0xbda0a8fe	-0.07844733
49	0x3db7c5d7	0.08973282
50	0xbd6c74d7	-0.057728615
51	0x3db34f00	0.087553024
52	0x3e0bb52f	0.13643335
53	0x3d731147	0.05934265
54	0x3da00473	0.078133486
55	0xbd22c796	-0.03974112
56	0xbe4dfdc3	-0.20116334
57	0x3e42fb76	0.19041237
58	0x3e65fa8a	0.22458854
59	0x3d38944d	0.045063306
60	0xbd57ac09	-0.0526543
61	0xbe6fc6c9	-0.23415674
62	0xbc786dcf	-0.015162899
63	0xbd880fd8	-0.06643647

conv1d_2.weight f4 [64, 64, 3]
0	0x3dc88ffc	0.09793088
1	0x3d60b0e2	0.05485619
2	0xbe0eb8a3	-0.13937621
3	0x3df34c55	0.118797936
4	0xbd410e1e	-0.047132604
5	0xbd4c5db2	-0.049894042
6	0x3cd5c95a	0.026096988
7	0xbcb8d3cd	-0.022561932
8	0x3b78b6c0	0.0037950724
9	0x3ddb3a5a	0.10704489
10	0x3d8deb8f	0.06929695
11	0xbd03920b	-0.0321217
12	0xbd382981	-0.044961456
13	0x3e02f35e	0.1278815
14	0x3cb94a1f	0.022618352
15	0x3cf83dad	0.030302847
16	0x3bac2fb8	0.005254712
17	0x3cd6fbb8	0.026243076
18	0x3d02f4ef	0.031971868
19	0xbcb12c19	-0.021627473
20	0xbdaea593	-0.085276745
21	0x3cb74977	0.022373898
22	0xbd8edd64	-0.06975821
23	0x3dc49f7a	0.0960073
24	0xbda51c1f	-0.08062004
25	0xbdf6fd76	-0.120600626
26	0x3c22916a	0.009922365
27	0xbd8c6c1c	-0.06856558
28	0xbcc61e9e	-0.024184521
29	0xbd8b1785	-0.06791595
30	0x3d7d75ec	0.061880037
31	0x3c806bd6	0.01567642
32	0x3d54e824	0.0519792
33	0x3c8fb268	0.017541125
34	0x3d1a4546	0.03766372
35	0x3c2b4690	0.010453835
36	0x3e244995	0.16043694
37	0xbc645b21	-0.013937742
38	0xbdef77f2	-0.116928
39	0x3d930f5e	0.071806654
40	0xbd80e5bd	-0.06293819
41	0x3d4e0de2	0.05030621
42	0x3d4fd3f3	0.05073924
43	0xbdcd1ac1	-0.100148685
44	0xbdcc43b7	-0.09973853
45	0x3dc4a0e5	0.09601001
46	0xbd2c1008	-0.042007476
47	0xbcc4e68f	-0.02403572
48	0x3d7008b4	0.05860205
49	0x3c25ab18	0.010111593
50	0xbc390380	-0.011292338
51	0xbb4b85bc	-0.0031055054
52	0x3d68d151	0.056840245
53	0xbdb9f54c	-0.0907999
54	0x3e4ccd96	0.200003
55	0x3d7c7343	0.06163336
56	0x3c8067a1	0.015674414
57	0x3d56e629	0.05246559
58	0xbd10d08b	-0.035355132
59	0xbdd67294	-0.10471073
60	0x3d9896b6	0.07450621
61	0xbd01b847	-0.03166988
62	0xbcd29925	-0.02570779
63	0x3dc1c5d1	0.094615586
64	0xbd8424b1	-0.06452311
65	0xbcf6b58f	-0.03011587
66	0xbd57d0fe	-0.052689545
67	0xbcddee42	-0.02709115
68	0xbb8f94e0	-0.004381761
69	0xbd0011ae	-0.03126686
70	0x3bdcdd77	0.006740268
71	0xbdd711be	-0.10501431
72	0x3c4db478	0.012555234
73	0xbbc59c00	-0.0060305595
74	0xbd6ad046	-0.05732753
75	0xbd868ccd	-0.06569824
76	0xbd6413ba	-0.055682875
77	0xbd358893	-0.0443197
78	0x3e62ccd3	0.22148447
79	0x3dd3c72f	0.10340726
80	0xbdf83e52	-0.12121262
81	0x3c7992e0	0.015232772
82	0xbb219600	-0.0024656057
83	0x3d7c0214	0.06152542
84	0x3e3e4578	0.18581188
85	0xbe51305f	-0.20428608
86	0xbdcbf7d1	-0.099593766
87	0x3de31ad6	0.11089103
88	0x3dd9dd5a	0.106379226
89	0xbda6525b	-0.08121177
90	0xbd9676d4	-0.073468834
91	0xbe1f8ca7	-0.15580998
92	0x3e086353	0.13319139
93	0x3eb15322	0.34633738
94	0x3e817093	0.252812
95	0xbdd75e00	-0.10515976
96	0xbd88cef3	-0.066800974
97	0x3cf0e2ea	0.029405076
98	0x3cf5fb69	0.030027108
99	0xbcbb2c8a	-0.022848386
100	0x3c6b3b0f	0.014357342
101	0x3bcd9755	0.0062741437
102	0x3db622bd	0.088933446
103	0x3e71c466	0.23610076
104	0xbe0b1603	-0.13582616
105	0x3cdb2038	0.026748762
106	0x3ce6e528	0.028185442
107	0xbc342740	-0.010995686
108	0x3d0a4ff6	0.033767663
109	0xbbf40b00	-0.0074476004
110	0x3d93c0a6	0.07214479
111	0x3e440f36	0.19146428
112	0xbce01ef7	-0.027358515
113	0x3e426e98	0.189875
114	0x3c6f1348	0.014591999
115	0x3c7e81c8	0.015533872
116	0xbd49b0fc	-0.04924105
117	0xbc63d088	-0.013904698
118	0x397f7c00	0.00024364889
119	0xbd92f963	-0.07176473
120	0xbd298138	-0.041383
121	0xbcf2d2b9	-0.029641496
122	0xbdd0faef	-0.10204112
123	0x3c32203d	0.010871944
124	0x3cc15adf	0.023602901
125	0x3c4eea35	0.0126290815
126	0xbe1f908a	-0.15582481
127	0x3d43665b	0.047705036
128	0xbd89b630	-0.06724203
129	0x3d928212	0.07153715
130	0x3cd4846a	0.025942046
131	0x3d35b0be	0.044358008
132	0x3cdad187	0.026711239
133	0xbd415df3	-0.047208738
134	0xbcbf9206	-0.02338506
135	0x3ba25944	0.004954489
136	0x3d8e4c39	0.06948132
137	0xbd617e9e	-0.055052392
138	0x3a209b00	0.00061266124
139	0x3cc9b9cc	0.024624728
140	0x3d848f40	0.06472635
141	0xbd4f0950	-0.05054599
142	0x3d1d4a38	0.03840086
143	0xbb0894c0	-0.0020840615
144	0xbd43fbec	-0.047847673
145	0x3d8b5d7c	0.0680494
146	0x3d8c4fa1	0.068511255
147	0x3dce6ef1	0.10079754
148	0xbd5bc627	-0.05365577
149	0xbdab5d06	-0.08367352
150	0xbdb0337a	-0.086035684
151	0xbd1417da	-0.03615556
152	0xbd8138eb	-0.06309684
153	0x3e3fbfcc	0.18725508
154	0x3e45beee	0.19311115
155	0xbd6d1d93	-0.057889532
156	0x3e11331f	0.14179657
157	0x3ce33dfe	0.027739521
158	0xbd316c37	-0.043316092
159	0xbd61fab4	-0.05517073
160	0xbd66f96b	-0.056390207
161	0xbb6d2cd4	-0.003619005
162	0xbe0a08db	-0.1347994
163	0x3d1e327f	0.038622376
164	0xbd7905f4	-0.060796693
165	0xbc1650f4	-0.009174574
166	0xbe3c0765	-0.18362196
167	0x3d777cf3	0.060421895
168	0x3d904a50	0.07045424
169	0xbd89614c	-0.06708011
170	0x3d88204c	0.06646785
171	0x3dc9665a	0.09833975
172	0xbc2a8787	-0.010408289
173	0xbd0c1cea	-0.034207262
174	0x3e06eee4	0.13177067
175	0x3d6f4f32	0.058425136
176	0xbd8c8634	-0.06861535
177	0xbd08fe7b	-0.033445816
178	0xbd6e3c14	-0.058162764
179	0xbd8ee269	-0.06976778
180	0xbd9e0997	-0.07716673
181	0xbe0aa759	-0.135404
182	0x3e13b70e	0.14425299
183	0xbc44ffd4	-0.012023885
184	0x3e0a3fb1	0.13500859
185	0x3d46afb9	0.048507426
186	0xbdf2130a	-0.11820038
187	0x3e6a1827	0.22860776
188	0x3cf899a6	0.030346703
189	0xbc669aa4	-0.014074955
190	0xbc9ea4c8	-0.019365683
191	0xbc606ab8	-0.013697319
192	0xbd9f811f	-0.077883
193	0xbd4fe4f7	-0.050755467
194	0xbd2cd453	-0.042194676
195	0x3cdd1d2f	0.026991455
196	0xbcaa9b5a	-0.02082603
197	0x3ce9885d	0.028507406
198	0xbc33561a	-0.010945821
199	0x3d8f9a58	0.070118606
200	0xbd68ec1d	-0.0568658
201	0x3db272f3	0.08713331
202	0xbdaf1dff	-0.08550643
203	0xbd8f737b	-0.07004448
204	0x3e1898f3	0.14902095
205	0xbce8bea3	-0.028411215
206	0x3d0ec2e3	0.034853827
207	0x3d374573	0.044743966
208	0x3b855ff3	0.004070276
209	0xbd24a72e	-0.040198497
210	0xbde67878	-0.11253446
211	0xbcafb78b	-0.021449825
212	0x3d5658ab	0.052330654
213	0x3c9e5631	0.019328209
214	0x3d9b4ad1	0.075826295
215	0xbd42d428	-0.04756561
216	0x3dd5fcf0	0.104486346
217	0x3d5b98ff	0.053612705
218	0x3d39ef8b	0.04539446
219	0xbc788734	-0.015168954
220	0x3c9dbe2c	0.01925572
221	0xbd6013d1	-0.0547064
222	0xbcb3ea20	-0.021962225
223	0x3b992a7a	0.004674253
224	0x3d9f7def	0.07787692
225	0x3d909892	0.070603505
226	0x3d8c71d6	0.0685765
227	0x3cfae51c	0.030626826
228	0x3cec3a45	0.028836379
229	0x3d98f598	0.07468718
230	0x3c9ecd49	0.019384997
231	0x3d374624	0.044744626
232	0xbd137d5f	-0.036008235
233	0x3d0bd172	0.03413529
234	0x3d008a7d	0.031382073
235	0x3cef4306	0.029206764
236	0x3d951f5b	0.07281371
237	0x395907e9	0.0002069768
238	0x3e045afc	0.12925333
239	0x3c377a63	0.011198613
240	0x3d13bae2	0.036066897
241	0xbb2e7080	-0.0026617348
242	0xbd760521	-0.060063485
243	0x3b6ae6e1	0.003584318
244	0x3d06cd5d	0.032910693
245	0x3d5798e6	0.05263605
246	0x3dacd5f6	0.08439247
247	0xbc34b95c	-0.011030521
248	0xbc47664c	-0.012170386
249	0xbc6cfb1f	-0.014464169
250	0x3a73c9f9	0.00092998106
251	0x3c8848dc	0.016636305
252	0xbd04bfbf	-0.032409426
253	0x3d64df1b	0.055876832
254	0x3ce59b5a	0.028028179
255	0xbd402215	-0.046907503

conv1d_2.bias f4 [64]
0	0x3d8cb952	0.068712845
1	0xbd8568c9	-0.06514127
2	0xbca8a091	-0.020584377
3	0xbd67b34f	-0.056567486
4	0xbd9246e5	-0.07142428
5	0xbca4c981	-0.020115616
6	0x3d309062	0.043106444
7	0xbd10f2a9	-0.03538767
8	0xbd843ed1	-0.06457294
9	0xbd3c7a22	-0.046014912
10	0xbdc53b1e	-0.09630416
11	0x3d8f0741	0.069838054
12	0x3d13abd1	0.03605253
13	0x3ccc4349	0.024934428
14	0x3cdfcf3d	0.027320499
15	0xbd1517d2	-0.03639967
16	0x3b2ad490	0.0026066639
17	0xbd842f7b	-0.06454369
18	0x3d9d6c08	0.07686621
19	0xbd4e8b46	-0.05042579
20	0x3b985019	0.0046482203
21	0xbdcf2873	-0.10115137
22	0x3d55c619	0.052190874
23	0xbca01f61	-0.019546213
24	0xbc579cf6	-0.013159981
25	0xbcfbbd75	-0.030729989
26	0xbd90b21b	-0.07065221
27	0xbd8b42af	-0.06799828
28	0xbd2f0122	-0.04272569
29	0x3d53f52c	0.051747486
30	0xbd8f7c70	-0.070061564
31	0xbd18cdbb	-0.037305575
32	0xbcf4da41	-0.029889228
33	0xbd0edad1	-0.03487665
34	0xbd947700	-0.0724926
35	0x3c595995	0.013265987
36	0xbd6442dc	-0.055727825
37	0xbd430a68	-0.047617346
38	0x3c9d300c	0.01918795
39	0xbe1e3361	-0.15449287
40	0xbcf800d4	-0.030273832
41	0xbd50376a	-0.050834097
42	0xbc3574ff	-0.011075257
43	0xbbad7e5c	-0.005294604
44	0x3c6a58c9	0.014303395
45	0x3c8678da	0.016415048
46	0xbc09a5f9	-0.008401387
47	0xbb736668	-0.0037139896
48	0x3da7574d	0.08170948
49	0x3d827a82	0.06371023
50	0x3d052e0b	0.032514613
51	0x3c7c352f	0.015393539
52	0x3d034e5e	0.03205716
53	0x3d225fc1	0.0396421
54	0x3c3bb532	0.011456775
55	0xbcabd95a	-0.020977665
56	0xbd8a9f06	-0.067686126
57	0x3d0439a6	0.03228154
58	0x3cb38b7e	0.021917101
59	0xbdb37bda	-0.08763857
60	0x3d3cf330	0.04613036
61	0xbc6b6ba0	-0.0143689215
62	0x3c30a048	0.0107804015
63	0xbcd930da	-0.026512552

lstm.weight_ih_l0 f4 [128, 64]
0	0xbbf333b7	-0.0074219364
1	0xbe6fc5d2	-0.23415306
2	0x3dc6598b	0.09685048
3	0xbd0e2004	-0.0346985
4	0x3c3f540b	0.011677752
5	0x3e86368c	0.2621349
6	0xbe183c21	-0.14866687
7	0x3da8e5b0	0.082469344
8	0xbd0281fb	-0.03186224
9	0x3e218a8f	0.15775512
10	0xbe0b453a	-0.13600627
11	0x3d044976	0.03229662
12	0xbca266f5	-0.019824484
13	0xbc806db6	-0.015677314
14	0xbe01e38d	-0.1268446
15	0xbe0a3a7e	-0.13498875
16	0x3bfe0e8f	0.0077532004
17	0x3d1e9316	0.03871449
18	0x3df6813d	0.12036369
19	0xbe3f0071	-0.18652512
20	0xbddb72a0	-0.10715222
21	0x3d0469bc	0.0323274
22	0xbd028931	-0.031869117
23	0x3d81401c	0.06311056
24	0x3b439d99	0.0029848574
25	0x3e43a74b	0.19106786
26	0xbe9534c4	-0.2914182
27	0xbe0de8e7	-0.13858376
28	0x3caa0c2a	0.020757753
29	0xbdbe4b85	-0.09291748
30	0x3dd97382	0.106177345
31	0xbd31a06e	-0.04336589
32	0xbc0a90b9	-0.008457356
33	0x3d33fcb8	0.043942183
34	0x3dc390ec	0.09549126
35	0x3e2aba96	0.1667274
36	0xbdde3d7d	-0.10851572
37	0xbd38e00c	-0.045135543
38	0xbe1c7719	-0.15279807
39	0xbd8a29f4	-0.06746283
40	0x3dc83730	0.09776151
41	0x3dcc0c42	0.099632755
42	0xbe672095	-0.22571023
43	0xbc8a6cf4	-0.016897656
44	0x3d051db0	0.032499015
45	0xbeb11de9	-0.34593132
46	0xbe1edd8e	-0.15514204
47	0xbda22a78	-0.079182565
48	0x3d94084a	0.072281435
49	0x3e5fcb4f	0.218549
50	0xbe10cd68	-0.14140856
51	0xbd5a35be	-0.05327391
52	0xbdfd6f0b	-0.123746954
53	0xbe44d555	-0.19222005
54	0xbe2828f0	-0.16421866
55	0xbd8cb99c	-0.0687134
56	0x3c84317e	0.016136881
57	0x3e876744	0.26445973
58	0x3d9a41aa	0.07532056
59	0xbe579001	-0.21051027
60	0x3e04d6d3	0.12972574
61	0xbceb2229	-0.028702812
62	0x3e021a17	0.12705265
63	0x3b23fac0	0.0025021285
64	0xbc104331	-0.008805082
65	0xbda41f20	-0.08013749
66	0xbd960a08	-0.07326132
67	0xbd295606	-0.041341804
68	0x3de83485	0.11338142
69	0x3d904a16	0.07045381
70	0x3e2e7830	0.17038035
71	0xbb612148	-0.0034352113
72	0x3dc1773d	0.09446571
73	0x3e34f97b	0.17673294
74	0xbd947997	-0.07249754
75	0x3d89682d	0.06709323
76	0xbc94c295	-0.01815919
77	0x3beced5a	0.007230443
78	0x3dbf0e44	0.09328893
79	0x3e210ed1	0.15728308
80	0x3e1f25b8	0.15541732
81	0x3d4891e8	0.048967272
82	0x3e5bd943	0.21469598
83	0x3dc4969a	0.095990375
84	0xbe03b75f	-0.1286292
85	0x3e11b553	0.14229326
86	0x3d62b201	0.05534554
87	0xbb8abc83	-0.004233898
88	0xbdcb990d	-0.099413015
89	0x3cbe48f7	0.023228152
90	0x3e1d0c6b	0.15336768
91	0x3d83abfd	0.064292885
92	0xbd2f4cd8	-0.042797893
93	0xbe168eff	-0.14702986
94	0xbe040ba2	-0.12895063
95	0xbda6830a	-0.081304625
96	0x3e35f940	0.17770863
97	0x3e431bed	0.19053622
98	0xbd71407a	-0.05889938
99	0xbc13066b	-0.008973698
100	0x3d16e8dc	0.036843166
101	0x3cb6aeb5	0.022300104
102	0xbe1f8236	-0.15577015
103	0x3d7eb873	0.062187623
104	0xbd0def6f	-0.03465217
105	0xbddad6ca	-0.10685499
106	0xbe17052a	-0.14748064
107	0x3dce7196	0.100802585
108	0x3d0f05fa	0.03491781
109	0xbe08ff18	-0.1337856
110	0x3dba3a98	0.09093207
111	0x3df0030b	0.117193304
112	0x3d8b24b3	0.06794109
113	0xbda88c9d	-0.08229945
114	0x3e1e6037	0.1546639
115	0xbe22109e	-0.15826651
116	0xbdcf5aaa	-0.10124715
117	0x3dddf3b3	0.108374976
118	0x3d993050	0.07479918
119	0xbc481660	-0.012212366
120	0x3e1730d0	0.14764714
121	0xbd1fbc6a	-0.038998045
122	0x3caf76f3	0.021419024
123	0xbd3e1b7b	-0.046412926
124	0x3d3ad533	0.04561348
125	0x3da270a2	0.07931639
126	0xbdf0a426	-0.11750059
127	0xbd39d5b8	-0.045369834
128	0x3d3eaf27	0.046553757
129	0x3daecbdd	0.085349776
130	0x3e2daf55	0.16961415
131	0xbe05952f	-0.1304519
132	0xbcf8b707	-0.030360712
133	0xbdd1f066	-0.102509305
134	0x3b6e3cb8	0.003635211
135	0x3d50eedd	0.051009048
136	0xbd81ff0e	-0.06347476
137	0xbca8e620	-0.020617545
138	0x3decbf11	0.115598805
139	0x3e1a31e8	0.150581
140	0x3e0b53fe	0.13606259
141	0xbd37932b	-0.044818085
142	0xbe029bda	-0.12754765
143	0x3e542843	0.20718484
144	0x3c48dade	0.012259213
145	0x3d31dc22	0.043422826
146	0x3e3bb766	0.1833168
147	0x3d5874ed	0.052845884
148	0xbc1d0fe7	-0.009586311
149	0xbe13b682	-0.1442509
150	0xbdf17580	-0.117899895
151	0xbe1d5aa9	-0.15366615
152	0xbd446e78	-0.047956914
153	0x3bf55847	0.00748733
154	0x3e0aaf5d	0.13543458
155	0x3d8ab896	0.06773488
156	0x3c06c4d3	0.0082256375
157	0xbdf0e05c	-0.11761543
158	0xbd975ab0	-0.07390344
159	0x3dc0d469	0.09415514
160	0x3db5b112	0.08871664
161	0xbe63da00	-0.22251129
162	0x3e2b627d	0.16736789
163	0x3e158e70	0.14605117
164	0xbe265b8a	-0.16245857
165	0x3e0e7594	0.1391204
166	0x3e47923a	0.19489375
167	0xbd3695e3	-0.044576537
168	0x3c8998b6	0.016796451
169	0xbcd84120	-0.026398242
170	0x3e28a2db	0.16468374
171	0x3d485885	0.048912544
172	0xbcc5ff18	-0.02416949
173	0x3e24d48c	0.16096705
174	0xbdfd6d3f	-0.12374353
175	0xbe2241be	-0.15845391
176	0x3e08f967	0.1337639
177	0xbd41648a	-0.047215022
178	0xbd6077b8	-0.054801673
179	0x3c15d32c	0.009144586
180	0xbc4d81af	-0.012543126
181	0x3d370fce	0.044692807
182	0x3c2f0f0f	0.010684743
183	0xbdc6f2c5	-0.09714273
184	0xbda5301b	-0.08065816
185	0xbe1be62f	-0.15224527
186	0x3ddb984e	0.10722409
187	0x3d316108	0.043305427
188	0xbe0471cc	-0.12934035
189	0xbda45024	-0.08023098
190	0x3dcc0cae	0.09963356
191	0xbd23ecb0	-0.040020645
192	0x3d83e733	0.06440582
193	0x3d96cbb0	0.07363069
194	0x3db5ef13	0.088834904
195	0x3e4fb76b	0.20284812
196	0x3e3d3d5f	0.18480442
197	0xbdf8fee9	-0.12157995
198	0x3d97e05e	0.074158415
199	0xbe113f01	-0.1418419
200	0x3de12530	0.10993421
201	0xbddf5e1d	-0.109066226
202	0xbe0e2a78	-0.13883388
203	0xbd8bae53	-0.06820359
204	0xbdc198c4	-0.09452966
205	0x3e2321c4	0.1593085
206	0x3e19b9c9	0.15012278
207	0x3dc84ff5	0.097808756
208	0x3e1f2a35	0.15543444
209	0xbdef3441	-0.116798885
210	0xbe40547c	-0.18782228
211	0x3e23c69f	0.15993737
212	0xbd01775a	-0.031607963
213	0xbd58e4ab	-0.05295245
214	0x3db8c279	0.09021468
215	0x3d8e51c7	0.069491915
216	0x3cba4d2f	0.022741882
217	0x3e002961	0.12515785
218	0x3daa5386	0.08316712
219	0x3e2815c8	0.16414559
220	0xbccaecf7	-0.024771197
221	0x3e7796ca	0.24178615
222	0x3d9d1722	0.07670428
223	0x3d9da9b6	0.076983854
224	0x3ca5a808	0.020221725
225	0x3dd31f4d	0.103087045
226	0xbd8d4b45	-0.06899122
227	0x3e25a83b	0.16177456
228	0x3ddd8758	0.108168304
229	0x3e82b63a	0.25529653
230	0x3dfd7c2f	0.12377202
231	0xbcfab3e2	-0.030603353
232	0x3defdcd8	0.117120445
233	0xbd1f8408	-0.038944274
234	0x3de1e97c	0.11030862
235	0x3db92e25	0.090420045
236	0x3d486fab	0.04893462
237	0x3e422afe	0.18961713
238	0xbd862d8a	-0.06551655
239	0xbd85c979	-0.065325685
240	0x3d9ead1a	0.0774786
241	0xbd7c9715	-0.06166752
242	0x3dae96de	0.085248694
243	0xbdf650ea	-0.12027152
244	0x3d147938	0.036248416
245	0x3de96f3c	0.113981694
246	0x3e57083a	0.20999232
247	0xbdb29663	-0.0872009
248	0xbd289807	-0.04116061
249	0xbd89a495	-0.06720845
250	0xbd7e3acc	-0.06206779
251	0xbcacdea4	-0.021102257
252	0xbd1da2c0	-0.03848529
253	0x3b0762fb	0.0020658362
254	0xbdf46e88	-0.11935145
255	0xbe1c3adc	-0.15256828

lstm.weight_hh_l0 f4 [128, 32]
0	0x3d7f1b29	0.06228176
1	0xbe8d6bf1	-0.27621415
2	0x3d4b02e7	0.049563315
3	0x3d6df3d0	0.058093846
4	0x3cacb18d	0.021080757
5	0x3d2a6f6a	0.04161016
6	0xbe4f7100	-0.2025795
7	0xbdaa3c65	-0.083123006
8	0xbc434214	-0.01191761
9	0x3e074bee	0.13212559
10	0x3e15862f	0.14601968
11	0xbe29ea66	-0.16593322
12	0x3d442135	0.04788323
13	0xbe1a95a3	-0.15096144
14	0x3e31a07e	0.17346379
15	0x3d3322db	0.043734413
16	0x3e07ccff	0.13261794
17	0xbc9cbadb	-0.019132068
18	0xbdd152c0	-0.102208614
19	0xbe2068b1	-0.15664937
20	0x3da137ed	0.07871995
21	0xbd8ce769	-0.068800755
22	0xbded50b9	-0.11587662
23	0x3dabe0d3	0.08392491
24	0xbdeaaf8c	-0.11459264
25	0x3e18a511	0.14906718
26	0xbd50b070	-0.050949514
27	0xbe9d7e35	-0.3076035
28	0x3db7a2b9	0.08966584
29	0x3c7c1c1b	0.01538756
30	0xbcb7dbaa	-0.022443611
31	0x3e0429c7	0.12906562
32	0x3e3f0fc7	0.18658362
33	0xbc04937e	-0.0080918055
34	0xbde9ea94	-0.11421695
35	0xbdaf6cf1	-0.08565701
36	0x3e8587c8	0.26080155
37	0xbda9e326	-0.08295278
38	0xbcb94afe	-0.022618767
39	0x3e179109	0.1480142
40	0xbd778600	-0.060430527
41	0x3e53d1e0	0.2068553
42	0xbe0878b1	-0.1332729
43	0x3ddd1173	0.10794344
44	0x3dff16ba	0.124555066
45	0xbe0d48bb	-0.13797276
46	0xbddc0cb8	-0.107446134
47	0x3caa801d	0.020813042
48	0x3c6dc693	0.014512676
49	0xbd45dca5	-0.048306126
50	0xbe1c9483	-0.15291028
51	0xbe053414	-0.13008147
52	0x3e24dc86	0.16099748
53	0x3d8152a4	0.063145906
54	0x3e1380b7	0.1440457
55	0xbdff53f0	-0.12467182
56	0xbc3b77f6	-0.011442175
57	0xbe3c9eed	-0.1842
58	0xbd66fc5e	-0.05639302
59	0xbd127317	-0.03575429
60	0xbe0c21d7	-0.13684784
61	0xbe87fd95	-0.26560655
62	0xbe003d5e	-0.1252341
63	0x3d9b3c9f	0.07579922
64	0x3dd684a3	0.10474517
65	0x3dc1b4f0	0.09458339
66	0xbc0b069d	-0.008485463
67	0xbde37375	-0.11106006
68	0xbd987d3e	-0.07445763
69	0xbd82f455	-0.06394259
70	0xbdafd3cf	-0.08585321
71	0xbd907a4c	-0.07054576
72	0xbe0e54dd	-0.1389956
73	0xbc836d73	-0.0160434
74	0xbe1a24a4	-0.1505304
75	0xbdb5a014	-0.08868423
76	0xbdabb9a0	-0.083850145
77	0xbe1c8077	-0.1528338
78	0x3e010cba	0.12602511
79	0x3cc73d68	0.024321273
80	0xbdc1dcb5	-0.09465925
81	0x3cf16311	0.029466184
82	0x3d943f7a	0.0723867
83	0xbd808631	-0.06275595
84	0xbdb8c681	-0.090222366
85	0xbdb200ee	-0.086915836
86	0x3e88bae5	0.2670509
87	0x3e40f73a	0.1884431
88	0x3dfb3af6	0.12267105
89	0xbdcb8aeb	-0.09938606
90	0x3cd15eea	0.025557954
91	0xbd01e17b	-0.031709176
92	0x3d9e70f4	0.07736388
93	0xbe430370	-0.1904428
94	0xbb12a8b5	-0.002237839
95	0xbe2d341c	-0.1691441
96	0x3db1d11d	0.08682463
97	0x3d1ea35b	0.038730007
98	0xbd5d4c89	-0.054028068
99	0xbcf9223f	-0.030411838
100	0x3e66934e	0.2251713
101	0x3e5f4e10	0.21807122
102	0x3e2c8a4a	0.16849628
103	0xbba1475a	-0.004921836
104	0xbc45eff6	-0.012081137
105	0x3dccea72	0.100056544
106	0xbd82d426	-0.0638812
107	0x3d01faef	0.03173345
108	0x3c574fa3	0.0131415455
109	0x3ce22574	0.02760575
110	0x3d2ff3f0	0.042957246
111	0x3e238a5e	0.15970752
112	0x3d972102	0.073793426
113	0xbe03d832	-0.1287544
114	0x3da4dfbc	0.080504864
115	0xbe49c902	-0.19705585
116	0xbe16410f	-0.14673255
117	0xbcf73be5	-0.030179927
118	0x3db98eb0	0.090604186
119	0x3e0e18cb	0.13876645
120	0x3e36b3be	0.17842004
121	0xbdc2dac3	-0.09514382
122	0xbd8e54be	-0.06949757
123	0xbd55cf41	-0.052199606
124	0x3d3ce65f	0.046118136
125	0xbe58aa19	-0.21158637
126	0x3d0405ee	0.032232217
127	0xbde92e1a	-0.11385746
128	0xbca52bc4	-0.02016247
129	0x3e366d01	0.17815019
130	0x3da224f0	0.079172015
131	0xbdc1c77f	-0.09461879
132	0x3d026fc4	0.03184487
133	0x3e1564c8	0.14589226
134	0x3e1ec5d8	0.15505159
135	0xbdabc1fa	-0.083866075
136	0x3dd2a37e	0.1028509
137	0x3d88d3f5	0.066810526
138	0x3e16df32	0.1473358
139	0x3d8260ce	0.0636612
140	0x3db2b042	0.08725025
141	0x3d6ca857	0.05777773
142	0x3dfe01a9	0.124026604
143	0x3dff961b	0.12479802
144	0x3d093699	0.033499334
145	0xbc66e59d	-0.01409283
146	0x3c304914	0.010759611
147	0x3e12315a	0.14276639
148	0x3d91b1c8	0.07113987
149	0xbd5926e8	-0.05301562
150	0xbcce19dd	-0.025158817
151	0xbcf069b7	-0.029347284
152	0xbe3b19e0	-0.1827159
153	0x3d5d3483	0.054005157
154	0x3bc64bdd	0.006051524
155	0x3e358300	0.17725754
156	0xbe086ca4	-0.13322693
157	0xbd7ed75f	-0.062217113
158	0x3e034360	0.1281867
159	0xbb5b8a6c	-0.0033499254
160	0xbc7ca3f9	-0.0154199535
161	0x3e4bb2fa	0.19892493
162	0xbe23c7fb	-0.15994255
163	0x3cce5f5e	0.025191959
164	0xbcf2bd85	-0.029631386
165	0xbd5effc9	-0.054443154
166	0x3dfd8cd7	0.12380379
167	0x3d87ed25	0.066370286
168	0x3e1761e5	0.14783438
169	0xbd09e6da	-0.033667423
170	0xbdebf5a8	-0.115214646
171	0x3e0cd24d	0.13752098
172	0x3d42ab53	0.04752667
173	0x3e446fd2	0.19183281
174	0xbdc8c4bd	-0.0980315
175	0x3d6dc390	0.05804783
176	0xbe1e7737	-0.15475164
177	0xbcb645db	-0.022250107
178	0xbccc628e	-0.024949338
179	0x3d5930e4	0.05302514
180	0xbd49a726	-0.04923167
181	0x3d82e6bd	0.06391666
182	0xbd495a79	-0.049158547
183	0xbe1a82c8	-0.15088952
184	0xbc02ecae	-0.007990999
185	0xbc311364	-0.010807846
186	0x3c090926	0.008363998
187	0x3e065874	0.1311968
188	0x3d21b293	0.039476942
189	0xbe2ad952	-0.16684464
190	0x3da89c43	0.082329296
191	0xbcc8d0d6	-0.024513643
192	0x3d98f093	0.07467761
193	0xbe0c0240	-0.13672733
194	0x3d29da18	0.041467756
195	0xbd247b72	-0.04015679
196	0x3d0a754d	0.033803273
197	0xbe0b71b3	-0.13617592
198	0xbd47a16d	-0.048737932
199	0xbe88def3	-0.26732597
200	0xbe53a07c	-0.20666689
201	0x3c5303d9	0.012879335
202	0x3dd871fc	0.10568616
203	0xbd826f6c	-0.06368908
204	0xbb5876d8	-0.003302982
205	0x3d82804f	0.06372129
206	0x3d64cdb0	0.05586022
207	0x3d44fa83	0.04809047
208	0x3dc56688	0.09638697
209	0x3e046853	0.12930422
210	0x3d6e1293	0.058123183
211	0xbdc6dd41	-0.097101696
212	0x3e574def	0.21025823
213	0xbd4d2311	-0.05008227
214	0x3d222e66	0.03959503
215	0x3e3bbe40	0.18334293
216	0xbdb413e7	-0.087928586
217	0x3cc909a4	0.02454073
218	0x3e3fb91d	0.18722959
219	0xbcf1c4ae	-0.02951273
220	0xbd2694d7	-0.04066929
221	0xbd4759a9	-0.04866949
222	0xbdf3fcb9	-0.119134374
223	0x3e34796b	0.17624442
224	0xbc8c4744	-0.017123826
225	0xbc83c4af	-0.016084997
226	0xbd5288a0	-0.051399827
227	0x3d88523f	0.06656312
228	0x3c17d8dd	0.009268013
229	0x3e3d1a01	0.18466951
230	0x3e376a2d	0.17911597
231	0xbca6261c	-0.020281844
232	0xbd8bb026	-0.06820707
233	0x3e453539	0.19258584
234	0xbe0c8d46	-0.13725767
235	0x3d1ee2c9	0.038790498
236	0x3d897179	0.06711096
237	0x3e2ea563	0.17055278
238	0xbc235a65	-0.009970282
239	0xbcba6961	-0.022755327
240	0xbdcc4815	-0.09974686
241	0x3d4d5732	0.050131984
242	0xbd6ce550	-0.057835877
243	0xbd7f7fba	-0.06237767
244	0x3e3a7bb2	0.18211249
245	0x3ded4a3b	0.11586424
246	0xbd13c4ca	-0.036076345
247	0x3dbfff95	0.0937492
248	0xbd95bfe5	-0.073119916
249	0x3b410db1	0.0029457624
250	0x3dc8a333	0.09796753
251	0xbe65559f	-0.22395943
252	0x3d6f158d	0.05837016
253	0x3e10456c	0.14088982
254	0xbe3ec160	-0.18628454
255	0xbe14f986	-0.1454831

lstm.bias_ih_l0 f4 [128]
0	0xbd3c5177	-0.04597613
1	0xbd500b8a	-0.050792255
2	0x3e028cb2	0.12748984
3	0x3d8288c6	0.06373744
4	0x3aa34324	0.0012455923
5	0x3d21f877	0.039543595
6	0xbde4f39a	-0.11179276
7	0xbe1aa69c	-0.15102619
8	0xbdbf7490	-0.093484044
9	0xbeb5a0b0	-0.35474157
10	0x3d21a059	0.03945956
11	0xbed3f4e1	-0.41397765
12	0xbe01ba33	-0.12668686
13	0x3d3e84e1	0.046513442
14	0xbe04cd50	-0.12968946
15	0xbd5e6500	-0.05429554
16	0x3de8e697	0.113721065
17	0x3d94c341	0.07263804
18	0xba034b0d	-0.0005008437
19	0xbe999a9a	-0.30000764
20	0x3dad952a	0.084757164
21	0xbefdd59d	-0.49577036
22	0xbd958005	-0.072998084
23	0x3d861f44	0.06548932
24	0xbcfb7ec4	-0.030700095
25	0xbeabe6fe	-0.3357467
26	0x3cbc70fc	0.023003094
27	0x3bd755d7	0.006571512
28	0xbed1c520	-0.40970707
29	0x3da8fe63	0.082516454
30	0xbe0e20f6	-0.13879761
31	0xbe963e26	-0.2934429
32	0xbd946094	-0.07244983
33	0xbdd07321	-0.10178209
34	0xbe73e26e	-0.23816845
35	0x3b18abda	0.002329579
36	0xbec67a0c	-0.3876499
37	0xbe63c954	-0.2224477
38	0xbe2d25dc	-0.16908973
39	0xbe20f86d	-0.15719767
40	0xbe558b00	-0.20853806
41	0xbdfb6bce	-0.122764215
42	0xbdf6cf15	-0.120512165
43	0xbe83af60	-0.25719738
44	0xbe8ba3d7	-0.27273437
45	0xbe8c9529	-0.2745755
46	0xbea7ea54	-0.32795966
47	0x3d4cfc37	0.05004522
48	0xbdae6def	-0.08517062
49	0x3deb1ffa	0.114807084
50	0xbdc92e0f	-0.09823238
51	0xbe022a60	-0.12711477
52	0xbcb5502f	-0.022132961
53	0xbddabc25	-0.10680417
54	0xbe837ac1	-0.2567959
55	0x3dbd2df7	0.09237283
56	0xbe593186	-0.21210298
57	0xbe1eda9d	-0.15513082
58	0xbed4bba7	-0.41549417
59	0xbda00525	-0.07813481
60	0xbe8ab530	-0.2709136
61	0xbe1841cd	-0.14868851
62	0xbd3811c4	-0.044938818
63	0xbe153492	-0.14570835
64	0x3d92b187	0.07162767
65	0xbd2aadae	-0.04166954
66	0x3dfd21a9	0.12359936
67	0xbd944ef6	-0.07241623
68	0xbd11b520	-0.035573125
69	0x3c7bdfb3	0.015373158
70	0x3ca3cd05	0.019995222
71	0xbd71a449	-0.058994565
72	0x3d6eddd5	0.058317024
73	0xbdfd1b65	-0.12358741
74	0xbe17cc80	-0.14824104
75	0xbdf65490	-0.12027848
76	0xbd3ed3f1	-0.04658884
77	0x3d8955ef	0.06705844
78	0xbc0c3bf4	-0.008559216
79	0xbe2e5b10	-0.17026925
80	0xbd9f8a23	-0.07790019
81	0xbcc25563	-0.023722356
82	0x3c1ba644	0.00950009
83	0x3c702d98	0.014659308
84	0xbd9a0e00	-0.075222015
85	0x3d8a8248	0.067631304
86	0x3d5b75ff	0.053579327
87	0xbd0123e0	-0.031528354
88	0xbdd6625c	-0.10467979
89	0xbdf5bf8b	-0.119994245
90	0x3d1883be	0.037235014
91	0xbdd4612d	-0.10370097
92	0x3b4f29e7	0.003161067
93	0xbce33213	-0.027733838
94	0x3ae9a8b4	0.0017826767
95	0x3d9ea1e8	0.07745725
96	0xbe84d445	-0.259432
97	0xbe278eeb	-0.16363113
98	0x3c1a0fe4	0.009403203
99	0x3d136df9	0.03599355
100	0x3d14b54a	0.036305703
101	0xbdd8b647	-0.10581642
102	0xbdc7e0bb	-0.09759661
103	0xbe9cb2d7	-0.30605194
104	0xbdbdf095	-0.09274403
105	0xbea4e5d6	-0.322066
106	0x3dadf0d6	0.084932014
107	0xbe73de41	-0.23815252
108	0xbe79f01f	-0.24408005
109	0xbcff6c84	-0.031179674
110	0xbddf5cd1	-0.10906375
111	0x3dbb2194	0.09137264
112	0xbdcd065c	-0.100109786
113	0xbd4c5388	-0.04988435
114	0x3c8646b8	0.016391143
115	0xbd93acde	-0.07210706
116	0xbd2f7e8c	-0.042845294
117	0xbe327623	-0.17427878
118	0xbc2f8b6b	-0.010714392
119	0xbd364294	-0.044497088
120	0xbe53b61e	-0.20674941
121	0xbe9ffaf6	-0.31246156
122	0x3dbf07c7	0.09327655
123	0x3c80e248	0.0157329
124	0xbe84d2db	-0.2594212
125	0x3c79b311	0.015240447
126	0xbddb058b	-0.106944166
127	0xbe49cb8d	-0.19706555

lstm.bias_hh_l0 f4 [128]
0	0xbe335ba6	-0.1751543
1	0xbcd3d170	-0.025856704
2	0x3dc38735	0.09547273
3	0xbdeac17a	-0.11462684
4	0x3a42d7de	0.00074326794
5	0x3d7f149f	0.062275525
6	0xbe204e2c	-0.1565482
7	0xbebc6ade	-0.36800283
8	0xbe9e6b1f	-0.30941102
9	0xbe096243	-0.1341639
10	0x3e1d006c	0.15332192
11	0xbe93328f	-0.2874951
12	0xbe7d3c8c	-0.24730128
13	0xbe2f4c72	-0.17119005
14	0xbe3eb336	-0.18623051
15	0xbe253668	-0.16134036
16	0xbe57b4f9	-0.2106513
17	0xbe6b8df5	-0.23003371
18	0x3e597c51	0.21238829
19	0xbe7170e5	-0.23578222
20	0x3d2888fe	0.04114627
21	0xbea8309b	-0.32849583
22	0xbe726669	-0.23671879
23	0x3dbd0026	0.09228544
24	0xbdca692c	-0.09883341
25	0xbebe0e34	-0.3712021
26	0x3c6de058	0.01451882
27	0xbccea77b	-0.025226345
28	0xbecd5c16	-0.40109318
29	0x3df42525	0.11921147
30	0xbd0168fe	-0.03159427
31	0xbe7aac14	-0.24479705
32	0xbd9ff668	-0.0781067
33	0x3d04c4f2	0.032414384
34	0xbe0e92fe	-0.1392326
35	0xbe43418e	-0.19067976
36	0xbe1c8514	-0.1528514
37	0xbd6193c8	-0.055072576
38	0xbc98b46d	-0.018640721
39	0xbe4da775	-0.20083411
40	0xbe01180e	-0.12606832
41	0xbd699dc5	-0.057035226
42	0xbc876c1c	-0.016531043
43	0xbe11980a	-0.14218155
44	0xbe21a420	-0.15785265
45	0xbe670321	-0.22559787
46	0xbe65bd2c	-0.22435445
47	0xbe6ad3b6	-0.22932324
48	0xbdb0b511	-0.08628286
49	0xbd7d19c7	-0.06179216
50	0xbd8f26fb	-0.06989857
51	0xbe8fc43c	-0.28079402
52	0xbde51962	-0.11186482
53	0xbe9e557d	-0.30924597
54	0xbe11d376	-0.14240822
55	0xbda157ef	-0.078781
56	0x3d84a805	0.0647736
57	0xbe0e530f	-0.13898872
58	0xbe4c72ac	-0.19965619
59	0xbda4a515	-0.080392994
60	0xbdd7f5bc	-0.10544917
61	0xbe62c20b	-0.22144334
62	0x3d3aa276	0.04556509
63	0xbea33ca5	-0.31882206
64	0x3dba03a7	0.09082728
65	0x3cc04714	0.023471393
66	0x3da19973	0.07890596
67	0xbc71f755	-0.014768441
68	0x3e190ff5	0.14947493
69	0x3dca50b7	0.098786764
70	0x3dfb6310	0.12274754
71	0xbbdb0227	-0.006683606
72	0xbdf2abc7	-0.1184917
73	0x3e3030a9	0.17206062
74	0x3dd711f6	0.10501473
75	0x3da951dc	0.082675666
76	0x3c8ee21f	0.017441807
77	0xbcb22edf	-0.021750866
78	0xbc74bb72	-0.014937269
79	0x3d876924	0.06611851
80	0x3db59559	0.088663764
81	0x3da92275	0.08258525
82	0xbdb8fa56	-0.09032123
83	0xbd8b4dc9	-0.06801946
84	0xbb5ae549	-0.0033400825
85	0xbd815cd5	-0.063165344
86	0xbdd8b8dc	-0.10582134
87	0xbc84ec28	-0.01622589
88	0x3e2e9ea8	0.1705271
89	0x3dea6bc3	0.11446335
90	0xbd9926c1	-0.07478095
91	0x3d9efe89	0.077633925
92	0x3d35b829	0.044365082
93	0xbd6e1755	-0.05812772
94	0xbe151acb	-0.14561002
95	0xbc8b5848	-0.01700987
96	0xbe80b3eb	-0.25137267
97	0x3ded2a4c	0.11580333
98	0xbce6bbf9	-0.028165804
99	0x3e34566c	0.17611092
100	0x3c7f755c	0.0155919455
101	0xbd8f9497	-0.07010763
102	0xbda83215	-0.082126774
103	0xbecb68a1	-0.39728263
104	0xbea62269	-0.32448128
105	0xbeb138fa	-0.34613782
106	0xbc89f0d7	-0.016838474
107	0xbe52f619	-0.20601691
108	0xbb7896b7	-0.003793163
109	0xbe4b4d30	-0.19853663
110	0xbecd1529	-0.40055206
111	0xbdcce592	-0.100047246
112	0x3df9fa94	0.12205997
113	0xbd325034	-0.04353352
114	0xbc29114a	-0.010319063
115	0xbe8c41ff	-0.273941
116	0xbd287db4	-0.041135505
117	0xbee05c24	-0.43820298
118	0x3dd6c15f	0.10486101
119	0xbcba2438	-0.022722349
120	0x3d1da324	0.03848566
121	0xbdad7f59	-0.08471555
122	0x3c37f491	0.011227743
123	0x3ba8e11f	0.0051537897
124	0xbeba3caf	-0.36374423
125	0x3e1558ba	0.14584628
126	0xbda911ed	-0.08255372
127	0xbde0af85	-0.10970978

lstm.weight_ih_l0_reverse f4 [128, 64]
0	0xbd552e8d	-0.052046347
1	0xbdedc152	-0.116091385
2	0xbd8d8a8f	-0.069111936
3	0x3c58084f	0.013185575
4	0x3dac82db	0.08423396
5	0x3d09cbca	0.033641614
6	0x3d1fc43a	0.039005496
7	0xbd27e286	-0.040987514
8	0xbdbdda7d	-0.09270189
9	0xbe34d372	-0.17658785
10	0xbe0d069e	-0.13772056
11	0xbe49c512	-0.19704083
12	0x3e408328	0.18800032
13	0xbe005dd8	-0.12535799
14	0xbd052076	-0.03250166
15	0xbcd2e2c4	-0.025742896
16	0x3b5f3f6f	0.003406491
17	0xbd2e8343	-0.04260565
18	0xbe184c39	-0.14872827
19	0x3db56a47	0.088581614
20	0xbde2dac7	-0.11076885
21	0x3debc11d	0.11511443
22	0x3dadd8dd	0.08488629
23	0x3d2051e7	0.03914061
24	0x3e62075a	0.22073117
25	0xbd9cf1a5	-0.076632775
26	0x3dac81ec	0.08423218
27	0xbd7b2cf6	-0.061322175
28	0x3e03274b	0.12807958
29	0xbd8899b8	-0.066699445
30	0xbccfe58b	-0.02537801
31	0xbcb08fce	-0.021552946
32	0x3d826d76	0.06368534
33	0x3e2b1647	0.16707717
34	0xbdffd3cb	-0.12491568
35	0x3e21c297	0.15796886
36	0x3e1b303e	0.15155122
37	0x3dece815	0.11567704
38	0x3c9efb20	0.019406855
39	0x3dcdc0c6	0.10046534
40	0xbda41757	-0.08012264
41	0xbe070130	-0.13184047
42	0x3e44c69c	0.19216388
43	0xbdfabff5	-0.12243644
44	0xbb2d21b6	-0.0026417798
45	0xbd29dfe8	-0.0414733
46	0x3c46693d	0.012110052
47	0x3c96a938	0.018391237
48	0x3d87a153	0.06622567
49	0xbd96d826	-0.07365446
50	0x3e2c4317	0.16822468
51	0x3da72ebf	0.08163213
52	0x3e38e6b3	0.18056755
53	0x3e31a18a	0.17346779
54	0x3d12c4a5	0.035832066
55	0x3d73f790	0.059562266
56	0x3e092d22	0.13396123
57	0xbe3be3c5	-0.18348606
58	0xbc311faf	-0.010810777
59	0xbe0e9f1d	-0.13927884
60	0xbdc84840	-0.097794056
61	0x3e03c22a	0.12867036
62	0xbd1bac6c	-0.03800623
63	0x3c30fef0	0.010802969
64	0xbe26a885	-0.16275223
65	0xbe776113	-0.24158125
66	0xbe24cee8	-0.16094553
67	0xbb17e7c8	-0.0023178924
68	0xbde21c52	-0.11040558
69	0x3cba2b31	0.022725673
70	0x3c1a024e	0.009399964
71	0xbd3bf402	-0.045887
72	0xbd86b815	-0.065780796
73	0x3ca65b70	0.020307273
74	0xbcd8c16b	-0.026459416
75	0xbe74d10f	-0.23907875
76	0xbe590433	-0.21193008
77	0x3d6cff60	0.057860732
78	0xbe6ea923	-0.23306708
79	0x3b6a0b83	0.0035712428
80	0xbce027d6	-0.027362745
81	0xbdfff605	-0.124980964
82	0x3d905bbb	0.07048746
83	0xbe3eb4b0	-0.18623614
84	0x3db55c6a	0.08855517
85	0xbda141f0	-0.07873905
86	0xbcf5df8c	-0.030013822
87	0xbdfc4969	-0.123186894
88	0xbe54ea0f	-0.20792411
89	0xbe33fc98	-0.17576826
90	0xbd7905f5	-0.060796697
91	0xbe564629	-0.20925201
92	0x3d122842	0.035682924
93	0x3dcafad6	0.099111244
94	0xbe1db618	-0.15401495
95	0x3dbaff58	0.09130734
96	0x3d5cb55a	0.053883888
97	0x3cbd631d	0.02311855
98	0xbde91bec	-0.11382279
99	0x3b13423f	0.0022469906
100	0x3d9daff2	0.076995745
101	0xbceec7d7	-0.029148025
102	0xbe70972e	-0.2349517
103	0x3e082bed	0.13298006
104	0x3e221b93	0.15830831
105	0xbdd70f2e	-0.10500942
106	0xbe084ae5	-0.1330982
107	0xbdb7fa13	-0.08983245
108	0xbe5ea99b	-0.21744387
109	0xbd5893f1	-0.052875463
110	0xbe2daafc	-0.16959757
111	0x3e27bc71	0.16380478
112	0x3ca6c3b1	0.020356985
113	0xbd6909d8	-0.056894153
114	0x3d86d1ea	0.06583007
115	0xbd1071e3	-0.03526486
116	0xbe42a011	-0.19006373
117	0xbe0be620	-0.13662004
118	0xbe0ae591	-0.13564135
119	0x3d9c300a	0.0762635
120	0xbd82d63b	-0.063885175
121	0xbd4dbee2	-0.05023087
122	0xbcca32e6	-0.024682473
123	0xbd77e287	-0.060518768
124	0x3e009c0c	0.12559527
125	0xbdbfda3f	-0.09367799
126	0x3e1c55cd	0.15267105
127	0xbdb69578	-0.08915228
128	0xbe16dff7	-0.14733873
129	0x3e61e92d	0.22061606
130	0x3d6e812a	0.05822865
131	0x3e566418	0.2093662
132	0x3dfe1246	0.12405829
133	0x3e4a11bc	0.19733328
134	0xbe2ee400	-0.17079163
135	0xbc5a263a	-0.013314778
136	0xbdc231de	-0.09482168
137	0x3ba125a0	0.0049178153
138	0x3d84df9d	0.06487963
139	0xbc8900be	-0.016723987
140	0x3d5ec7d5	0.054389793
141	0xbe3491c9	-0.17633738
142	0xbe021118	-0.12701833
143	0x3e2484cd	0.16066284
144	0x3e0cd46b	0.13752906
145	0x3d2e6ace	0.042582326
146	0x3d9327ae	0.07185303
147	0x3de4e839	0.111771055
148	0xbdef3227	-0.11679488
149	0xbe1abe1e	-0.15111586
150	0x3dbdb488	0.09262949
151	0x3d258462	0.040409453
152	0x3d687091	0.056747977
153	0xbd41468b	-0.047186416
154	0xbdd9c080	-0.106324196
155	0xbc63383c	-0.013868388
156	0xbdfb23a9	-0.12262661
157	0x3c9f8afe	0.019475456
158	0xbe02b4b6	-0.12764248
159	0x3d3ab9b6	0.045587264
160	0x3da08e33	0.07839622
161	0x3d19b413	0.037525248
162	0x3d22d562	0.03975428
163	0x3ca85d3a	0.020552266
164	0x3e124023	0.14282279
165	0x3cc26b46	0.023732793
166	0x3e372841	0.1788645
167	0x3e6bbddc	0.23021644
168	0x3d1411c7	0.036149766
169	0x3cb79f20	0.022414744
170	0xbd59a348	-0.053134233
171	0x3dba38a3	0.09092834
172	0x3b152562	0.0022757878
173	0xbcb850e9	-0.022499518
174	0xbdc98e80	-0.09841633
175	0x3e022c1f	0.12712143
176	0x3dc02499	0.093819804
177	0xbdccc142	-0.099977985
178	0x3d82815c	0.063723296
179	0x3e01540a	0.12629715
180	0x3e23543c	0.15950102
181	0x3d9aac80	0.07552433
182	0x3d1e8568	0.038701445
183	0x3bfe8f00	0.007768512
184	0xbd1bd764	-0.03804721
185	0x3e103610	0.14083123
186	0x3c4b0e4b	0.012393544
187	0x3e494d24	0.19658333
188	0xbdc475b4	-0.095927626
189	0x3c13dc3a	0.009024674
190	0x3dc33766	0.09532051
191	0xbcba7dd0	-0.02276507
192	0xbe44639d	-0.19178624
193	0xbe603836	-0.21896443
194	0x3d1314b2	0.03590841
195	0xbe3aa3ab	-0.18226497
196	0xbe04b917	-0.12961231
197	0x3cd52ef3	0.026023364
198	0xbdc6bb5a	-0.09703703
199	0xbe082c16	-0.13298067
200	0xbcbbc7b3	-0.022922372
201	0xbdd3f5af	-0.10349595
202	0xbdb2051f	-0.08692383
203	0xbde0d639	-0.1097836
204	0x3dcaadf0	0.09896457
205	0xbe1f5f42	-0.15563682
206	0xbd935b2c	-0.07195124
207	0xbe1464aa	-0.14491525
208	0xbe266b6c	-0.16251916
209	0x3d7a8f61	0.061171893
210	0xbe01432d	-0.12623282
211	0x3dd2306b	0.10263141
212	0xbd15a43c	-0.03653358
213	0x3d75997e	0.059960835
214	0xbe00df90	-0.12585282
215	0x3e23b823	0.15988211
216	0xbd794215	-0.060854036
217	0x3d92eb42	0.07173778
218	0xbd31a787	-0.043372657
219	0xbe617e19	-0.22020759
220	0x3d9905a9	0.07471783
221	0x3dfb8fe9	0.12283308
222	0x3d3fcaf4	0.04682441
223	0xbe27fda7	-0.16405354
224	0xbc81a789	-0.015826957
225	0xbd98e6b8	-0.07465881
226	0xbd83e68b	-0.06440457
227	0xbd612006	-0.05496218
228	0xbe1e666e	-0.15468761
229	0xbb842f84	-0.0040339846
230	0xbe347937	-0.17624365
231	0xbe2b6f0a	-0.16741577
232	0x3cb52add	0.022115165
233	0x3d9e2546	0.07721953
234	0xbe788fa6	-0.24273548
235	0xbdcd26da	-0.10017176
236	0xbdfa7dd8	-0.12231034
237	0xbe803334	-0.25039065
238	0x3d269fc2	0.0406797
239	0xbe1d0531	-0.15334012
240	0xbe4530d0	-0.19256902
241	0x3daa1f95	0.08306805
242	0x3db86ece	0.09005509
243	0xbd1a3dd5	-0.037656624
244	0x3db4fda8	0.088374436
245	0xbe374d19	-0.17900504
246	0xbe472740	-0.19448566
247	0x3cd4fcf8	0.025999531
248	0xbe19db6d	-0.1502511
249	0xbd63f6a6	-0.055655144
250	0xbdb5c4fc	-0.088754624
251	0xbcaca09d	-0.02107268
252	0xbe406d62	-0.18791726
253	0xbe7017be	-0.23446557
254	0x3d1a823c	0.037721857
255	0xbdd988e1	-0.10621811
