saved_models/Complete_OHLCAG_Hybrid_Model_1h.pth (torch, 194800 bytes, 17 tensors)

conv1d_1.weight f4 [64, 6, 3]
-0.009238588 -0.052619327 -0.10036244 0.21558873 -0.21270478 0.080539815 -0.022859676 -0.1504486
0.16641848 0.15257277 -0.001507509 0.2422334 0.17723356 0.15222955 0.37503812 0.16307019
-0.09509719 0.25840992 0.23671265 -0.21254419 0.0030099696 0.1433052 0.19364493 0.08112619
0.12513095 0.19843458 0.23068088 0.05991693 0.0712203 0.2500317 -0.10709339 0.2463772
0.09056172 0.04939922 -0.09008193 0.14663258 -0.09022306 -0.08996211 -0.22478324 0.013960406
-0.15572864 -0.1806961 0.17643215 0.044364944 0.0879031 -0.050615862 0.2171819 -0.090222046
0.002693832 0.10515882 0.14980833 0.23521431 -0.17076813 0.08764504 -0.20975229 0.12937827
-0.17519599 -0.2341201 -0.16408195 -0.14221881 -0.10452319 0.0600963 0.13954468 -0.038651574
-0.15500751 -0.034500428 -0.2505943 -0.26507372 -0.22341864 0.16191271 0.0974428 -0.2347492
-0.0070042163 -0.08439058 0.15844454 -0.10990156 0.1316099 -0.04716544 -0.22556774 -0.13068408
-0.05651842 0.03818883 -0.099184066 0.025229648 -0.07440375 0.23264049 0.17381568 0.08043872
-0.049235806 -0.12128604 0.20187925 0.09723747 -0.20350334 0.013545794 -0.15346813 -0.08018422
0.17881505 -0.06031967 0.16787726 0.079117574 0.06987047 -0.013713799 0.1768526 0.27490324
0.20408833 0.18905537 -0.2032381 0.19301945 -0.12880853 -0.058746483 0.06022859 0.08943458
0.10630898 0.085711464 -0.12806052 0.181132 -0.18092747 -0.15973844 -0.080186754 -0.0773296
-0.16065146 -0.23797685 0.34532562 0.06226351 0.17666492 -0.08374287 -0.037820444 -0.107000515
0.0051805526 0.11613925 -0.1998487 0.006528273 0.17752992 -0.21739918 -0.048409924 0.23161103
0.0439644 -0.1411328 -0.0026660115 0.22073342 0.19861169 -0.053515702 -0.23555696 -0.19577636
0.0030562133 0.097983345 0.19689564 -0.14135069 -0.16949466 0.16787063 -0.08555074 0.09623714
-0.066183254 -0.06545521 -0.032956555 -0.15432018 0.023391828 -0.17537478 0.09084813 -0.06712526
-0.17217204 -0.19666998 -0.016081436 -0.14973013 -0.020075466 0.065305 -0.18015236 -0.3021481
0.1452833 -0.06513578 -0.024839759 -0.09288242 -0.04402276 0.014532303 0.10579744 -0.09997433
-0.19248459 0.057774734 0.15084487 0.18967918 0.02788022 0.13677624 -0.06499298 0.13558157
0.19662777 0.23903461 -0.19162005 -0.0037811722 -0.03842525 -0.14572267 0.05489746 0.15036559
0.08163739 -0.112801224 0.0035916846 -0.003605126 -0.027357506 -0.03738695 -0.04915414 0.11334079
-0.0037591155 -0.13098013 0.027593128 -0.174658 -0.07423425 -0.01838181 0.08796294 -0.047049966
0.022025844 -0.040042102 -0.17557749 -0.062077925 -0.32787228 0.054915383 0.23068994 0.20333315
0.19572124 -0.0884442 -0.10723346 0.22311567 0.08301087 -0.13603768 0.06327316 0.15129001
0.11175744 0.07301731 0.17247714 0.17846271 -0.12421288 0.29289374 0.37033135 -0.18330061
0.096702166 -0.10760398 -0.09959401 0.11009364 -0.16507289 0.23242174 -0.23051006 -0.074557304
0.20761885 -0.18490426 -0.09156962 0.013136268 0.0126823485 0.1936328 0.17719181 0.18920757
0.06383686 -0.01616314 0.19653587 -0.102627665 -0.004711639 -0.11223868 -0.03833764 0.18106584
00000000: 725d 17bc 5d87 57bd d38a cdbd 4bc3 5c3e
00000010: 48cf 59be 0ff2 a43d 3744 bbbc 330f 1abe
00000020: 9b69 2a3e 093c 1c3e 9c97 c5ba 080c 783e
00000030: b77c 353e 10e2 1b3e ff04 c03e dffb 263e
00000040: 51c2 c2bd 4e4e 843e cd64 723e 2fa5 59be
00000050: e942 453b 99be 123e db4a 463e 7d25 a63d
00000060: 5422 003e 6f32 4b3e 9c37 6c3e 746b 753d
00000070: f3db 913d 2804 803e c753 dbbd 4e4a 7c3e
00000080: 6c78 b93d d656 4a3d e07c b8bd da26 163e
00000090: dec6 b8bd 0e3e b8bd 942d 66be 30ba 643c
000000a0: 5477 1fbe 6608 39be a1aa 343e 04b8 353d
000000b0: 8a06 b43d 9452 4fbd ef64 5e3e 56c6 b8bd
000000c0: 008b 303b 825d d73d 5b67 193e 05dc 703e
000000d0: d7dd 2ebe 3e7f b33d 4ec9 56be bd7b 043e
000000e0: 9466 33be 2ebd 6fbe 1905 28be cfa1 11be
000000f0: 4110 d6bd 8a27 763d cde4 0e3e 1d51 1ebd
00000100: 4aba 1ebe 5250 0dbd e54d 80be beb7 87be
00000110: dbc7 64be 72cc 253e 1790 c73d 1862 70be
00000120: a083 e5bb f8d4 acbd 493f 223e 1214 e1bd
00000130: bfc4 063e 8c30 41bd 3bfb 66be 0cd2 05be
00000140: dc7f 67bd e46b 1c3d 0421 cbbd 68ae ce3c
00000150: fe60 98bd 4f39 6e3e bdfc 313e 0ebd a43d
00000160: 7cab 49bd d164 f8bd 6fb9 4e3e 7024 c73d
00000170: 2e63 50be 2eef 5d3c c026 1dbe a037 a4bd
00000180: 4b1b 373e c211 77bd 04e8 2b3e 6508 a23d
00000190: 4018 8f3d d8af 60bc d918 353e 1ec0 8c3e
000001a0: 88fc 503e bb97 413e a61d 50be e4a6 453e
000001b0: 62e6 03be 27a0 70bd 41b2 763d 7a29 b73d
000001c0: 86b8 d93d 7e89 af3d 4c22 03be ab7a 393e
000001d0: 0d45 39be 7992 23be f438 a4bd fb5e 9ebd
000001e0: d181 24be 34b0 73be 85ce b03e 0608 7f3d
000001f0: a6e7 343e 6281 abbd 9ce9 1abd 1623 dbbd
00000200: a0c1 a93b 6ada ed3d 23a5 4cbe 20eb d53b
00000210: 67ca 353e e49d 5ebe 7c49 46bd 712b 6d3e
00000220: 0414 343d 1e85 10be 40b8 2ebb f107 623e
00000230: dd60 4b3e 4833 5bbd d835 71be 9979 48be
00000240: c04a 483b 7eab c83d 039f 493e 3cbe 10be
00000250: 0290 2dbe 47e6 2b3e 3a35 afbd fa17 c53d
00000260: 168b 87bd 620d 86bd 74fd 06bd 1c06 1ebe
00000270: 38a0 bf3c 7295 33be 960e ba3d f878 89bd
00000280: de4d 30be db63 49be 37bd 83bc db52 19be
00000290: 4e75 a4bc a1be 853d dc79 38be 28b3 9abe
000002a0: 25c5 143e e865 85bd c07c cbbc 2339 bebd
000002b0: 3651 34bd e618 6e3c 54ac d83d 57bf ccbd
000002c0: ae1a 45be 33a5 6c3d 1477 1a3e 423b 423e
000002d0: 0f65 e43c 120f 0c3e 0a1b 85bd e5d5 0a3e
000002e0: ca58 493e 7dc5 743e 0c38 44be 8bcd 77bb
000002f0: cc63 1dbd 5338 15be 29dc 603d 70f9 193e
00000300: 8131 a73d 5404 e7bd 7862 6b3b fa43 6cbb
00000310: d91c e0bc 0f23 19bd da55 49bd 371f e83d
00000320: 7e5b 76bb a81f 06be fc0a e23c 8cd9 32be
00000330: 2008 98bd 7395 96bc ea25 b43d 77b7 40bd
00000340: 8b6f b43c 3003 24bd 96ca 33be 6c45 7ebd
00000350: e0de a7be f4ee 603d fc39 6c3e 9136 503e
00000360: 266b 483e 3c22 b5bd 379d dbbd 6f78 643e
00000370: 9a01 aa3d 764d 0bbe 5c95 813d c5eb 1a3e
00000380: 16e1 e43d 198a 953d d99d 303e eebe 363e
00000390: 5363 febd 2bf6 953e 129c bd3e 28b3 3bbe
000003a0: c90b c63d 7a5f dcbd f2f7 cbbd c678 e13d
000003b0: de08 29be f7ff 6d3e d40a 6cbe 80b1 98bd
000003c0: 099a 543e 8b57 3dbe da88 bbbd 8039 573c
000003d0: a0c9 4f3c ad47 463e c571 353e a1bf 413e
000003e0: e6bc 823d 9068 84bc b340 493e 742e d2bd
000003f0: 1864 9abb 65dd e5bd ee07 1dbd 5369 393e

conv1d_1.bias f4 [64]
0.07316468 5.3138683e-06 -0.19011053 0.12205135 -0.19000411 -0.011734538 0.10845244 -0.216243
-0.16782768 0.23371117 -0.095130116 0.1840057 0.09668749 -0.04207939 -0.021358764 0.07089582
0.20426221 -0.17953035 -0.10153991 0.10853777 0.16268407 -0.10260615 -0.10562605 0.06384237
0.05871355 0.0052486057 -0.16140854 0.10225639 -0.11427826 -0.1664483 -0.086582944 0.09065442
-0.19189712 0.016452575 0.022117982 -0.23348932 -0.0067799804 -0.1905101 -0.08678748 0.052960288
-0.077973664 -0.027549103 0.034792457 0.17450087 0.028350929 0.2140485 0.03900682 0.020944731
-0.11394555 -0.13691539 -0.03145362 -0.1670163 -0.00026349546 0.052069526 -0.059194557 -0.14649697
-0.06260057 0.115610205 -0.1469413 -0.06533818 -0.09390227 0.039901506 -0.18739004 -0.08003521
00000000: 5dd7 953d c84d b236 56ac 42be 0ff6 f93d
00000010: 7090 42be 3842 40bc 501c de3d ce6e 5dbe
00000020: 05db 2bbe fb51 6f3e 94d3 c2bd fd6b 3c3e
00000030: 1704 c63d 705b 2cbd 93f8 aebc d431 913d
00000040: 1d2a 513e ced6 37be 28f4 cfbd 0d49 de3d
00000050: a796 263e 2c23 d2bd 7852 d8bd cabf 823d
00000060: 9f7d 703d 7ffc ab3b 4848 25be cc6b d13d
00000070: b80a eabd 6c71 2abe 6652 b1bd 06a9 b93d
00000080: ae80 44be 8dc7 863c c530 b53c d317 6fbe
00000090: 992a debb 1415 43be a2bd b1bd e3ec 583d
000000a0: a8b0 9fbd a8ae e1bc 8982 0e3d 5bb0 323e
000000b0: 3540 e83c 882f 5b3e 9ec5 1f3d 4994 ab3c
000000c0: 495c e9bd 8c33 0cbe 83d5 00bd 5206 2bbe
000000d0: c325 8ab9 db46 553d fe75 72bd 4d03 16be
000000e0: ba34 80bd 0bc5 ec3d c877 16be 06d0 85bd
000000f0: d54f c0bd c36f 233d 2de3 3fbe 80e9 a3bd

conv1d_2.weight f4 [64, 64, 3]
-0.039460324 0.09846907 0.055014815 0.0206352 -0.044510644 0.00017906111 -0.07015826 -0.03991292
0.04175374 0.08405083 0.055559598 0.025354456 0.01915776 -0.033224802 0.06506251 0.0013236603
0.059150722 -0.003764073 0.016478648 0.10137116 0.0344927 -0.028153729 0.05020176 0.053512424
-0.037651412 -0.054214347 -0.061031044 0.115048625 0.09805356 0.07537155 -0.052381348 0.03593439
-0.0050820187 0.060926236 0.06791892 -0.013007846 -0.005757087 -0.041730396 0.015108541 0.03521154
-0.025306892 0.037480988 -0.012288872 0.037130713 0.049425527 -0.03278221 0.08151923 -0.023414895
0.06938636 -0.016665358 -0.007692799 0.0023456141 0.00724636 -0.060090393 -0.041755483 0.0023367628
0.0416859 -0.008376855 0.010622557 -0.0063243606 0.02169692 -0.026941866 0.094692886 0.039511256
0.043530256 0.011626619 0.03658335 -0.030185029 -0.07045746 0.10420524 0.017807607 0.029928576
0.019857869 0.13218707 0.12915112 0.011558421 0.051474527 0.07253058 -0.048105188 0.04050342
0.04556296 0.23442686 0.19373667 0.16201046 -0.061759707 0.056058884 -0.06480351 -0.062289078
-0.01672652 0.0563989 0.012328689 0.06950706 -0.0061558853 -0.02850624 -0.022532018 -0.03539887
0.0074114352 0.029348962 0.010655686 0.11840463 -0.057596717 -0.0642151 -0.0054318807 0.00027662364
0.08632044 0.013679899 0.0042353347 0.06006944 -0.07444382 -0.04904964 -0.10503979 0.09940589
-0.09026443 -0.0044280235 -0.05413154 0.07180183 0.0006721467 -0.037012026 0.084252015 0.09361809
0.041165717 -0.013064958 -0.00261461 0.059381727 0.0584624 -0.03636851 -0.011246967 -0.041681044
-0.070378885 -0.029898204 0.0024438137 -0.011473406 -0.040458854 0.022539645 -0.050089583 0.14626987
0.058024 -0.0024895535 -0.01175219 0.004321655 0.031575512 -0.020875696 0.16312663 0.14235099
-0.0044800416 -0.02174678 0.012158863 -0.031106364 -0.039660934 -0.030522764 -0.004671211 -0.05963519
0.009531314 0.053349882 -0.0299769 -0.044946358 0.018017357 0.10569153 0.06957223 0.02278462
0.07823373 0.035930175 -0.039993256 0.045358695 -0.041597944 0.06720352 0.037029065 -0.008609273
-0.03504603 0.03575907 0.06931575 0.16081935 0.16537707 0.16198348 -0.071668595 0.048212446
0.05697605 -0.0036119893 -0.0053192675 0.05611086 -0.033939473 -0.059125073 -0.023063865 0.010823777
0.08440636 -0.025214978 0.11166334 0.0270139 -0.090914145 0.06868882 -0.02258912 -0.041111212
-0.0071179867 0.031393014 0.056403622 -0.031567365 0.039311416 0.015997075 -0.034090396 0.009579055
0.025689118 -0.027155329 0.06907289 -0.05067275 0.060967043 -0.06077428 -0.06533232 -0.04171636
-0.026667442 0.030325882 -0.063826516 -0.0719842 0.013609469 -0.06797108 0.04732027 -0.067583226
0.017719857 0.0036969334 0.010388613 0.006847143 0.039313696 0.033925794 0.041027695 -0.028383821
0.057927206 0.0053158626 0.045016773 -0.043848544 0.0019372255 -0.036336284 -0.05798049 -0.02948584
-0.0027829185 0.022715203 -0.054499783 0.055556938 -0.065172456 -0.01880068 -0.003704086 0.0029824898
-0.050301824 0.03713624 0.071468204 -0.05714477 -0.0038460642 0.005366951 0.016326264 0.026870005
0.0033916906 -0.030118149 0.06822759 -0.04179587 0.048331074 0.04658538 -0.032510016 -0.044717968
00000000: 26a1 21bd 27aa c93d 3757 613d 270b a93c
00000010: cb50 36bd 5ac2 3b39 22af 8fbd bb7b 23bd
00000020: f805 2b3d d722 ac3d 7692 633d 26b4 cf3c
00000030: bcf0 9c3c bb16 08bd 7e3f 853d ab7e ad3a
00000040: 0748 723d aaae 76bb 3bfe 863c af9b cf3d
00000050: 3848 0d3d a6a2 e6bc 5ca0 4d3d d82f 5b3d
00000060: 5e38 1abd dd0f 5ebd b0fb 79bd 9d9e eb3d
00000070: 4ed0 c83d 665c 9a3d d38d 56bd f02f 133d
00000080: 1087 a6bb ca8d 793d 1319 8b3d dc1e 55bc
00000090: f2a5 bcbb 7eed 2abd d089 773c fa39 103d
000000a0: 6650 cfbc aa85 193d 4457 49bc 6016 183d
000000b0: 6c72 4a3d a346 06bd 8ef3 a63d 98d0 bfbc
000000c0: 701a 8e3d ca85 88bc e013 fcbb e0b8 193b
000000d0: e072 ed3b 5821 76bd cc07 2bbd 6024 193b
000000e0: d6be 2a3d 143f 09bc 3c0a 2e3c 953c cfbb
000000f0: bdbd b13c 30b5 dcbc 58ee c13d 8ed6 213d
00000100: c84c 323d 937d 3e3c 6cd8 153d 9846 f7bc
00000110: 004c 90bd 8f69 d53d 42e1 913c c62c f53c
00000120: f8ac a23c 0c5c 073e 3140 043e 885f 3d3c
00000130: f4d6 523d ea8a 943d f209 45bd eae6 253d
00000140: 3aa0 3a3d 980d 703e e862 463e 12e6 253e
00000150: bff7 7cbd 009e 653d b4b7 84bd d522 7fbd
00000160: 0e06 89bc 8802 673d 45fe 493c b859 8e3d
00000170: 4fb7 c9bb eb85 e9bc 1195 b8bc 68fe 10bd
00000180: a0db f23b 3c6d f03c 3095 2e3c 207e f23d
00000190: 89ea 6bbd 3583 83bd ebfd b1bb cc07 9139
000001a0: c5c8 b03d a821 603c 90c8 8a3b 600b 763d
000001b0: 0076 98bd 46e8 48bd 1a1f d7bd 5195 cb3d
000001c0: 8fdc b8bd f418 91bb 09b9 5dbd d60c 933d
000001d0: 0033 303a ec99 17bd 528c ac3d d7ba bf3d
000001e0: 629d 283d 680e 56bc e059 2bbb 413a 733d
000001f0: 4576 6f3d 26f7 14bd 3345 38bc beb9 2abd
00000200: ce22 90bd 14ed f4bc 6428 203b f4fa 3bbc
00000210: 2fb8 25bd 10a5 b83c bc2a 4dbd c5c7 153e
00000220: 93aa 6d3d c727 23bb 428c 40bc ab9c 8d3b
00000230: 5355 013d 8203 abbc ab0a 273e 75c4 113e
00000240: 50cd 92bb 4e26 b2bc f835 473c c6d2 febc
00000250: 8173 22bd e00a fabc f510 99bb 0744 74bd
00000260: 3a29 1c3c 6885 5a3d 1e92 f5bc ac19 38bd
00000270: 2399 933c cd74 d83d e37b 8e3d d0a6 ba3c
00000280: 0139 a03d 852b 133d f8cf 23bd 0aca 393d
00000290: 9b62 2abd 00a2 893d caab 173d e80d 0dbc
000002a0: 6d8c 0fbd 1a78 123d 6af5 8d3d d4ad 243e
000002b0: 9b58 293e ffde 253e fcc6 92bd 6a7a 453d
000002c0: b85f 693d 20b7 6cbb 404d aebb 80d4 653d
000002d0: 1e04 0bbd 222d 72bd 6ef0 bcbc 3656 313c
000002e0: 3edd ac3d a48f cebc c0af e43d 414c dd3c
000002f0: 3231 babd b9ac 8c3d d10c b9bc 3b64 28bd
00000300: 003e e9bb f695 003d 7c07 673d c84c 01bd
00000310: 0205 213d 4c0c 833c 5fa2 0bbd 78f1 1c3c
00000320: fc71 d23c da74 debc 1676 8d3d 3b8e 4fbd
00000330: 94b8 793d 74ee 78bd f4cc 85bd c6de 2abd
00000340: ae75 dabc fc6d f83c 7ab7 82bd 746c 93bd
00000350: 40fa 5e3c 6c34 8bbd e6d2 413d 1369 8abd
00000360: 3c29 913c 4048 723b 0035 2a3c 005e e03b
00000370: 6607 213d c6f5 0a3d a80c 283d 3085 e8bc
00000380: 1445 6d3d b030 ae3b 8263 383d 889a 33bd
00000390: 80ea fd3a 5bd5 14bd f37c 6dbd 4a8c f1bc
000003a0: a061 36bb 3c15 ba3c 2a3b 5fbd ac8f 633d
000003b0: 2379 85bd e203 9abc 40c0 72bb e075 433b
000003c0: 4909 4ebd 2c1c 183d ec5d 923d a210 6abd
000003d0: 400e 7cbb 40dd af3b a8be 853c 7c1e dc3c
000003e0: 2047 5e3b 56ba f6bc e8ba 8b3d 2532 2bbd
000003f0: cef6 453d 50d0 3e3d 3929 05bd 302a 37bd

conv1d_2.bias f4 [64]
0.0719254 -0.052501522 0.07209324 0.05667839 -0.06508353 0.05194956 -0.015092272 0.046428382
0.061463628 0.012420004 -0.0435846 -0.042549457 -0.075501226 -0.045107186 -0.0040283157 0.05322274
-0.04309541 -0.027970292 -0.04405884 -0.0293552 0.0053654453 0.04426974 0.008266531 -0.07182205
-0.041006174 -0.025662798 -0.0006192198 0.025119087 0.075225525 -0.03190164 -0.006615497 0.043474615
-0.019266209 0.0009983613 -0.056780074 -0.03432227 -0.008262379 -0.05768426 0.07128953 -0.025514616
-0.05794137 0.03411292 -0.0023719722 0.053370353 0.03603715 0.0019302974 -0.005821425 -0.047800556
-0.041918706 0.01473376 -0.011679953 -0.0036134368 -0.028971637 0.050925944 0.056316115 0.019263688
-0.043337673 0.006709419 -0.041580494 0.027950516 -0.000976726 0.06307031 -0.03612789 0.03447853
00000000: a04d 933d d60b 57bd 9fa5 933d 9927 683d
00000010: 844a 85bd 10c9 543d 9445 77bc b02b 3e3d
00000020: 49c1 7b3d 467d 4b3c c485 32bd 5748 2ebd
00000030: 63a0 9abd 50c2 38bd f6ff 83bb 1600 5a3d
00000040: d084 30bd f421 e5bc 0b77 34bd 517a f0bc
00000050: 9ed0 af3b 3054 353d 5870 073c 7017 93bd
00000060: 17f6 27bd ca3a d2bc 2353 22ba 8bc6 cd3c
00000070: d70f 9a3d 4bab 02bd d0c6 d8bb 7012 323d
00000080: 2bd4 9dbc 72db 823a 3992 68bd 8295 0cbd
00000090: ee5e 07bc 5546 6cbd 3f00 923d 0704 d1bc
000000a0: ee53 6dbd fdb9 0b3d 1773 1bbb df9a 5a3d
000000b0: b19b 133d 0802 fd3a a7c1 bebb 84ca 43bd
000000c0: f3b2 2bbd de65 713c 465d 3fbc 69cf 6cbb
000000d0: ed55 edbc b997 503d baab 663d e2ce 9d3c
000000e0: d882 31bd b0da db3b 4f50 2abd 7bf8 e43c
000000f0: 7c05 80ba 022b 813d d7fa 13bd 5c39 0d3d

lstm.weight_ih_l0 f4 [128, 64]
0.048622154 -0.098598085 -0.20898652 -0.12507787 -0.16432741 0.045870464 -0.12092225 -0.23595433
0.0431471 -0.1423182 0.08044647 0.041702494 -0.15302196 -0.15609331 -0.11196835 -0.024858227
-0.12820974 0.060042486 0.1293743 0.02543967 -0.1729913 -0.099385954 0.10418018 0.053748623
0.06548719 0.14829795 -0.024657562 0.028059497 -0.14470018 0.08973183 -0.116444886 0.08160682
-0.04309402 -0.104848035 0.17725028 0.11194715 -0.08890507 -0.13282862 -0.025505954 -0.049122024
0.16743334 -0.15024552 -0.03398116 -0.17622249 -0.09467625 -0.028937865 -0.15298599 0.14443366
0.12104464 0.03741318 0.13194332 0.059728675 0.122708365 0.06277298 -0.094506614 -0.033365693
-0.09381015 -0.14707254 0.13363768 -0.0025229298 0.007866494 -0.103769675 0.12863328 0.10649698
-0.13635989 0.0782779 -0.15256654 -0.22666703 0.026006982 -0.1872259 -0.16720742 0.0022717093
0.060752373 0.016870473 -0.105922446 0.068454035 0.07656653 -0.062280267 0.0009866204 -0.0678351
-0.18470186 0.08020024 -0.14582406 -0.21551777 -0.021360165 0.048568837 0.019304946 -0.10203283
0.020369781 0.09352331 -0.21250725 0.039470613 -0.051067512 -0.008567882 -0.14851587 0.13051777
-0.1049221 -0.13910046 -0.090251066 -0.04323258 -0.135717 0.06304376 0.0497862 -0.11648927
0.14783265 0.11229537 -0.06484157 -0.046308354 -0.053124737 -0.15825336 -0.106009714 -0.03383935
0.18618433 0.07824043 -0.034966677 -0.17946926 -0.115767926 0.04905866 -0.04190978 -0.09105012
-0.22303167 0.07996605 0.05056786 0.11931108 -0.25131357 0.08195082 -0.13550176 -0.032861862
0.10807239 0.099087104 0.22812021 -0.08583564 -0.041214854 -0.20872405 -0.035936028 0.014846208
0.12674779 0.07990753 -0.11544317 0.03502724 -0.15040386 0.0038146675 -0.096941926 -0.18452261
0.16802302 0.06352341 0.17144161 0.07918756 -0.16999027 0.087842256 -0.009781935 0.107417084
-0.045999985 -0.12010819 0.04134558 0.072551146 0.11775636 -0.013728491 -0.010182185 -0.050465625
-0.117196634 -0.1673721 -0.03799978 -0.015519467 0.03761645 -0.02634024 0.0095977355 -0.011704407
-0.07663024 -0.16172491 -0.0029488883 0.13228309 0.15801981 -0.08175102 -0.06234359 0.053982113
0.09444365 -0.04393903 -0.06350939 -0.1433296 0.17637514 -0.058377735 -0.039236557 0.030659398
-0.06951861 -0.068755165 -0.036240008 -0.011020246 0.025361398 -0.11425321 0.10249339 0.14278074
-0.1651154 -0.093181096 0.1133892 0.03200311 0.13123132 0.0089079635 0.07371412 -0.23075823
0.033626013 -0.1710823 0.013153911 0.14592084 0.12405431 0.15836479 -0.048146743 0.17208593
0.1399959 -0.09957857 0.15101679 -0.109477505 0.1136274 0.11724955 -0.023096245 0.15422831
0.043420114 -0.07691085 -0.09909056 -0.15090035 0.09941743 0.13417724 -0.041873302 0.1280498
0.012091305 -0.044271998 -0.065302216 0.0063384683 0.042941824 0.0790954 0.1492173 -0.07106615
-0.04100521 0.11053145 0.0065228036 -0.009537191 -0.07171048 0.017461954 0.16823715 -0.025535285
-0.10550006 -0.24427818 -0.19287458 -0.09184092 -0.15234376 -0.12951845 0.11267718 -0.120567344
-0.120025665 -0.101393975 -0.15409106 -0.069563486 0.09098791 -0.116679356 0.09874005 0.15110002
00000000: 0628 473d cbed c9bd 9000 56be 6a14 00be
00000010: 7245 28be abe2 3b3d 16a6 f7bd 039e 71be
00000020: 03bb 303d ddbb 11be 1ec1 a43d 3cd0 2a3d
00000030: cab1 1cbe edd6 1fbe aa4f e5bd 7ba3 cbbc
00000040: 6a49 03be 1cef 753d b27a 043e db66 d03c
00000050: a224 31be dd8a cbbd 6b5c d53d 8427 5c3d
00000060: 261e 863d 6bdb 173e a8fe c9bc 08dd e53c
00000070: 492c 14be 52c5 b73d a87a eebd 7a21 a73d
00000080: 5b83 30bd 91ba d6bd 1981 353e 8c44 e53d
00000090: dd13 b6bd 3a04 08be ddf1 d0bc 2d34 49bd
000000a0: a573 2b3e f6d9 19be d42f 0bbd ab73 34be
000000b0: 9fe5 c1bd 1a0f edbc 5ca8 1cbe 6be6 133e
000000c0: 41e6 f73d 903e 193d 261c 073e 0ea6 743d
000000d0: 864e fb3d 1f8f 803d af8c c1bd 77aa 08bd
000000e0: 891f c0bd 2f9a 16be 51d8 083e bd57 25bb
000000f0: 78e2 003c 3285 d4bd 71b8 033e 171b da3d
00000100: eda1 0bbe 2a50 a03d 673a 1cbe 671b 68be
00000110: 980c d53c 25b8 3fbe 6c38 2bbe f5e0 143b
00000120: 7bd7 783d f233 8a3c deed d8bd a131 8c3d
00000130: eace 9c3d 9819 7fbd 7d51 813a 21ed 8abd
00000140: 7c22 3dbe 0640 a43d e752 15be b1b0 5cbe
00000150: 83fb aebc 1ef0 463d 6825 9e3c 97f6 d0bd
00000160: 87de a63c 2689 bf3d 809b 59be f0ab 213d
00000170: 2b2c 51bd 4d60 0cbc 8b14 18be 73a6 053e
00000180: 66e1 d6bd 5a70 0ebe 8dd5 b8bd a514 31bd
00000190: 66f9 0abe 161d 813d 9dec 4b3d ed91 eebd
000001a0: 7161 173e 1dfb e53d a8cb 84bd d4ad 3dbd
000001b0: 5399 59bd 2b0d 22be 9f1b d9bd 219b 0abd
000001c0: 1ba7 3e3e 853c a03d 3839 0fbd cac6 37be
000001d0: bc17 edbd bcf1 483d 97a9 2bbd 7c78 babd
000001e0: 6a62 64be 3ec5 a33d 3f20 4f3d 5e59 f43d
000001f0: 2cac 80be d5d5 a73d f9c0 0abe 299a 06bd
00000200: 0f55 dd3d 2eee ca3d 5898 693e 99ca afbd
00000210: e8d0 28bd c2bb 55be a831 13bd 823d 733c
00000220: 2cca 013e 8fa6 a33d 786d ecbd b978 0f3d
00000230: 7803 1abe 80ff 793b 7d89 c6bd 7ff3 3cbe
00000240: 3a0e 2c3e 9018 823d 648e 2f3e 162d a23d
00000250: ee11 2ebe a4e6 b33d 6944 20bc 7dfd db3d
00000260: 7b6a 3cbd 48fb f5bd fc59 293d b295 943d
00000270: 3f2a f13d 77ed 60bc 2ed3 26bc 0bb5 4ebd
00000280: ca04 f0bd 9763 2bbe a8a5 1bbd 5d45 7ebc
00000290: b513 1a3d 7dc7 d7bc d23f 1d3c d7c3 3fbc
000002a0: 51f0 9cbd 379b 25be 2342 41bb 3875 073e
000002b0: f2cf 213e 146d a7bd fe5b 7fbd 591c 5d3d
000002c0: ac6b c13d 6af9 33bd 3611 82bd ffc4 12be
000002d0: af9b 343e 7e1d 6fbd 83b6 20bd 6b29 fb3c
000002e0: c65f 8ebd 82cf 8cbd 6770 14bd 438e 34bc
000002f0: b5c2 cf3c 96fd e9bd 0ee8 d13d 1d35 123e
00000300: 0314 29be bbd5 bebd 9938 e83d b115 033d
00000310: 8161 063e b5f2 113c 6ef7 963d e34b 6cbe
00000320: 6ebb 093d 3330 2fbe 8083 573c 466c 153e
00000330: 3010 fe3d 612a 223e 8535 45bd 4b37 303e
00000340: 165b 0f3e d9ef cbbd 25a4 1a3e be35 e0bd
00000350: 7bb5 e83d 8820 f03d 5634 bdbc 07ee 1d3e
00000360: 4ad9 313d 7083 9dbd feef cabd 9f85 1abe
00000370: 5e9b cb3d c265 093e 5783 2bbd 7d1f 033e
00000380: 9c1a 463c 8e56 35bd 2bbd 85bd edb2 cf3b
00000390: c4e3 2f3d c5fc a13d 6bcc 183e 218b 91bd
000003a0: 14f5 27bd 505e e23d 3ebd d53b e141 1cbc
000003b0: f2dc 92bd 5f0c 8f3c 5c46 2c3e 602f d1bc
000003c0: 6a10 d8bd 0f24 7abe ea80 45be 1817 bcbd
000003d0: 0100 1cbe 7ca0 04be 4bc3 e63d 03ec f6bd
000003e0: 04d0 f5bd a5a7 cfbd 0cca 1dbe 4d77 8ebd
000003f0: df57 ba3d 96f5 eebd 3938 ca3d f7b9 1a3e

lstm.weight_hh_l0 f4 [128, 32]
0.01863262 -0.10993412 -0.1581082 0.10663413 -0.13706113 0.049329948 0.18649778 -0.09568441
0.09407258 -0.09864085 0.049452364 0.09423887 -0.037037555 0.09661339 0.01095797 0.11914004
0.07991218 0.07259385 -0.006447251 0.13700132 -0.047764327 -0.037312195 0.06540738 0.010532373
-0.092281125 0.08275827 0.004771841 0.062469356 0.1509707 0.06294259 -0.0064271176 0.13933402
-0.13021713 0.083758265 0.153891 0.07353178 -0.061020866 -0.2172675 -0.059486784 -0.08734815
-0.1870282 0.08608229 0.021337386 0.08308566 -0.06938967 0.008007095 -0.07561737 -0.12505625
0.103645116 0.22663684 0.033336665 0.18006557 0.13088469 -0.00033269025 0.109576456 -0.06337239
-0.08626318 -0.06021366 0.22240762 -0.039647542 -0.10131449 0.112977795 -0.095011935 0.01887013
-0.024307836 -0.16037326 0.09420485 0.16039395 0.07698125 -0.16615604 -0.006989335 0.053178538
-0.039234947 -0.10831445 -0.007849169 -0.17057708 0.047542535 -0.043717515 -0.14094332 -0.14761727
-0.0043261563 -0.040855464 0.06487107 -0.01145797 0.20168154 -0.1981022 -0.008777449 -0.18807478
-0.21381176 -0.0834972 0.099675015 -0.08889153 0.111754484 0.045962043 0.053158946 0.09355325
0.15424505 0.06870988 0.06313969 0.11529341 0.06768946 0.0618392 -0.036422182 -0.0374329
-0.07555133 -0.040612776 0.059077863 0.13449635 -0.13345717 0.090377636 -0.1008696 -0.073440045
0.07750409 0.12364677 0.14013161 -0.0500195 0.23276381 -0.016042642 0.0817507 -0.10935328
0.018155823 0.028058203 0.061086915 -0.047135282 0.123348966 0.00548986 0.08147272 0.08048495
-0.019062907 -0.12487444 -0.15946221 0.12377134 0.11811302 0.13699406 0.08529921 -0.17160651
-0.16616432 0.11849534 0.1129455 -0.09553036 -0.13990732 0.14308155 -0.15341178 0.107498236
0.09243447 -0.05754869 -0.16502357 0.038418528 0.06882138 0.035387535 -0.14083914 -0.062465895
-0.19103043 -0.04147222 0.07096126 0.10122836 -0.08461668 -0.1156088 0.0981711 0.16772345
0.07446589 0.11169992 -0.17817985 0.032720216 0.06835255 -0.032576688 -0.028381946 -0.05179883
-0.11929366 -0.12484053 0.096379876 0.1684887 0.101408385 -0.14912887 0.18057466 -0.07818064
-0.13372545 -0.065724224 -0.06214205 0.11082228 0.11519067 -0.05662578 -0.1128635 -0.113546215
-0.013759916 0.11626271 0.08840952 0.038562693 -0.14029552 -0.032959476 0.08842102 -0.07346232
-0.06827699 -0.1514235 0.1858067 0.16362299 0.018241698 -0.22670001 0.119887695 0.18440044
-0.09549315 0.11072935 0.041995753 -0.12784533 -0.009487733 -0.04572404 0.077634744 0.12070348
0.017110713 -0.06368046 0.19486395 0.13828589 -0.13278788 -0.1551624 0.18816021 -0.15762773
-0.099962644 -0.045888428 -0.009832303 -0.19734086 0.100317135 -0.10496714 0.094678886 0.13395098
-0.023350107 -0.08265025 0.20038836 0.17292722 -0.10672706 -0.08247878 -0.02568839 -0.13994011
-0.0890748 -0.1420265 -0.034584258 -0.08106907 -0.16679768 0.13076198 -0.1312016 -0.20224878
0.083772846 0.16798614 -0.13026586 0.040747836 0.008321995 0.07644062 0.21106389 -0.12947668
0.026630506 -0.09498178 -0.10539147 0.057106555 -0.048358716 -0.20156534 -0.039996047 0.16958587
00000000: 70a3 983c 2425 e1bd 1ee7 21be ff62 da3d
00000010: c159 0cbe 330e 4a3d 46f9 3e3e 30f6 c3bd
00000020: 20a9 c03d 3704 cabd 908e 4a3d 4f00 c13d
00000030: b1b4 17bd 3edd c53d 0f89 333c b1ff f33d
00000040: ffa8 a33d 16ac 943d 7643 d3bb 134a 0c3e
00000050: 87a4 43bd acd4 18bd 4ef4 853d f98f 2c3c
00000060: e3fd bcbd 2b7d a93d 1b5d 9c3b dedf 7f3d
00000070: 1098 1a3e 0be8 803d 929a d2bb 94ad 0e3e
00000080: a457 05be 7489 ab3d 9a95 1d3e d497 963d
00000090: 04f1 79bd 5f7b 5ebe 6aa8 73bd 96e3 b2bd
000000a0: 5284 3fbe e94b b03d becb ae3c d128 aa3d
000000b0: 2c1c 8ebd 3130 033c 48dd 9abd bf0e 00be
000000c0: e443 d43d 7d13 683e 078c 083d 1c63 383e
000000d0: a306 063e ee6c aeb9 9f69 e03d 62c9 81bd
000000e0: c0aa b0bd 99a2 76bd d3be 633e 7665 22bd
000000f0: f97d cfbd e760 e73d 9e95 c2bd 8895 9a3c
00000100: 3a21 c7bc e338 24be 79ee c03d 503e 243e
00000110: 58a8 9d3d cf24 2abe cb06 e5bb bdd1 593d
00000120: d3b4 20bd f7d3 ddbd cd99 00bc c2ab 2ebe
00000130: f6bb 423d 2311 33bd 7253 10be fb28 17be
00000140: 6ec2 8dbb 0f58 27bd 20db 843d 36ba 3bbc
00000150: 9b85 4e3e 4edb 4abe 4acf 0fbc ad96 40be
00000160: 78f1 5abe 9400 abbd 6a22 cc3d c30c b6bd
00000170: 89df e43d b242 3c3d 32bd 593d d998 bf3d
00000180: 6af2 1d3e c4b7 8c3d 624f 813d f41e ec3d
00000190: c6a0 8a3d 1a4b 7d3d 6d2f 15bd 3e53 19bd
000001a0: a8ba 9abd 9559 26bd a1fb 713d 69b9 093e
000001b0: ffa8 08be e917 b93d b994 cebd bc67 96bd
000001c0: 77ba 9e3d 853a fd3d a97e 0f3e 3fe1 4cbd
000001d0: a359 6e3e dc6b 83bc e96c a73d 9df4 dfbd
000001e0: 85bb 943c 51da e53c 4636 7a3d ed10 41bd
000001f0: 629e fc3d 49e4 b33b 2bdb a63d 4bd5 a43d
00000200: d029 9cbc 2cbe ffbd 104a 23be d47b fd3d
00000210: 3de5 f13d 2c48 0c3e 5ab1 ae3d 9eb9 2fbe
00000220: fb26 2abe afad f23d f84f e73d 6ca5 c3bd
00000230: dd43 0fbe f883 123e fa17 1dbe 0928 dc3d
00000240: 494e bd3d 2db8 6bbd f0fb 28be bf5c 1d3d
00000250: 39f2 8c3d 85f2 103d 2338 10be 3ddc 7fbd
00000260: 7b9d 43be c6de 29bd 2354 913d d050 cf3d
00000270: 834b adbd 4ec4 ecbd ee0d c93d b2bf 2b3e
00000280: 9381 983d edc2 e43d c774 36be a205 063d
00000290: 6cfc 8b3d 226f 05bd 4181 e8bc 032b 54bd
000002a0: 3c50 f4bd 64ac ffbd d062 c53d 4d88 2c3e
000002b0: 33af cf3d 3db5 18be 90e8 383e 2c1d a0bd
000002c0: 53ef 08be 6c9a 86bd aa88 7ebd cbf6 e23d
000002d0: 16e9 eb3d 6ff0 67bd fb24 e7bd eb8a e8bd
000002e0: 4571 61bc 251b ee3d 0d10 b53d eaf3 1d3d
000002f0: a1a9 0fbe 8400 07bd 1416 b53d 6a73 96bd
00000300: ced4 8bbd c30e 1bbe 1d44 3e3e c98c 273e
00000310: 9d6f 953c 0c24 68be ae87 f53d 78d3 3c3e
00000320: ea91 c3bd 12c6 e23d bd03 2c3d e3e9 02be
00000330: 7072 1bbc 2249 3bbd f7fe 9e3d 6333 f73d
00000340: c42b 8c3c e76a 82bd 6a8a 473e d19a 0d3e
00000350: 8cf9 07be e4e2 1ebe 12ad 403e 2a69 21be
00000360: 37b9 ccbd 81f5 3bbd ab17 21bc b913 4abe
00000370: 1273 cd3d 03f9 d6bd 01e7 c13d 722a 093e
00000380: b948 bfbc 8944 a9bd 9b32 4d3e d513 313e
00000390: b893 dabd a2ea a8bd 7570 d2bc 764c 0fbe
000003a0: d96c b6bd 656f 11be 39a8 0dbd 8a07 a6bd
000003b0: 03cd 2abe 78e6 053e b659 06be 4e1a 4fbe
000003c0: 1991 ab3d 8f04 2c3e 6a64 05be 34e7 263d
000003d0: fa58 083c e68c 9c3d 2221 583e 8995 04be
000003e0: 3828 da3c cf85 c2bd 7cd7 d7bd 90e8 693d
000003f0: ca13 46bd 2567 4ebe e5d2 23bd eba7 2d3e

lstm.bias_ih_l0 f4 [128]
0.0064773876 -0.2820386 0.1488721 0.05849373 0.17169015 0.076004766 -0.005991971 -0.1970898
-0.322252 -0.0013636257 -0.14073464 -0.0624392 0.09931764 0.16304335 -0.13213502 -0.020667644
0.052352145 0.123405 -0.20295084 -0.13184537 -0.05998538 -0.13447084 0.019163132 0.09873855
-0.14527199 0.08169189 -0.12633087 0.03696881 -0.12395027 -0.0878685 0.09576967 -0.15124334
-0.12243019 -0.21233232 -0.04291697 -0.13914908 -0.16039245 -0.13361362 -0.15460283 -0.15799634
-0.08143952 -0.29808155 -0.15526816 -0.17073148 0.12183253 0.05442763 0.052027598 0.061727963
0.06652335 -0.16880684 -0.083807595 -0.16428798 0.020747453 0.012591845 -0.053239554 -0.0600455
0.0468736 -0.02190051 -0.048070777 -0.12848574 -0.20320934 -0.18256974 -0.11647807 0.15538836
-0.069067135 0.13391724 -0.01734624 0.09606244 0.117295295 -0.005260075 -0.08388138 0.04171337
0.09462819 0.07263624 0.16533402 -0.14784981 -0.15463154 0.024874618 -0.023273792 0.06098357
-0.09151425 -0.09913491 -0.034226395 0.061156347 -0.10716804 -0.033005808 -0.08200769 -0.052053567
-0.044411145 -0.053830616 0.07671937 -0.04811209 -0.08209741 0.029631022 0.07540324 -0.08715639
0.0004386871 -0.1458274 -0.15726604 -0.18771644 0.045842435 0.11444671 -0.19680928 0.006608586
-0.31030437 -0.1296485 -0.024660347 -0.05483036 -0.1338302 0.010041702 -0.113799095 -0.13841009
0.0052460153 0.06616815 -0.13246769 0.06290026 -0.05225448 0.07091824 -0.010380645 0.061108805
-0.16746512 -0.071593635 0.061011538 -0.16227032 0.029950017 -0.051432718 0.04916723 -0.10892533
00000000: 4440 d43b 5d67 90be ee71 183e 1f97 6f3d
00000010: 8bcf 2f3e 63a8 9b3d 4c58 c4bb e9d1 49be
00000020: 37fe a4be b0bb b2ba be1c 10be 3fc0 7fbd
00000030: 0c67 cb3d d6f4 263e 674e 07be 314f a9bc
00000040: 346f 563d c3bb fc3d 58d2 4fbe 7902 07be
00000050: 3bb3 75bd b9b2 09be 00fc 9c3c 7037 ca3d
00000060: 2ec2 14be 144e a73d e15c 01be 9b6c 173d
00000070: a4d9 fdbd 66f4 b3bd e422 c43d 89df 1abe
00000080: aebc fabd a56d 59be b4c9 2fbd 197d 0ebe
00000090: eb3d 24be 02d2 08be 3450 1ebe cbc9 21be
000000a0: c3c9 a6bd 259e 98be 9efe 1ebe 3cd4 2ebe
000000b0: 5583 f93d 82ef 5e3d e41a 553d 76d6 7c3d
000000c0: 653d 883d b3db 2cbe 51a3 abbd 1c3b 28be
000000d0: 90f6 a93c 074e 4e3c b811 5abd 45f2 75bd
000000e0: 88fe 3f3d b368 b3bc dde5 44bd c491 03be
000000f0: 1c16 50be 90f3 3abe 0e8c eebd 201e 1f3e
00000100: 1273 8dbd 9a21 093e b419 8ebc 62bc c43d
00000110: 8438 f03d b55c acbb 00ca abbd a3db 2a3d
00000120: 6dcc c13d 4fc2 943d 524d 293e f165 17be
00000130: bb57 1ebe dbc5 cb3c aea8 bebc e8c9 793d
00000140: d36b bbbd 3e07 cbbd fa30 0cbd 147f 7a3d
00000150: eb7a dbbd 1931 07bd a6f3 a7bd 1f36 55bd
00000160: 76e8 35bd 7e7d 5cbd 0c1f 9d3d 2f11 45bd
00000170: b022 a8bd c2bc f23c 046d 9a3d 0d7f b2bd
00000180: 96ff e539 c753 15be 590a 21be bd38 40be
00000190: 47c5 3b3d 0963 ea3d 5f88 49be d68c d83b
000001a0: 37e0 9ebe 94c2 04be 7f04 cabc cd95 60bd
000001b0: c90a 09be f385 243c 800f e9bd 60bb 0dbe
000001c0: c4e6 ab3b 2b83 873d 9ca5 07be dad1 803d
000001d0: cb08 56bd 953d 913d 9513 2abc 3a4d 7a3d
000001e0: fa7b 2bbe af9f 92bd 3ce7 793d 312a 26be
000001f0: bd59 f53c 1dab 52bd 9463 493d 3e14 dfbd

lstm.bias_hh_l0 f4 [128]
-0.1479581 -0.33921674 0.04454558 -0.23311986 0.17559631 0.050239366 -0.010843257 0.0031497825
-0.326834 -0.28495684 0.09077387 -0.082882494 0.12843505 -0.027821872 -0.04965896 -0.09080461
-0.16546324 0.15708095 -0.013249598 0.033592887 0.09103649 -0.016259309 -0.14417702 0.0408242
0.10633281 0.002298504 -0.15407224 0.06451182 -0.14624523 0.025342785 -0.19613543 -0.001366588
0.039077874 -0.13219593 -0.023885317 -0.11043518 -0.049629908 -0.11619189 0.05854132 0.06771235
-0.21751069 -0.14643852 -0.1805754 0.047422245 -0.036337495 0.10382849 -0.24476673 0.035798714
-0.14560737 -0.15713347 -0.15877506 0.09449791 -0.02686302 0.12297117 -0.1149767 -0.06816105
-0.19329259 -0.116844006 0.07969152 -0.23822582 0.01610367 -0.000334116 -0.15178078 -0.11261901
-0.050723955 -0.062029075 0.07391015 -0.123894274 0.13582316 0.1400712 0.0866376 -0.041170355
-0.044892535 0.0074434304 -0.16532812 0.10266869 0.058610935 -0.11090366 -0.122383274 -0.111127034
0.11690418 0.1211265 0.02101701 -0.15671334 -0.07374004 0.05360901 -0.10265286 0.025622021
-0.050665468 -0.16528647 0.0400611 0.0778389 -0.016819522 -0.055819444 0.0067481864 -0.15735911
-0.18613373 -0.23007478 0.090238936 -0.08255563 0.11621016 0.15333575 -0.093078546 -0.07177863
-0.06812802 -0.04956465 -0.12642406 -0.076798804 -0.022501206 0.025712136 0.11555344 -0.10184001
-0.0843863 0.11742521 -0.20687342 0.09219585 -0.06092551 0.06145346 -0.0048339115 0.019022798
0.014865793 0.11504156 -0.023757292 -0.1761163 -0.18429324 0.07354913 0.12295875 -0.18976267
00000000: 5482 17be d1ad adbe 6d75 363d f9b6 6ebe
00000010: 85cf 333e cbc7 4d3d eba7 31bc 956c 4e3b
00000020: c956 a7be dde5 91be a7e7 b93d 4cbe a9bd
00000030: 7a84 033e b2ea e3bc 3267 4bbd c4f7 b9bd
00000040: 326f 29be d4d9 203e d814 59bc b298 093d
00000050: 5771 ba3d 3e32 85bc 24a3 13be 4737 273d
00000060: 04c5 d93d 80a2 163b 1dc5 1dbe c61e 843d
00000070: 4fc1 15be ac9b cf3c bad7 48be 161f b3ba
00000080: 1f10 203d 5f5e 07be 24ab c3bc d72b e2bd
00000090: bb48 4bbd 03f6 edbd 06c9 6f3d c6ac 8a3d
000000a0: 1fbb 5ebe fbf3 15be c2e8 38be d43d 423d
000000b0: a0d6 14bd 08a4 d43d 21a4 7abe aca1 123d
000000c0: 191a 15be 99e7 20be ee95 22be 1f88 c13d
000000d0: d60f dcbc 4fd8 fb3d e778 ebbd 0598 8bbd
000000e0: 7eee 45be e94b efbd 4f35 a33d 78f1 73be
000000f0: d8eb 833c 4a2c afb9 6c6c 1bbe cca4 e6bd
00000100: ecc3 4fbd 3312 7ebd 345e 973d 48bc fdbd
00000110: 3a15 0b3e d36e 0f3e 0e6f b13d 3fa2 28bd
00000120: 3ce1 37bd 05e8 f33b c64b 29be f643 d23d
00000130: 0512 703d 7521 e3bd 15a4 fabd 9296 e3bd
00000140: 756b ef3d 2c11 f83d dd2b ac3c 7679 20be
00000150: 0505 97bd 1f95 5b3d aa3b d2bd 46e5 d13c
00000160: 9886 4fbd db40 29be 1c17 243d 006a 9f3d
00000170: 18c9 89bc eea2 64bd e41f dd3b bf22 21be
00000180: d799 3ebe b998 6bbe 31cf b83d ed12 a9bd
00000190: 98ff ed3d 0c04 1d3e f79f bebd ad00 93bd
000001a0: b486 8bbd 4d04 4bbd 4f75 01be b148 9dbd
000001b0: 7354 b8bc 42a2 d23c 48a7 ec3d 7f91 d0bd
000001c0: b9d2 acbd a17c f03d a0d6 53be 2ed1 bc3d
000001d0: 078d 79bd a0b6 7b3d ca65 9ebb b3d5 9b3c
000001e0: a88f 733c e99a eb3d a79e c2bc d557 34be
000001f0: 5eb7 3cbe eda0 963d ccd1 fb3d 2551 42be

lstm.weight_ih_l0_reverse f4 [128, 64]
-0.08506075 0.033320174 0.040088188 -0.0967674 0.00015665591 0.048914153 0.042256176 -0.04127232
-0.19128406 0.07779854 -0.13441516 -0.12742062 -0.034028903 0.17119737 -0.23247302 -0.19488554
0.14506808 -0.1372594 0.16184436 0.036765326 -0.0058502695 0.16345155 -0.030186243 0.09740953
-0.049202334 0.062289685 -0.027879322 0.074888065 -0.14771472 -0.049808197 -0.029379338 -0.06924816
0.019523462 0.03379468 -0.060660042 0.030522212 -0.06702215 -0.040342122 -0.038226187 -0.20546196
-0.07622909 -0.1960624 -0.12961413 -0.04391654 0.04306457 -0.024043823 0.124759406 -0.05102226
-0.17766029 -0.026662853 0.13175826 -0.06714821 -0.13639565 -0.067030154 -0.1812539 -0.038017463
-0.07483478 -0.00031533837 -0.19781093 0.059923902 0.01607705 -0.07627367 0.15173787 -0.03560838
0.0913956 -0.007201314 0.1717729 0.09585958 0.11021052 -0.0541241 -0.0033294111 0.022972427
0.0432848 -0.092470676 -0.15611987 0.1593157 0.1075147 -0.17237188 -0.102500334 -0.0946948
0.031640243 0.07376422 -0.1382979 0.080601 0.085013665 0.122602314 0.05319544 0.14642207
0.059705026 0.064175636 0.098091796 -0.027232243 0.07780995 0.07459378 -0.09256544 -0.07198685
-0.09586927 0.16239344 0.022971317 -0.05987835 -0.011517689 0.12896179 -0.035748355 -0.0052016005
-0.07687288 0.056642685 -0.00727187 0.048113357 -0.15626274 0.020798543 -0.0011974812 -0.07350216
-0.14104989 -0.074541956 -0.052369244 -0.037513558 0.0015404224 0.16902483 0.08242417 -0.13158625
0.08573396 0.07361747 0.07127886 0.0065683536 0.16549756 -0.09378791 0.09480987 0.01629014
-0.0799984 -0.1398828 0.11896441 0.1786622 -0.08421737 -0.106131814 -0.08448028 -0.108942375
0.1665353 0.1251483 -0.16199434 -0.088774644 0.117867425 -0.12421249 -0.02523164 0.09859485
-0.04785212 -0.038875118 -0.1478571 0.045556456 -0.0896945 -0.1668057 -0.05663175 0.11459352
0.1770339 -0.14836833 -0.12354082 0.16045369 0.058101974 0.1705456 0.14447989 0.02941063
-0.038368944 -0.057477694 0.14556168 0.023769261 -0.11100793 -0.14691985 -0.031098086 -0.114676386
0.15108971 0.06793708 0.09320301 0.15236767 -0.13429306 0.08120396 -0.065491356 -0.14147025
0.14507073 0.0036144096 0.06677182 0.18406184 0.0322634 0.032698933 0.058500525 -0.1406041
0.09804729 0.075855955 -0.06738318 0.047058865 0.109701686 0.011531109 0.08721534 0.077317424
-0.14291605 -0.1605751 -0.041645214 -0.14587313 0.006920278 0.21821977 -0.1641736 -0.09094784
0.013754487 0.15951633 0.05045989 -0.15223584 0.1238096 -0.09544809 -0.110601455 0.024384579
-0.07063235 -0.0952033 0.031691268 0.16012119 0.10812397 0.032107975 0.1693402 -0.16818742
0.09092471 0.10642837 -0.039894734 -0.041818798 -0.08035362 0.0023250915 -0.09190946 0.026737588
0.071988866 -0.06582745 0.05798091 -0.09127901 -0.0025745824 0.13303722 0.14523019 0.16887894
0.06572527 -0.1240435 0.0026023975 -0.035960753 -0.142381 -0.09946491 -0.022960078 -0.09443865
0.15380543 -0.03964967 -0.1206999 0.020233063 -0.16601153 0.0808942 -0.12343066 -0.086002015
0.08678875 -0.16841665 0.046164025 0.042878233 0.11502085 0.19577926 -0.15670976 -0.073655225
00000000: 5534 aebd bc7a 083d 8333 243d fd2d c6bd
00000010: 0044 2439 355a 483d d014 2d3d 2a0d 29bd
00000020: f8df 43be d754 9f3d 21a4 09be 8d7a 02be
00000030: e461 0bbd 5d4e 2f3e 680d 6ebe 1390 47be
00000040: ba8c 143e ba8d 0cbe 87ba 253e 3d97 163d
00000050: 9eb3 bfbb d85f 273e 2449 f7bc a67e c73d
00000060: 6388 49bd 7823 7f3d 2d63 e4bc ea5e 993d
00000070: 8742 17be ae03 4cbd f0ac f0bc fbd1 8dbd
00000080: abef 9f3c 4a6c 0a3d aa76 78bd b809 fa3c
00000090: e942 89bd c83d 25bd 1093 1cbd 9f64 52be
000000a0: ff1d 9cbd 95c4 48be 91b9 04be d4e1 33bd
000000b0: 7964 303d 8df7 c4bc dc81 ff3d b8fc 50bd
000000c0: 94ec 35be 0e6c dabc a3eb 063e 0085 89bd
000000d0: 4dab 0bbe 1b47 89bd 9f9a 39be 33b8 1bbd
000000e0: fa42 99bd 0054 a5b9 f38e 4abe c472 753d
000000f0: 04b4 833c 5f35 9cbd 2c61 1b3e 18da 11bd
00000100: 9e2d bb3d 00f9 ebbb 3ce5 2f3e 0752 c43d
00000110: 0eb6 e13d 3bb1 5dbd 4032 5abb ac30 bc3c
00000120: 674b 313d 4461 bdbd e3dd 1fbe a823 233e
00000130: ab30 dc3d 4182 30be b2eb d1bd 59ef c1bd
00000140: 3399 013d b211 973d f79d 0dbe 2312 a53d
00000150: a51b ae3d ec16 fb3d 76e3 593d abef 153e
00000160: 428d 743d 846e 833d 5ae4 c83d 2716 dfbc
00000170: d35a 9f3d a0c4 983d f392 bdbd d76d 93bd
00000180: 1c57 c4bd 774a 263e 582e bc3c 0043 75bd
00000190: b0b4 3cbc 8f0e 043e de6c 12bd 3072 aabb
000001a0: 876f 9dbd 2902 683d de48 eebb 8312 453d
000001b0: 5703 20be b561 aa3c cdf4 9cba 4d88 96bd
000001c0: 626f 10be 74a9 98bd 2281 56bd d1a7 19bd
000001d0: 00e8 c93a d814 2d3e 01ce a83d 8cbe 06be
000001e0: 4995 af3d c2c4 963d a7fa 913d 583b d73b
000001f0: 3178 293e e013 c0bd ad2b c23d e672 853c
00000200: 33d6 a3bd 703d 0fbe 9da3 f33d 39f3 363e
00000210: 287a acbd a35b d9bd ff03 adbd 2e1d dfbd
00000220: 3b88 2a3e e026 003e d8e1 25be 7bcf b5bd
00000230: 7a64 f13d 1e63 febd 96b2 cebc 19ec c93d
00000240: 9600 44bd 843b 1fbd da67 17be 6899 3a3d
00000250: c0b1 b7bd 1dcf 2abe b2f6 67bd 02b0 ea3d
00000260: 6048 353e deed 17be f802 fdbd f94d 243e
00000270: 56fc 6d3d 81a3 2e3e 89f2 133e 90ee f03c
00000280: c128 1dbd bb6d 6bbd 1f0e 153e c1b7 c23c
00000290: 2058 e3bd 2872 16be 6ac1 febc 74db eabd
000002a0: 43b7 1a3e 9922 8b3d 38e1 be3d 4506 1c3e
000002b0: 1f84 09be 434e a63d 5520 86bd 94dd 10be
000002c0: 6c8d 143e bbdf 6c3b aabf 883d b57a 3c3e
000002d0: a026 043d 51ef 053d 3f9e 6f3d 85fa 0fbe
000002e0: 05cd c83d 5e5a 9b3d 3100 8abd ccc0 403d
000002f0: 47ab e03d faec 3c3c f59d b23d 9958 9e3d
00000300: 9658 12be cd6d 24be 2c94 2abd c45f 15be
00000310: 80c3 e23b 0175 5f3e 201d 28be dc42 babd
00000320: 805a 613c 4058 233e 08af 4e3d b6e3 1bbe
00000330: e38f fd3d 4a7a c3bd 0483 e2bd 2bc2 c73c
00000340: b2a7 90bd f3f9 c2bd b4ce 013d cff6 233e
00000350: 1a70 dd3d a783 033d 8467 2d3e 5339 2cbe
00000360: bc36 ba3d 1ef7 d93d a968 23bd 304a 2bbd
00000370: 7090 a4bd 9060 183b 073b bcbd c908 db3c
00000380: e66e 933d 8bd0 86bd 647d 6d3d 7df0 babd
00000390: 53ba 28bb e93a 083e 39b7 143e 9aee 2c3e
000003a0: f89a 863d 850a febd fc8c 2a3b 954b 13bd
000003b0: 53cc 11be 42b4 cbbd c616 bcbc 0d69 c1bd
000003c0: 2c7f 1d3e b167 22bd 8231 f7bd cfbf a53c
000003d0: edfe 29be dcab a53d 37c9 fcbd d321 b0bd
000003e0: 4dbe b13d 6a75 2cbe 7d16 3d3d 16a1 2f3d
000003f0: 0d90 eb3d 5c7a 483e 8678 20be 8dd8 96bd

lstm.weight_hh_l0_reverse f4 [128, 32]
0.036877096 0.006802857 0.05260104 -0.09963637 -0.013628647 0.029310629 -0.0573999 0.1312459
0.033208683 -0.050207585 -0.08181152 -0.042173743 0.07874353 -0.16703133 0.044532627 0.16736226
0.040973306 -0.15582353 0.08006181 -0.012961403 -0.15755695 0.07710181 0.0747696 -0.16265653
0.17403997 -0.15774044 -0.10949732 -0.0871978 -0.0083415955 0.10967107 0.1093169 0.1388749
0.0154418945 -0.10795443 0.09619783 -0.032048777 -0.06715972 0.046137482 0.04112342 0.12974124
0.16497089 -0.048686206 -0.02849245 -0.03948468 0.03918512 0.16822867 -0.008134767 -0.027679816
0.08441888 -0.15612882 0.09229402 -0.06199479 0.0874085 0.04040487 0.09538321 0.14906512
-0.11228102 -0.15935276 0.012422696 -0.006653443 -0.14226091 -0.071531735 -0.0031852126 -0.100754656
-0.0029092133 -0.1270535 0.048245534 -0.16213487 0.1429212 0.08454247 0.17500852 -0.11494826
0.110632434 -0.06129062 -0.0631379 -0.032273024 -0.010271728 0.085922435 0.1359411 0.005969703
-0.14760272 0.020720184 0.08837174 0.11777313 -0.11639851 0.09264763 0.09379904 0.13512658
0.15736513 0.16934292 -0.055775218 0.10719828 0.15464629 -0.10416899 0.0014482886 0.090626016
-0.17173955 -0.1350488 -0.17514156 0.10985769 -0.14281847 -0.018618599 0.06332302 0.05659592
-0.033781543 0.039228752 -0.10062811 0.15909536 -0.107974514 -0.08015591 -0.037148967 0.0694083
-0.1736833 0.1151468 -0.11727792 0.16947927 -0.08067474 -0.11140754 0.16464372 0.13642715
0.009913236 -0.08761221 -0.144382 -0.019521832 -0.0012819171 -0.05839532 -0.07002979 0.09016608
0.10368429 0.037894696 -0.15384318 -0.111273095 -0.16605851 0.07198106 0.10898031 0.08316128
-0.12752129 0.09859301 0.14306574 -0.123712525 0.16741289 0.12953939 0.008823693 -0.132171
-0.07497486 -0.1628487 -0.12061147 0.118402794 0.014264941 -0.08295197 0.063690946 0.026867524
0.1380608 0.1511219 -0.075228855 0.103475556 0.1480314 -0.019137532 0.06993583 0.029740185
-0.17071083 -0.16360079 -0.0644435 -0.09250582 -0.150031 -0.055724412 -0.087803856 0.135608
-0.044913933 -0.10146103 0.108874306 0.054421216 -0.1244852 0.015006825 0.071283504 0.120264575
-0.14109448 -0.08027689 0.037524268 -0.17589812 0.17378442 0.13111655 0.09909944 -0.10581824
-0.1538293 -0.13616034 -0.16026646 -0.080968075 -0.13344307 -0.002480179 0.100344166 -0.007184148
-0.12591065 -0.1329218 -0.04064043 -0.10812959 0.06836097 -0.016390726 -0.06452352 -0.12300566
-0.17395972 -0.110847056 -0.11588377 -0.09629581 0.06332728 -0.094943695 0.11599322 0.060002998
-0.01669009 -0.06509981 -0.0254599 0.009253591 0.017380059 -0.00223054 -0.16556239 -0.110653326
0.15667512 -0.14226109 0.17527394 -0.05991008 -0.06192714 0.106043205 -0.003916025 0.13590647
-0.02908811 0.053244844 0.040977508 0.07101914 -0.16169311 -0.14490345 -0.14143224 -0.052424654
-0.009592161 -0.054968 -0.05417665 0.038984403 0.016214803 0.055164114 0.067519665 -0.0010938346
0.17055981 0.01651156 0.033237487 -0.16681598 -0.123143144 -0.09168693 -0.07538916 0.06887412
0.021245196 -0.1604123 0.033781916 -0.076062925 -0.17572372 -0.17069103 0.1583135 0.14267318
00000000: 700c 173d 80ea de3b 3074 573d 270e ccbd
00000010: b04a 5fbc d81c f03c 281c 6bbd 5365 063e
00000020: d405 083d 78a6 4dbd cc8c a7bd 60be 2cbd
00000030: 4a44 a13d 430a 2bbe d867 363d 0361 2b3e
00000040: a0d3 273d 3490 1fbe 72f7 a33d 105c 54bc
00000050: 9c56 21be 8ee7 9d3d ce20 993d 6f8f 26be
00000060: 8937 323e b686 21be 2240 e0bd c394 b2bd
00000070: 30ab 08bc 3a9b e03d 8ae1 df3d 3935 0e3e
00000080: 0000 7d3c 3617 ddbd 5e03 c53d 9445 03bd
00000090: 098b 89bd a8fa 3c3d 0871 283d e3da 043e
000000a0: 21ee 283e 306b 47bd 0069 e9bc b0ba 21bd
000000b0: 9480 203d 2344 2c3e b047 05bc c8c0 e2bc
000000c0: cee3 ac3d 3ce0 1fbe a604 bd3d 40ee 7dbd
000000d0: 3a03 b33d 947f 253d 4658 c33d 87a4 183e
000000e0: 97f3 e5bd 5f2d 23be 9088 4b3c 2005 dabb
000000f0: d8ac 11be 3b7f 92bd 00bf 50bb 7558 cebd
00000100: 80a8 3ebb 501a 02be 1c9d 453d af06 26be
00000110: ef59 123e 9a24 ad3d 6f35 333e fe69 ebbd
00000120: 4293 e23d e00b 7bbd 714e 81bd b830 04bd
00000130: c04a 28bc 1af8 af3d 2534 0b3e 809d c33b
00000140: 2b25 17be 60bd a93c 3efc b43d 0a33 f13d
00000150: 5862 eebd 0abe bd3d b619 c03d 9f5e 0a3e
00000160: 5324 213e 3b68 2d3e 8e74 64bd c68a db3d
00000170: 995b 1e3e 8d56 d5bd 80d4 bd3a 229a b93d
00000180: 7edc 2fbe 3c4a 0abe 4f58 33be 12fd e03d
00000190: 013f 12be 0886 98bc 80af 813d 20d1 673d
000001a0: 845e 0abd 54ae 203d 1c16 cebd e5e9 223e
000001b0: be21 ddbd c828 a4bd 8429 18bd f025 8e3d
000001c0: 09da 31be 16d2 eb3d 682f f0bd f98b 2d3e
000001d0: cc38 a5bd a329 e4bd 5d98 283e 8fb3 0b3e
000001e0: 206b 223c 086e b3bd e0d8 13be 40ec 9fbc
000001f0: 0006 a8ba ee2f 6fbd c76b 8fbd fea8 b83d
00000200: 6e58 d43d 7837 1b3d 1189 1dbe 26e3 e3bd
00000210: 3e0b 2abe ce6a 933d 1231 df3d 7650 aa3d
00000220: f194 02be 22eb c93d d37f 123e fe5c fdbd
00000230: 496e 2b3e f9a5 043e 4091 103c d657 07be
00000240: 6b8c 99bd cfc1 26be 2503 f7bd 2a7d f23d
00000250: 80b7 693c b9e2 a9bd 6670 823d 4819 dc3c
00000260: cf5f 0d3e b3bf 1a3e 9611 9abd feea d33d
00000270: 8b95 173e 50c6 9cbc 843a 8f3d b0a1 f33c
00000280: d2ce 2ebe f786 27be f4fa 83bd b173 bdbd
00000290: baa1 19be 483f 64bd 82d2 b3bd d3dc 0a3e
000002a0: acf7 37bd cdca cfbd 7ef9 de3d c8e8 5e3d
000002b0: 19f2 febd 30df 753c 16fd 913d 464d f63d
000002c0: 127b 10be 3668 a4bd 0cb3 193d a31e 34be
000002d0: 8bf4 313e 6b43 063e a6f4 ca3d 3cb7 d8bd
000002e0: 6e85 1dbe 9e6d 0bbe e41c 24be 97d2 a5bd
000002f0: 4da5 08be 808a 22bb 3e81 cd3d 0069 ebbb
00000300: b9ee 00be a71c 08be 9476 26bd 0c73 ddbd
00000310: d600 8c3d d845 86bc e824 84bd 64ea fbbd
00000320: 7f22 32be c803 e3bd 7854 edbd bd36 c5bd
00000330: bcb1 813d d771 c2bd da8d ed3d b4c5 753d
00000340: a8b9 88bc 0d53 85bd 4891 d0bc 609c 173c
00000350: a060 8e3c 402e 12bb 3089 29be 369e e2bd
00000360: 716f 203e e4ac 11be 037b 333e 4664 75bd
00000370: 50a7 7dbd 2e2d d93d 0052 80bb 112b 0b3e
00000380: 304a eebc 4417 5a3d 08d8 273d 7c72 913d
00000390: e192 25be 9261 14be 9dd3 10be 3cbb 56bd
000003a0: 7028 1dbc 2026 61bd 56e8 5dbd 1cae 1f3d
000003b0: e8d4 843c c4f3 613d c047 8a3d 005f 8fba
000003c0: 3ba7 2e3e 4043 873c 0824 083d cfd1 2abe
000003d0: 7932 fcbd 5bc6 bbbd a265 9abd e00d 8d3d
000003e0: 680a ae3c 1f43 24be e85e 0a3d e1c6 9bbd
000003f0: ebf0 33be a1c9 2ebe ef1c 223e eb18 123e

lstm.bias_ih_l0_reverse f4 [128]
-0.0840003 0.057242524 0.17020552 -0.030552978 0.13869743 0.088332795 -0.28728124 0.12918411
3.1916195e-05 -0.053672068 0.1302768 0.14339988 -0.013270036 -0.13776399 0.02317648 0.0310434
-0.31216156 -0.09730864 -0.095665276 0.12319027 0.15706979 0.15396175 0.15507706 0.11785544
-0.0011761201 -0.07101828 -0.1023033 -0.071685694 -0.0366321 -0.07424634 -0.05382783 0.020442123
-0.07245275 0.1750329 0.17676671 0.10901819 0.12283485 0.12018122 0.16692762 -0.1380288
-0.08011431 0.098294154 -0.0046714693 -0.13744159 0.16644482 0.037267566 -0.04488489 0.13124518
-0.010645941 0.01100193 0.074300274 0.01583375 -0.11957927 0.010247439 -0.10116011 -0.008543044
-0.054007895 -0.070676915 -0.12887645 -0.04114674 0.002113223 -0.09469236 0.113049194 -0.11575261
0.074245036 0.1281948 -0.04469307 0.037935443 -0.1135131 0.07850353 0.02619922 -0.14565754
-0.097206436 -0.046827644 0.083568715 -0.09103126 0.11425475 0.00093497534 0.08368755 0.017694004
-0.028969238 -0.049826756 -0.12138191 -0.15903638 0.10173192 0.16041744 0.13631521 0.023945948
-0.024304414 0.02891682 -0.123314306 0.105728686 -0.06726587 -0.029015237 -0.0634857 0.12652443
-0.15426175 0.066734344 -0.12018034 0.17412321 0.06867659 0.12142454 0.011444722 -0.17334048
-0.08485974 -0.06052886 0.16767912 0.02412991 -0.041810084 -0.03712685 -0.22965084 0.19748732
-0.3215765 -0.08019572 -0.118783996 0.09326853 -0.07977435 0.20140581 0.05728871 -0.09653706
-0.15782626 0.099217094 -0.108088434 -0.1475058 0.030979134 0.040216662 -0.01793317 -0.016678028
00000000: 5908 acbd 2377 6a3d 5b4a 2e3e 3d4a fabc
00000010: b306 0e3e d3e7 b43d 8716 93be d748 043e
00000020: c1dd 0538 3ed7 5bbd 4867 053e 6bd7 123e
00000030: 916a 59bc 0112 0dbe 9adc bd3c ba4e fe3c
00000040: a4d3 9fbe c149 c7bd 28ec c3bd 2e4b fc3d
00000050: e7d6 203e 26a8 1d3e 85cc 1e3e 315e f13d
00000060: 0b28 9aba 0872 91bd 6484 d1bd f3cf 92bd
00000070: 8a0b 16bd 770e 98bd 927a 5cbd 3d76 a73c
00000080: 1b62 94bd d33b 333e 5502 353e ee44 df3d
00000090: d690 fb3d 9221 f63d 13ef 2a3e 6c57 0dbe
000000a0: f912 a4bd 724e c93d 2013 99bb 7dbd 0cbe
000000b0: 8370 2a3e e0a5 183d 38d9 37bd 2365 063e
000000c0: 506c 2ebc 7041 343c be2a 983d c8b5 813c
000000d0: fae5 f4bd e0e4 273c 082d cfbd 20f8 0bbc
000000e0: 6237 5dbd 0fbf 90bd 30f8 03be 7c89 28bd
000000f0: 007e 0a3b 11ee c1bd 5686 e73d b40f edbd
00000100: c80d 983d 7f45 033e 1510 37bd 3262 1b3d
00000110: 8e79 e8bd 75c6 a03d bf9f d63c 4027 15be
00000120: 2b14 c7bd 58ce 3fbd 1326 ab3d 996e babd
00000130: 65fe e93d 2219 753a 6164 ab3d 04f3 903c
00000140: e550 edbc 2417 4cbd 1497 f8bd 6fda 22be
00000150: d358 d03d 7844 243e 3796 0b3e 4b2a c43c
00000160: 0d1a c7bc f8e2 ec3c 368c fcbd 4888 d83d
00000170: b0c2 89bd 5db1 edbc ca04 82bd 9f8f 013e
00000180: cbf6 1dbe 04ac 883d 1c21 f6bd 5b4d 323e
00000190: 50a6 8c3d 6ead f83d a582 3b3c 2b80 31be
000001a0: f2ca adbd 1ced 77bd 13b4 2b3e 17ac c53c
000001b0: 0d41 2bbd 5312 18bd 9729 6bbe 1e3a 4a3e
000001c0: ada5 a4be a73d a4bd 0645 f3bd 9203 bf3d
000001d0: bc60 a3bd 533d 4e3e 91a7 6a3d 39b5 c5bd
000001e0: 359d 21be 5532 cb3d 785d ddbd c30b 17be
000001f0: f4c7 fd3c 3aba 243d 95e8 92bc 5ca0 88bc
