saved_models/Complete_OHLCAG_Hybrid_Model_1h_sub_1.pth (torch, 194932 bytes, 17 tensors)

conv1d_1.weight f4 [64, 6, 3]
0	0xbdac7717	-0.08421152
1	0xbd94c5c9	-0.07264287
2	0x3dc471c2	0.0959201
3	0xbe8262c0	-0.25465965
4	0x3b5de664	0.0033859247
5	0xbe5afe96	-0.2138618
6	0x3daf2844	0.08552602
7	0x3e0db21b	0.13837473
8	0x3e636c35	0.22209246
9	0x3dc92aae	0.09822594
10	0x3c41b459	0.011822783
11	0xbe13a54d	-0.14418526
12	0xbe381961	-0.17978431
13	0x3d8a6e03	0.06759264
14	0xbd985abe	-0.07439183
15	0x3e8bafa8	0.27282453
16	0x3e80afd4	0.25134146
17	0xbdc810bc	-0.09768817
18	0xbe4e5e19	-0.20153083
19	0x3d827c38	0.06371349
20	0x3e79baf8	0.24387729
21	0x3d12e889	0.035866294
22	0xbd8e28e6	-0.069413945
23	0xbcb1baf5	-0.021695593
24	0xbe733cf1	-0.23753716
25	0xbe193f2e	-0.14965507
26	0x3dbd11df	0.09231924
27	0xbd6b36bc	-0.057425246
28	0x3d9b0713	0.07569709
29	0x3e502077	0.20324884
30	0x3e450e1e	0.19243667
31	0x3e329f3f	0.1744356
32	0x3e122953	0.14273576
33	0xbe574c06	-0.21025094
34	0x3e79745d	0.24360795
35	0xbe033b03	-0.1281548
36	0x3e478138	0.19482887
37	0x3e099143	0.13434319
38	0xbd859774	-0.06523028
39	0xbe2014c8	-0.15632927
40	0x3e530176	0.20606026
41	0x3da35510	0.07975209
42	0x3dea5782	0.11442472
43	0x3e410b98	0.18852079
44	0xbe46c67d	-0.19411655
45	0x3e52c261	0.20581962
46	0xbe3d8a32	-0.18509749
47	0x3e6e0bc8	0.23246682
48	0xbd9817b5	-0.07426397
49	0x3d9b6c30	0.075889945
50	0x3e699a27	0.2281271
51	0x3d2f5f0d	0.042815257
52	0x3da92a93	0.082600735
53	0xbe79fe44	-0.24413401
54	0xbd588604	-0.052862182
55	0x3d896256	0.06708209
56	0xbdff9159	-0.12478895
57	0x3e0d03e5	0.13771017
58	0x3e26827c	0.16260713
59	0xbe2ab47b	-0.1667041
60	0x3dfc335b	0.12314483
61	0xbe227c37	-0.15867697
62	0xbd5876e9	-0.052847777
63	0x3e5cb842	0.21554664
64	0x3e376494	0.17909461
65	0x3a766aa8	0.00094000483
66	0x3cab5b27	0.020917488
67	0x3b5b8a13	0.0033499047
68	0xbcde0379	-0.027101265
69	0x3e570059	0.20996226
70	0xbc94ccb9	-0.018164026
71	0x3d1ac876	0.03778883
72	0x3c901dff	0.017592428
73	0x3d9b7a0d	0.07591639
74	0x3e5b6764	0.21426159
75	0x3e72f8c1	0.23727705
76	0x3e5467ac	0.20742673
77	0x3dd462ac	0.10370383
78	0xbdfb8bb6	-0.12282507
79	0x3e1a2f5c	0.15057129
80	0xbb8f2d24	-0.004369395
81	0xbd7db8e2	-0.061943896
82	0x3e6c1746	0.23055753
83	0x3e33f1e7	0.17572747
84	0xbe0facc6	-0.14030752
85	0x3d3e239b	0.046420675
86	0x3e9455d9	0.28971747
87	0x3d92a617	0.071605854
88	0xbe0beb0f	-0.13663886
89	0xbd991501	-0.07474709
90	0x3df3dff3	0.11907949
91	0x3d61cdfa	0.055128075
92	0x3dd61831	0.10453833
93	0xbb878c5f	-0.0041366066
94	0x3e3ddc19	0.18540992
95	0x3dac3da8	0.084101975
96	0x3dd5d287	0.104405455
97	0xbd38543e	-0.045002215
98	0x3e1d224b	0.15345113
99	0xbdac70b4	-0.08419934
100	0x3e4cac17	0.19987522
101	0xbdf9d38c	-0.121985525
102	0x3e3a231f	0.1817746
103	0x3d49cff9	0.049270604
104	0x3ebb5859	0.3659084
105	0xbe50bd08	-0.2038461
106	0xbd7b55f3	-0.061361264
107	0x3d1de2f5	0.03854652
108	0x3de55186	0.1119719
109	0xbe0d2e33	-0.13787155
110	0xbd8ce6f3	-0.068799876
111	0x3d9ff393	0.0781013
112	0x3e7e26fd	0.2481956
113	0x3e2382a5	0.15967806
114	0xbddabd43	-0.1068063
115	0xbe065f0e	-0.13122198
116	0x3d04c42e	0.032413654
117	0x3b6cf391	0.003615592
118	0xbe1e9bdb	-0.15489142
119	0xbce476b0	-0.027888626
120	0xbd3b8421	-0.045780305
121	0xbedc8ec9	-0.43077686
122	0x3e912a6e	0.28352684
123	0x3e3d38f9	0.18478765
124	0x3da1ebbc	0.07906291
125	0xbe5d15a5	-0.21590288
126	0xbb509ebb	-0.0031832892
127	0x3e2bef43	0.1679049
128	0x3ca79a9d	0.020459468
129	0x3e30797b	0.17233841
130	0x3df70ff9	0.120635934
131	0x3d712674	0.058874562
132	0x3de6e837	0.1127476
133	0x3dbd73ad	0.09250579
134	0x3e66c874	0.22537404
135	0xbd9347ae	-0.07191406
136	0x3e70d06d	0.23517008
137	0x3e16dce9	0.14732708
138	0xbdd740eb	-0.10510429
139	0xbd2bb917	-0.041924562
140	0x3e9b4e48	0.3033316
141	0x3e3ffaca	0.18748012
142	0x3e20e5ba	0.15712634
143	0xbe2bc522	-0.16774419
144	0x3d8fff23	0.07031085
145	0xbe331faf	-0.17492555
146	0x3e0d2cff	0.13786696
147	0xbdd09ffa	-0.10186763
148	0x3e5eb95f	0.21750401
149	0x3e485308	0.19562924
150	0xbcd541c1	-0.02603233
151	0x3e4c3984	0.19943815
152	0x3e567512	0.20943096
153	0x3dfc2257	0.12311237
154	0xbdd422da	-0.1035821
155	0x3dd4d57e	0.10392283
156	0x3c144714	0.0090501495
157	0xbd724022	-0.059143193
158	0x3e8cf452	0.27530152
159	0x3dfefcb7	0.12450545
160	0x3e097c39	0.13426293
161	0x3d9747e4	0.07386759
162	0xbdd81d76	-0.10552494
163	0x3e2febb3	0.17179756
164	0x3de3b4ea	0.11118491
165	0xbe17a9fa	-0.14810935
166	0xbe36add7	-0.17839752
167	0x3e1830bf	0.14862345
168	0xbe23085a	-0.15921155
169	0x392ca800	0.00016465783
170	0xbe01b780	-0.12667656
171	0x3d16f784	0.036857143
172	0xbcdebd08	-0.027189746
173	0xbdd87a20	-0.105701685
174	0xbd09ee10	-0.0336743
175	0xbc561320	-0.013066083
176	0x3e55d711	0.20882823
177	0xbe4de0c7	-0.20105277
178	0xbe32cc5f	-0.17460774
179	0xbd950ae0	-0.07277465
180	0xbac49c3b	-0.0015000174
181	0xbcca42a6	-0.024689984
182	0xbc7feb9c	-0.0156201385
183	0x3e25346c	0.16133279
184	0xbdd6f1e8	-0.10495359
185	0xbab31d5d	-0.0013665367
186	0xbe063826	-0.13107356
187	0x3ca11938	0.019665346
188	0x3db313e2	0.08744027
189	0xbe55064c	-0.20803183
190	0xbc523991	-0.012831108
191	0xbe70e383	-0.23524289
192	0x3e16fca0	0.14744806
193	0xbeabc652	-0.33549744
194	0xbe02f556	-0.127889
195	0xbd8e538e	-0.069495305
196	0x3db3f6da	0.087873176
197	0xbb765a3a	-0.00375904
198	0x3bcbcd6a	0.0062195556
199	0x3e168332	0.14698485
200	0xbc1bdacb	-0.0095126135
201	0x3dbf9fba	0.09356637
202	0x3e44ac86	0.19206437
203	0x3e21619f	0.15759896
204	0x3df95e17	0.12176149
205	0x3e0a9e64	0.13536984
206	0x3e45a3ac	0.19300717
207	0x3de2086b	0.11036762
208	0x3df99a5c	0.12187645
209	0x3e5c3763	0.21505503
210	0x3e539f6b	0.20666282
211	0x3ea40081	0.32031634
212	0x3d99127e	0.0747423
213	0x3e3acc72	0.18242052
214	0xbdbe517e	-0.09292887
215	0x3dfa631c	0.12225935
216	0xbe4fbd5c	-0.20287079
217	0x3dc39288	0.09549433
218	0xbd950113	-0.072755955
219	0xbd0a3395	-0.0337406
220	0x3e4394e1	0.19099762
221	0xbe54e85d	-0.20791765
222	0x3e355b10	0.17710519
223	0x3dfc46f4	0.12318221
224	0x3e50341e	0.20332381
225	0xbe0b47da	-0.13601628
226	0x3e5d603f	0.21618746
227	0x3e63e63a	0.22255793
228	0x3e64515f	0.22296666
229	0x3e06458b	0.13112466
230	0x3e6b902a	0.23004213
231	0x3dd46b3d	0.103720166
232	0x3e68328d	0.22675534
233	0x3e175f82	0.14782527
234	0x3e3ffed0	0.18749547
235	0xbdfb5dd7	-0.12273758
236	0xbd2760c0	-0.040863752
237	0x3d44541c	0.047931775
238	0x3b84e03d	0.0040550516
239	0x39e9e575	0.00044612182
240	0xbdffc0c3	-0.12487938
241	0x3e1c10e4	0.15240818
242	0x3db0085a	0.08595343
243	0xbd57e0bf	-0.05270457
244	0x3e4abb91	0.19798113
245	0xbd213363	-0.039355647
246	0x3e8f98b2	0.28046185
247	0x3eb3c892	0.3511396
248	0x3e911471	0.28335908
249	0xbce10483	-0.027467972
250	0xbe27c9cb	-0.16385572
251	0xbddfec88	-0.10933787
252	0xbe43f474	-0.1913622
253	0xbe476f23	-0.19475989
254	0xbdf1405b	-0.11779853
255	0x3ce5d3b8	0.028055057

conv1d_1.bias f4 [64]
0	0x3dc632e3	0.096776746
1	0x3e5edae5	0.21763189
2	0xbdd317dd	-0.10307286
3	0xbe3a7f88	-0.18212712
4	0x3d1ed89e	0.0387808
5	0xbe218da3	-0.15776686
6	0x3d497d8e	0.049192004
7	0x3dd683a8	0.1047433
8	0x3cfe3e05	0.031035433
9	0xbd9fb39a	-0.07797928
10	0x3dd2f27e	0.10300158
11	0xbd012f5c	-0.031539306
12	0x3d3b8ed0	0.045790493
13	0x3d0565ca	0.032567777
14	0xbe66f15a	-0.22553006
15	0x3e0db4f6	0.13838562
16	0xbde0393c	-0.109484166
17	0xbdd8e75c	-0.10591003
18	0x3e4defa2	0.20110944
19	0x3cf28c12	0.029607806
20	0x3e33721b	0.17523997
21	0x3d937cda	0.07201548
22	0x3c53bf2c	0.012923997
23	0xbc94ad50	-0.018149048
24	0xbe156638	-0.14589775
25	0x3e38a884	0.18033034
26	0xbe58838f	-0.21143936
27	0x3e3f7202	0.18695834
28	0xbe55336c	-0.20820397
29	0xbc686f6c	-0.014186721
30	0xbe65ff7e	-0.22460744
31	0x3e3e90e5	0.1860996
32	0xbbbf4919	-0.0058375713
33	0x3e0d8c0f	0.1382296
34	0x3da85395	0.08219067
35	0xbe44dd5a	-0.19225064
36	0xbdd79d24	-0.10528019
37	0xbab81314	-0.0014043772
38	0x3d6d47ad	0.057929683
39	0xbdec9179	-0.11551184
40	0x3d13a212	0.036043234
41	0xbd58d5e6	-0.052938364
42	0x3d9d3e0c	0.0767785
43	0x3dea3609	0.11436088
44	0x3d83438a	0.064093664
45	0x3e00fbfd	0.12596126
46	0x3e294665	0.1653076
47	0x3e7485d9	0.23879184
48	0x3d2d1ccf	0.042263802
49	0x3e5a5df2	0.213249
50	0xbe5c7db8	-0.21532333
51	0xbe26c864	-0.1628738
52	0x3e4b27f4	0.1983946
53	0xbd64f945	-0.055901784
54	0x3dfca804	0.12336734
55	0x3e541e57	0.20714699
56	0xbe5a2294	-0.21302253
57	0x3e4f4b63	0.20243602
58	0xbe0f5d7e	-0.14000508
59	0xbe53011e	-0.20605895
60	0x3e3ed277	0.18634973
61	0x3d7efcef	0.062252935
62	0xbdafcd82	-0.085841194
63	0x3d1724c6	0.036900304

conv1d_2.weight f4 [64, 64, 3]
0	0xbb954ed0	-0.0045565143
1	0xbc98a6ee	-0.018634286
2	0xbd3ba193	-0.045808386
3	0xbd3da4cc	-0.04629974
4	0xbc67b010	-0.014141098
5	0xb9769e00	-0.00023519248
6	0x3be72ce0	0.00705491
7	0xbd028643	-0.031866323
8	0x3d67c8d8	0.056588024
9	0x3cccc974	0.024998404
10	0xbd0e3ce5	-0.034726042
11	0x3d378ef0	0.04481405
12	0xbd51332e	-0.0510742
13	0x3cad2490	0.021135598
14	0xbc771a64	-0.015081976
15	0x3c4dfe10	0.01257278
16	0xbd2b8dc1	-0.041883234
17	0xbd2da6c5	-0.042395372
18	0x3d8eb540	0.069681644
19	0xbd69af50	-0.057051957
20	0xba02a380	-0.000498347
21	0x3d93825a	0.07202597
22	0xbb48dc40	-0.0030648857
23	0xbd517c6a	-0.05114404
24	0xbd14656c	-0.036229536
25	0xbcfc493c	-0.03079664
26	0x3d2647ea	0.040595926
27	0x3d24fd38	0.04028055
28	0x3d5a3fb4	0.05328341
29	0x3d0a6d98	0.033795923
30	0xbc7adda0	-0.015311629
31	0x3ce2b7c8	0.027675524
32	0xbc504540	-0.012711823
33	0xbd178c1d	-0.036998857
34	0xbd1ccdbd	-0.038282145
35	0xbd1a90c3	-0.03773571
36	0x3cfdca94	0.030980386
37	0x3d871e8c	0.06597623
38	0xbd8e09b4	-0.069354445
39	0x3d12f2c8	0.035876065
40	0x3d4a0366	0.049319647
41	0x3ccf44e0	0.025301397
42	0xbc115d68	-0.008872367
43	0xbd197660	-0.037466407
44	0x3c8378b8	0.016048774
45	0x3d27f0f4	0.041001275
46	0x3ca35714	0.019938983
47	0xbc9bb500	-0.019007206
48	0xbd9326a3	-0.07185104
49	0xbd3b80b4	-0.045777038
50	0x3d7095f0	0.05873674
51	0xbc9fcc8c	-0.019506715
52	0xbd3137e2	-0.043266185
53	0x3cbe5e04	0.02323819
54	0x3d1769fa	0.0369663
55	0xbd23e44e	-0.04001265
56	0xbd3f55a4	-0.046712533
57	0xbba5a770	-0.0050553605
58	0x3be53010	0.006994255
59	0xbd1370b0	-0.03599614
60	0x3c7b2d88	0.01533068
61	0xbd5a529e	-0.053301446
62	0xbd2e7541	-0.04259229
63	0xbd8872a4	-0.06662491
64	0x3c6068e8	0.013696887
65	0xbd0e3bd7	-0.034725036
66	0xbc34d9e4	-0.011038277
67	0xbd516791	-0.05112416
68	0xbb740a60	-0.003723763
69	0xbd1655aa	-0.03670279
70	0x3d568578	0.05237338
71	0xbd32da6e	-0.043665342
72	0xbd79993b	-0.060937148
73	0x3d473b74	0.048640683
74	0x3d31f390	0.04344517
75	0xbc554618	-0.0130172
76	0x3b450c20	0.0030067042
77	0xbd77427b	-0.060366135
78	0xbccb4716	-0.02481417
79	0x3c82e9e4	0.015980668
80	0x3c12dbc8	0.008963533
81	0xbd372201	-0.044710163
82	0x3d1416e0	0.036154628
83	0xbd8de92b	-0.06929239
84	0xbd3a108d	-0.04542594
85	0xbcfcd968	-0.030865386
86	0x3ce66cc4	0.028128035
87	0xbb83ae90	-0.004018612
88	0xbd484422	-0.0488931
89	0xbd2e1d68	-0.042508513
90	0xbd0b98aa	-0.03408114
91	0x3d43aa0a	0.047769584
92	0x3c8a8a88	0.01691176
93	0xbd409b38	-0.047023028
94	0xbd708cb6	-0.058727942
95	0x3d219068	0.039444357
96	0x3cd4d4b0	0.025980324
97	0x3d1056ec	0.035239145
98	0x3cd15680	0.025553942
99	0x3c8c311c	0.01711326
100	0x3ca84824	0.020542212
101	0xbd3418cb	-0.043968957
102	0xbbc738a0	-0.0060797483
103	0x3c3173b0	0.010830805
104	0xbd59021a	-0.05298052
105	0x3d381e98	0.04495105
106	0x3d0e32a0	0.03471625
107	0xbd4aa33a	-0.04947207
108	0xbd85721c	-0.06515905
109	0xbd3f92d6	-0.046770893
110	0xbd900871	-0.0703286
111	0xbd814a88	-0.06313044
112	0x3d20c24c	0.039247796
113	0x3c9a420c	0.018830322
114	0xbd1d653f	-0.038426634
115	0xbd281ea6	-0.041044854
116	0xbd907978	-0.07054418
117	0xbc8c8f52	-0.017158184
118	0xbcf3c1a4	-0.029755421
119	0x3d721dd0	0.059110463
120	0xbd8a61a9	-0.067569084
121	0xbd742e2a	-0.059614338
122	0x3cc8c06c	0.024505816
123	0xbca6764c	-0.02032008
124	0xbd3a4ada	-0.04548154
125	0x3d22cbe6	0.039745234
126	0x3d02eb0e	0.031962447
127	0x3d767580	0.06017065
128	0x3d74fae0	0.059809566
129	0x3cd8ca90	0.026463777
130	0xbd01e343	-0.031710874
131	0x3d834dd4	0.06411329
132	0x3a0c0680	0.0005341545
133	0x3d2185b8	0.039434165
134	0x3d042190	0.03225857
135	0xbc280020	-0.010253936
136	0xbc09dd98	-0.0084146485
137	0x3c4a2708	0.012338407
138	0xbc566c8c	-0.013087403
139	0xbd53cca6	-0.05170884
140	0xbbc123b0	-0.005894147
141	0x3cd4ea84	0.025990732
142	0xbaa02c80	-0.0012220293
143	0xb9aba500	-0.00032738596
144	0x3d863b06	0.065542266
145	0x3d5d7254	0.05406411
146	0x3d006584	0.031346813
147	0x3d8c2fbc	0.06845042
148	0xbd4c860e	-0.049932532
149	0xbc7373e8	-0.014859177
150	0xbc86197c	-0.016369574
151	0xbcd12e36	-0.02553473
152	0xbcf7c48c	-0.030245088
153	0xbcaa68d2	-0.020801935
154	0xbc49ca7c	-0.012316342
155	0x3d7be8fc	0.061501488
156	0x3d0fbbb4	0.035091117
157	0xbd2fca3c	-0.042917475
158	0x3d817bcc	0.063224405
159	0xbd55d16c	-0.052201673
160	0xbd580a7c	-0.052744374
161	0xbccf5ec2	-0.025313739
162	0xbd18ecdc	-0.03733526
163	0xbd6cf419	-0.057849977
164	0x3d34993a	0.04409144
165	0xbb0653e0	-0.002049677
166	0x3d925a88	0.07146174
167	0x3d08ac76	0.033367597
168	0x3d8344d0	0.06409609
169	0xbd3d2086	-0.046173595
170	0xbcba4eb4	-0.022742607
171	0xbd39036c	-0.04516928
172	0xbc4e278c	-0.012582671
173	0xbd192888	-0.03739217
174	0x3c194320	0.009354383
175	0xbd503e2e	-0.05084055
176	0xbc930e24	-0.017951079
177	0xbd35c9fe	-0.044382088
178	0xbd23c3d7	-0.03998169
179	0xbc6b9ed0	-0.014381126
180	0x3cf1da20	0.029522955
181	0xbd32334e	-0.04350596
182	0xbbc8d730	-0.006129168
183	0x3d4ad2d2	0.04951746
184	0xbd7c3e90	-0.0615831
185	0xbcea4a8a	-0.028599996
186	0x3d100fbc	0.035171255
187	0xbd4ebca0	-0.050472856
188	0x3d524588	0.05133584
189	0xbc8c3e5e	-0.017119583
190	0xbc6f9808	-0.014623649
191	0xbd19e1ba	-0.037568785
192	0xbc3f52fe	-0.011677502
193	0x3d1678a2	0.03673614
194	0xbd21990a	-0.03945259
195	0xbcd46908	-0.025928989
196	0xbce3d411	-0.027811082
197	0x3d848f15	0.06472603
198	0xbd8b71b6	-0.06808798
199	0xbcd23e00	-0.02566433
200	0x3d78cae4	0.060740367
201	0x3d218348	0.03943184
202	0xbbe62fc0	-0.007024735
203	0xbcd2df7a	-0.025741328
204	0xbc97d5dd	-0.018534595
205	0xbd991635	-0.07474939
206	0x3d85d26a	0.06534274
207	0xbccd142c	-0.025034033
208	0x3d11e794	0.03562124
209	0x3d2b8200	0.041872025
210	0x3cf8b7ad	0.030361021
211	0xbd5b5c33	-0.053554725
212	0xbd88566a	-0.06657107
213	0xbd9011f4	-0.07034674
214	0xbd4f777b	-0.050651055
215	0xbd85187c	-0.06498811
216	0xbd19f27e	-0.037584774
217	0x3d625cd0	0.055264294
218	0xbd7a7444	-0.061146036
219	0x3d7c4bb0	0.06159562
220	0xbd8c9ad3	-0.06865468
221	0xbc9d9962	-0.019238178
222	0x3c68ff2f	0.014220997
223	0xbd0acdaa	-0.033887543
224	0x3d816d6a	0.06319697
225	0x3d50c398	0.050967783
226	0x3cec09f4	0.02881334
227	0xbd2ebd17	-0.0426608
228	0x3c1d1bb4	0.0095891245
229	0xbd307677	-0.043081727
230	0xbd90765e	-0.07053827
231	0xbd0e5bd3	-0.03475554
232	0xbd8129ba	-0.06306787
233	0x3c86533a	0.016397107
234	0x3d1aa2c0	0.037752867
235	0xbd54d80e	-0.05196386
236	0xbd2b141d	-0.04176723
237	0xbd935a31	-0.07194937
238	0x3d5e5b71	0.054286424
239	0xbd83bbc3	-0.06432297
240	0x3d3bc370	0.04584068
241	0x3d7b1ec0	0.061308622
242	0x3d0865c8	0.03330019
243	0xbd52a43a	-0.05142615
244	0xbd88dae4	-0.06682375
245	0xbd5a6684	-0.053320423
246	0x3d4436ef	0.04790395
247	0x3c6cc909	0.014452227
248	0x3d28b8d2	0.041191883
249	0x3d6760ca	0.05648879
250	0x3b850db0	0.0040604696
251	0x3c02e518	0.0079891905
252	0x3b5a1082	0.0033274
253	0x3d639f5e	0.055571906
254	0xbd2df78d	-0.04247241
255	0x3d179fe0	0.037017703

conv1d_2.bias f4 [64]
0	0x3c7ae188	0.01531256
1	0x3b03558d	0.0020040006
2	0x3cf282e3	0.029603427
3	0xbc6f3146	-0.01459915
4	0xbd6a6f82	-0.05723525
5	0xbc799dec	-0.015235405
6	0x39b5f1f2	0.00034703274
7	0xbb028b3c	-0.0019919416
8	0x3d53e242	0.05172945
9	0xbd459fc0	-0.048248053
10	0x3c910a23	0.017705029
11	0xbd3d4136	-0.046204768
12	0x3d82d9ac	0.06389174
13	0xbd1f9082	-0.038956173
14	0x3d01a43d	0.03165077
15	0xbb340015	-0.002746587
16	0x3caff427	0.021478726
17	0xbd471d10	-0.0486117
18	0xbd8fd417	-0.07022875
19	0x3d195cc4	0.037441984
20	0xbd591955	-0.053002674
21	0x3d1a3db4	0.0376565
22	0xbcc1bdc6	-0.023650061
23	0x3d5af40d	0.0534554
24	0x3d8080f7	0.06274598
25	0x3d05c1f6	0.03265568
26	0x3c600f7a	0.013675565
27	0xbcd63230	-0.026146978
28	0xbd73678a	-0.059424914
29	0xbd8f94e2	-0.07010819
30	0xbd715415	-0.058918077
31	0x3d5bb67b	0.053640824
32	0xbd2c77d3	-0.04210646
33	0x3c5976f5	0.0132729905
34	0xbd06457f	-0.03278112
35	0x3cff5107	0.031166567
36	0xbc950a3d	-0.018193359
37	0x3d736b2c	0.05942838
38	0xbd80ca65	-0.06288604
39	0xbc5ec059	-0.013595664
40	0xbcaf4ca0	-0.021398842
41	0xbd2e0556	-0.042485557
42	0xbd4e3161	-0.05034006
43	0xbbd8e633	-0.0066192388
44	0xbccab588	-0.024744764
45	0xbd6dbc5e	-0.05804097
46	0xbcc8b290	-0.024499208
47	0xbd32bfaa	-0.043639816
48	0x3d845f53	0.06463494
49	0x3c07e73d	0.008294878
50	0x3c6b55db	0.014363731
51	0xbc3e7620	-0.011624843
52	0xbce9f23c	-0.02855789
53	0x3d3235af	0.043508228
54	0xbd661961	-0.056176547
55	0xbc554192	-0.013016121
56	0xbbf08393	-0.0073399036
57	0xbd2f3541	-0.042775396
58	0x3d6c6918	0.057717413
59	0xbd7acab9	-0.061228488
60	0xbd9171ca	-0.07101782
61	0x3d899f46	0.06719832
62	0x3bac5e46	0.0052602617
63	0xbbf6cd39	-0.0075317887

lstm.weight_ih_l0 f4 [128, 64]
0	0xbd115008	-0.035476714
1	0x3d8915b8	0.06693596
2	0x3c09d29f	0.008412032
3	0xbe49e23b	-0.19715206
4	0xbd51e492	-0.051243372
5	0xbd65f3be	-0.056140654
6	0x3de3dc0a	0.111259535
7	0xbd8c30a9	-0.06845219
8	0x3dda627f	0.10663318
9	0xbe226da0	-0.15862131
10	0x3cba1f49	0.022719996
11	0xbe29ea8d	-0.1659338
12	0xbd117d75	-0.035520036
13	0xbd103497	-0.035206404
14	0xbd59894b	-0.05310945
15	0xbd4f647a	-0.05063293
16	0x3e0fe53b	0.14052288
17	0xbcef179a	-0.029186059
18	0xbe33f2f2	-0.17573145
19	0x3e0ea99b	0.13931887
20	0xbcd0c9d8	-0.025486872
21	0x3d6a4d92	0.057202883
22	0x3d7f65f1	0.06235308
23	0x3d4a1eee	0.049345903
24	0xbc32e44c	-0.010918688
25	0xbe0ab158	-0.13544214
26	0x3d64b0b3	0.055832576
27	0x3e155181	0.14581873
28	0xbdbcbc1d	-0.09215567
29	0xbe2f86f5	-0.17141326
30	0x3e1c6d66	0.15276107
31	0x3dae21b1	0.0850252
32	0xbd7baefa	-0.061446168
33	0x3cd1ef70	0.025626868
34	0x3d43a430	0.047764003
35	0xbe28f713	-0.16500501
36	0xbe086559	-0.13319911
37	0xbdb15573	-0.08658876
38	0xbdd5732b	-0.10422357
39	0x3e2266b8	0.15859497
40	0xbcbff90e	-0.023434188
41	0xbdce47e8	-0.10072309
42	0xbd5fce7e	-0.054640286
43	0xbd93b4c0	-0.0721221
44	0x3da9a736	0.08283846
45	0xbd71b539	-0.059010718
46	0xbda51020	-0.08059716
47	0x3e193ae1	0.14963867
48	0xbd387364	-0.04503192
49	0x3bc1ef74	0.0059184376
50	0x3d4a0540	0.049321413
51	0x3de0e621	0.109813936
52	0xbe1f3fed	-0.1555173
53	0xbd18d0aa	-0.037308373
54	0x3e271fef	0.16320775
55	0x3d78af77	0.06071421
56	0xbe01ac02	-0.12663272
57	0xbd8d55f3	-0.06901159
58	0xbe0c1e8e	-0.1368353
59	0xbe195c50	-0.1497662
60	0xbe26dfdf	-0.16296338
61	0xbe53b3af	-0.20674013
62	0xbcfb91f4	-0.030709244
63	0x3d46725c	0.048448905
64	0x3dd85dae	0.10564743
65	0xbda3c0df	-0.079957716
66	0xbcd7cdc3	-0.026343232
67	0xbdb8d9ba	-0.09025903
68	0x3d67200e	0.056427054
69	0x3d36c498	0.04462108
70	0xbe1c1894	-0.15243751
71	0x3d56899b	0.052377325
72	0x3dbf0bb0	0.09328401
73	0xbd712511	-0.05887324
74	0x3d5a74c3	0.05333401
75	0xbcac3978	-0.021023497
76	0xbcea4098	-0.028595254
77	0x3db0aca1	0.08626676
78	0x3e26b888	0.1628133
79	0x3c8e2d81	0.017355682
80	0xbdd7399c	-0.10509035
81	0x3e2e5c89	0.17027487
82	0x3df3e40c	0.11908731
83	0x3d0f3e5b	0.034971576
84	0xbe201c6f	-0.15635847
85	0x3dabd6b8	0.08390564
86	0xbe070e82	-0.13189128
87	0xbcf0c73e	-0.029391881
88	0xbdb322cc	-0.08746871
89	0xbe1b32f2	-0.15156153
90	0xbe1544fd	-0.14577098
91	0x3e2dfd79	0.16991223
92	0x3d307cd2	0.043087788
93	0xbd174dbc	-0.036939368
94	0x3cb0dcb0	0.021589607
95	0x3ddaade7	0.106777005
96	0xbca0b8c6	-0.019619357
97	0xbd13f017	-0.03611764
98	0x3d9412a1	0.07230116
99	0x3e229026	0.15875301
100	0x3c892d94	0.016745366
101	0x3de7ab7c	0.11312005
102	0xbde883bb	-0.113532506
103	0x3b2641a4	0.0025368715
104	0xbdd174ca	-0.10227354
105	0xbd5cc2d2	-0.053896733
106	0xbce1a4da	-0.027544428
107	0x3c2db5ac	0.010602396
108	0x3e2d4cdf	0.16923855
109	0x3d3b40c3	0.04571606
110	0x3c9c9650	0.019114643
111	0xbd6205cc	-0.05518131
112	0xbdcb1aff	-0.099172585
113	0x3e1797a5	0.14803942
114	0x3db5e7d1	0.08882106
115	0x3d5928b9	0.05301735
116	0xbe0c09c7	-0.13675605
117	0x3da12cb2	0.07869853
118	0xbbd1ea80	-0.0064061284
119	0xbd3751b9	-0.04475567
120	0xbc906f95	-0.017631331
121	0xbd9f024f	-0.07764112
122	0x3de6078d	0.11231909
123	0x3c3b2d00	0.011424303
124	0xbda7572e	-0.08170925
125	0x3cd17a31	0.02557096
126	0xbd070590	-0.03296429
127	0x3c8c40d4	0.017120756
128	0xbd90cbd2	-0.07070126
129	0xbc805b1d	-0.015668446
130	0x3e411e2c	0.18859166
131	0xbe03af23	-0.12859778
132	0x3e1bbb4f	0.15208171
133	0x3e277793	0.16354208
134	0xbde39226	-0.1111186
135	0xbe0b569c	-0.13607258
136	0x3e29728e	0.16547605
137	0xbe18aaa1	-0.1490884
138	0x3d018784	0.03162338
139	0xbd5e7272	-0.054308362
140	0xbdd5275f	-0.104079
141	0xbd303eed	-0.04302876
142	0x3ddffaf9	0.10936541
143	0xbde2d293	-0.1107532
144	0x3d6ce2fb	0.057833653
145	0xbd180b02	-0.037119873
146	0x3e12d0d0	0.14337468
147	0xbe31909c	-0.1734032
148	0xbe2faf3c	-0.1715669
149	0xbcc49ef2	-0.024001572
150	0x3e037bd6	0.12840208
151	0xbd2c5bf0	-0.042079866
152	0xbe26cd6e	-0.16289303
153	0x3ca7628a	0.02043273
154	0x3b5860c6	0.0033016666
155	0x3e34d053	0.17657594
156	0xbddc1bed	-0.10747514
157	0x3e30515f	0.1721854
158	0xbcf8c0d1	-0.03036538
159	0x3d1ba53f	0.037999388
160	0xbb150f2e	-0.0022744644
161	0xbb358610	-0.0027698316
162	0xbdf3f0cd	-0.119111635
163	0x3dc5055a	0.09620161
164	0xbdb2473c	-0.08704993
165	0xbe0e2748	-0.13882172
166	0x3e259083	0.16168408
167	0x3e364862	0.1780105
168	0xbddea28a	-0.108708456
169	0xbd9b39cc	-0.07579383
170	0xbde6bc27	-0.11266356
171	0x3d8168fd	0.06318853
172	0xbe23946a	-0.15974584
173	0xbd5d22a7	-0.053988125
174	0x3e347965	0.17624433
175	0x3bd5fea0	0.006530598
176	0xbd202bc6	-0.039104246
177	0xbc6e207c	-0.014534112
178	0x3e3060d6	0.1722444
179	0x3e314c24	0.17314202
180	0x3e2ab6b2	0.16671255
181	0x3e255984	0.16147429
182	0x3db40a12	0.08790983
183	0xbddca951	-0.10774482
184	0xbc45bf97	-0.012069604
185	0xbdaeb965	-0.08531455
186	0x3e0cda59	0.13755168
187	0x3e09f1e3	0.13471179
188	0xbded672d	-0.11591945
189	0x3bb0f42c	0.0054002013
190	0x3deae94a	0.114702776
191	0xbd7a8e6c	-0.06117098
192	0x3de5fe8e	0.11230193
193	0x3d8f4f65	0.06997565
194	0x3dd67bad	0.10472808
195	0xbe003718	-0.12521017
196	0xbde5310a	-0.11190994
197	0xbd66a47a	-0.0563092
198	0xbdd3e2f8	-0.10346025
199	0x3cf4e149	0.02989258
200	0x3d8e2037	0.06939738
201	0x3c0bd982	0.008535745
202	0xbc855f12	-0.016280685
203	0xbcfae010	-0.03062442
204	0xbd321b1a	-0.043482877
205	0x3df82384	0.12116149
206	0xbd5997c9	-0.05312327
207	0xbd8cc236	-0.0687298
208	0x3c216c18	0.009852432
209	0xbd0968e6	-0.033547305
210	0x3bc51dd9	0.006015521
211	0x3d9bee37	0.07613795
212	0x3e15b4f1	0.14619805
213	0xbe222c81	-0.1583729
214	0x3e2dc482	0.16969493
215	0xbdcc169d	-0.09965251
216	0xbe1950a4	-0.14972168
217	0x3d3f6a09	0.046731982
218	0xbd28f5a0	-0.04124987
219	0x3e27b205	0.16376503
220	0x3d522735	0.051306922
221	0x3e19eeab	0.15032451
222	0xbd7dc1f0	-0.06195253
223	0x3e2e4960	0.17020178
224	0xbd83e771	-0.06440628
225	0x3ce66979	0.028126465
226	0x3ce8cf3f	0.028419135
227	0x3d8f25c4	0.06989625
228	0x3cd1a0a8	0.025589302
229	0xbcd61b96	-0.0261362
230	0xbdb3d430	-0.08780706
231	0xbe348269	-0.17627873
232	0x3d222a32	0.03959102
233	0xbe1f5ab8	-0.1556195
234	0x3e1ac787	0.15115176
235	0xbd3dfde7	-0.04638472
236	0xbdd4d3bc	-0.103919476
237	0x3e0000fe	0.12500378
238	0xbd43f6c4	-0.047842756
239	0xbe25eb67	-0.1620308
240	0x3cc85ec7	0.024459256
241	0x3e1fb6d9	0.15597095
242	0xbcb5c451	-0.022188338
243	0xbdbfd0e7	-0.09366017
244	0x3b873502	0.004126192
245	0x3e1de328	0.15418684
246	0xbd115e24	-0.03549017
247	0xbd2ee0cd	-0.042694855
248	0x3dcf6808	0.10127264
249	0xbd4c6c60	-0.049908042
250	0x3c45ceb4	0.012073208
251	0x3d96d031	0.07363928
252	0xbe261f4c	-0.16222876
253	0x3c694b14	0.014239091
254	0xbd18f50d	-0.037343074
255	0xbd4dd13b	-0.050248366

lstm.weight_hh_l0 f4 [128, 32]
0	0x3ddeecc9	0.10885007
1	0xb99fc1c3	-0.00030471207
2	0xbca3a9d0	-0.019978434
3	0x3e34b1d0	0.17645955
4	0x3e0e8427	0.139176
5	0x3d52aed8	0.051436275
6	0x3de8d1f2	0.11368169
7	0xbd6987ff	-0.05701446
8	0x3be8786a	0.0070944326
9	0xbd88aae3	-0.06673219
10	0x3e064b3a	0.13114634
11	0x3dbd0fa0	0.09231496
12	0xbc4d0fd6	-0.012515983
13	0xbd9cf8d9	-0.076646514
14	0x3d226d17	0.039654817
15	0xbdbc2e99	-0.09188575
16	0xbd28acc4	-0.041180387
17	0x3e527f63	0.20556407
18	0x3dc1592a	0.09440835
19	0x3da29e5f	0.07940363
20	0x3e47eeaa	0.19524637
21	0xbe2e681e	-0.17031905
22	0x3e26bd31	0.16283108
23	0xbdf1729d	-0.11789439
24	0x3cca0028	0.024658278
25	0x3e3c4937	0.18387304
26	0xbe141208	-0.14460003
27	0x3d6e9412	0.05824668
28	0x3db331a9	0.08749706
29	0x3e28455a	0.16432706
30	0xbc7fc156	-0.01561006
31	0x3e3718b1	0.17880513
32	0xbd6646d8	-0.056219906
33	0xbe27dfb1	-0.16393925
34	0x3c70e0bc	0.014702018
35	0x3cfb8d7e	0.030707117
36	0x3d8ca804	0.06867984
37	0xbd537359	-0.051623676
38	0xbdaf24cf	-0.085519426
39	0xbe0ec35e	-0.13941714
40	0x3d17b434	0.03703709
41	0x3e274e70	0.16338515
42	0xbde36dde	-0.1110494
43	0x3d28acdc	0.041180477
44	0x3dd87b78	0.10570425
45	0xbb9680c3	-0.0045929863
46	0x3de2b4d3	0.11069646
47	0xbdb87403	-0.090065025
48	0x3e1b43c2	0.15162566
49	0xbd51f45d	-0.051258434
50	0x3d9cd501	0.07657815
51	0xbe179b6e	-0.14805385
52	0xbbdb50e3	-0.006692992
53	0xbcb4ff0e	-0.022094276
54	0x3d7f14ef	0.062275823
55	0xbde9a478	-0.11408323
56	0x3c958999	0.018254088
57	0xbdfd1913	-0.12358298
58	0xbd56882b	-0.052375954
59	0x3e308598	0.17238462
60	0xbd730ba0	-0.05933726
61	0x3d7841f9	0.06060979
62	0x3b88549a	0.004160476
63	0xbdf0b771	-0.11753739
64	0xbdf9022b	-0.12158617
65	0x3d727142	0.059190042
66	0x3c5d11fe	0.013493059
67	0xbe105cac	-0.14097852
68	0xbe21f5bd	-0.15816398
69	0x3de36b15	0.11104409
70	0x3d9c9eb8	0.07647461
71	0x3ceffe96	0.0292962
72	0xbde08c73	-0.109642886
73	0xbe1436e9	-0.14474072
74	0x3c8046da	0.015658785
75	0x3e30fcb2	0.17283896
76	0xbd493a59	-0.04912791
77	0x3de32597	0.11091154
78	0xbd372cf0	-0.04472059
79	0xbd8ab9ea	-0.067737415
80	0xbe24adb9	-0.16081895
81	0xbc967612	-0.018366847
82	0xbe0fb69b	-0.14034502
83	0xbd928944	-0.071550876
84	0x3db817d3	0.08988919
85	0xbe0760c6	-0.1322051
86	0xbdeb3ec2	-0.114865795
87	0xbca757a0	-0.020427525
88	0xbd85199e	-0.06499027
89	0x3d1411fc	0.036149964
90	0x3da49a94	0.08037296
91	0xbc9e4b29	-0.019322949
92	0xbde015b5	-0.1094164
93	0xbd387b6e	-0.045039587
94	0x3e1094e9	0.14119305
95	0x3ded9aa3	0.1160176
96	0x3ddc14c6	0.1074615
97	0xbe1a4626	-0.15065822
98	0x392cc40f	0.00016476236
99	0x3cc71d81	0.02430606
100	0x3d8bf93c	0.06834647
101	0x3dfd72d0	0.12375414
102	0xbdbd3769	-0.09239084
103	0x3b90164d	0.0043971897
104	0x3d6db5b5	0.058034617
105	0xbcbfcdb2	-0.023413513
106	0xbdeb668f	-0.11494171
107	0x3cf770dd	0.030205185
108	0xbe1628ef	-0.14664052
109	0xbe3a2846	-0.18179426
110	0x3e1da044	0.15393168
111	0x3e056269	0.13025822
112	0xbce27ca8	-0.027647331
113	0xbc557467	-0.013028241
114	0xbcb02076	-0.021499854
115	0xbd29cebc	-0.041456923
116	0x3df77775	0.120833315
117	0x3e1c3179	0.15253247
118	0x3e13d19b	0.14435427
119	0x3e39c847	0.18142806
120	0x3ddb1d6e	0.10698973
121	0x3d98d13c	0.07461783
122	0x3d87115f	0.0659511
123	0x3ddffb7e	0.1093664
124	0xb97a4096	-0.00023865918
125	0x3e0197dc	0.12655586
126	0x3e09f302	0.13471606
127	0x3e453d19	0.19261588
128	0x3d9f8541	0.07789088
129	0x3d2f4981	0.04279471
130	0xbe226010	-0.15856957
131	0x3d2e8d9b	0.042615514
132	0xbd85bdd5	-0.06530348
133	0xbe06a48c	-0.13148707
134	0xbe3b578f	-0.1829512
135	0xbd978de9	-0.07400114
136	0xbd5762a1	-0.052584294
137	0x3c8f73c6	0.01751126
138	0x3e7dbbc4	0.24778658
139	0xbd83e17c	-0.06439492
140	0xbd97fdf6	-0.07421486
141	0x3e13cd00	0.1443367
142	0x3d9b17a4	0.075728685
143	0x3d4691e0	0.04847896
144	0x3d9195bf	0.0710864
145	0xbd30e3a9	-0.043185864
146	0xbc75234d	-0.01496203
147	0x3d0c89ff	0.03431129
148	0x3e6c1c46	0.2305766
149	0xbcc11395	-0.023568908
150	0xbe04563a	-0.12923518
151	0x3ce09f7f	0.027419804
152	0xbc713680	-0.0147224665
153	0x3de7def6	0.11321823
154	0xbd03a31f	-0.032137986
155	0xbd5af587	-0.05345681
156	0xbc38e6a3	-0.011285457
157	0x3cff8ff2	0.031196568
158	0x3e23fdfb	0.16014855
159	0x3e2d182b	0.1690375
160	0x3d4a4651	0.049383465
161	0x3ddfd8e1	0.10930038
162	0x3e0f792f	0.14011072
163	0x3e102687	0.14077197
164	0x3dcdec17	0.10054796
165	0xbe1a7d40	-0.15086842
166	0x3d9fc59a	0.078013614
167	0xbe12f69d	-0.14351888
168	0xbc9f41fc	-0.019440643
169	0xbe25f7a2	-0.16207746
170	0x3c313e42	0.010818066
171	0xbe4ec767	-0.20193253
172	0xbe0c94a9	-0.13728584
173	0xbddeb4c2	-0.108743206
174	0xbe3b65c9	-0.18300547
175	0xbdd534cd	-0.104104616
176	0xbdcb1e2b	-0.099178635
177	0x3de9b086	0.11410622
178	0x3d3cf575	0.046132524
179	0x3d6f45a4	0.058416024
180	0x3df3a6a0	0.118970156
181	0xbd279ae6	-0.040919207
182	0x3bc514f9	0.006014463
183	0x3caa38f3	0.020779109
184	0xbd3f5d10	-0.04671961
185	0xbe259855	-0.16171391
186	0x3e0cb80a	0.1374208
187	0xbda6108d	-0.081086256
188	0xbd9b3b77	-0.075797014
189	0x3c2d3db3	0.010573792
190	0xbdae37d9	-0.08506746
191	0xbe1455be	-0.14485833
192	0xbdc75bdb	-0.09734317
193	0x3d88490b	0.06654557
194	0xbe09eabf	-0.13468455
195	0xbdcbcda4	-0.09951332
196	0x3cd9614b	0.02653565
197	0xbd4f6a83	-0.050638687
198	0x3d146eb1	0.036238376
199	0x3cca5b1e	0.024701651
200	0x3d1256fc	0.035727486
201	0x3e5488d9	0.20755328
202	0x3d309dd8	0.04311928
203	0x3bff8e7a	0.007798967
204	0xbd538dc7	-0.05164888
205	0xbcd86391	-0.026414664
206	0x3dfd35fc	0.12363812
207	0x3d4dae37	0.050214972
208	0x3e21994c	0.15781134
209	0x3d96a29f	0.07355236
210	0xbd33e7cb	-0.043922227
211	0xbc00ed3d	-0.007869062
212	0x3ceb4e99	0.028724002
213	0xbbdc9ae2	-0.0067323307
214	0xbd6b0f5d	-0.0573877
215	0x3e20ec21	0.15715076
216	0xbde0ac57	-0.10970371
217	0x3dbab20e	0.091159925
218	0x3d88fdad	0.0668901
219	0x3e5e0e33	0.21685104
220	0xbd432744	-0.04764487
221	0xbd84db8d	-0.064871885
222	0x3d7da517	0.06192502
223	0x3db83929	0.089952774
224	0x3c832654	0.016009487
225	0xbe2ebacc	-0.17063445
226	0xbd55a0d0	-0.052155316
227	0x3e01ae9f	0.12664269
228	0x3c59f51c	0.013303068
229	0x3d5a8b6a	0.05335561
230	0xbe0a7e6c	-0.13524789
231	0x3b028d51	0.0019920657
232	0x3d879cce	0.06621705
233	0x3b724d9d	0.003697253
234	0xbe442f11	-0.1915858
235	0x3ae3f8ee	0.0017392912
236	0x3d94aa1d	0.07259009
237	0x3dff775a	0.124739364
238	0xbc8be003	-0.01707459
239	0x3e057fb5	0.13036998
240	0xbd403a15	-0.04693039
241	0x3c48a580	0.0122464895
242	0xbdd8c9d1	-0.105853684
243	0x3e2c6380	0.16834831
244	0x3d35b610	0.04436308
245	0x3e1b380f	0.15158103
246	0x3d5a38c6	0.0532768
247	0xbd513932	-0.051079936
248	0x3e10ed69	0.14153065
249	0xbdda04ed	-0.10645471
250	0x3d550524	0.052006856
251	0x3e2452e5	0.16047247
252	0xbdda6d17	-0.106653385
253	0xbd073839	-0.033012602
254	0xbde43c94	-0.11144367
255	0x3d613fc6	0.05499246

lstm.bias_ih_l0 f4 [128]
0	0x3d294e0d	0.0413342
1	0x3e207317	0.15668903
2	0xbe0a51e9	-0.13507809
3	0xbd0afc20	-0.03393185
4	0xbe4efaa9	-0.20212807
5	0x3c8d19a4	0.01722414
6	0x3da5f55a	0.08103438
7	0xbddd92ce	-0.108190164
8	0xbd332f22	-0.04374612
9	0x3db82fba	0.08993478
10	0x3dae6c82	0.0851679
11	0x3da2cc06	0.07949071
12	0xbc1b38a7	-0.009473956
13	0xbe0611c2	-0.13092712
14	0x3c714264	0.014725301
15	0x3e1f0f4e	0.15533182
16	0xbd007210	-0.03135878
17	0x3e03ecc1	0.12883283
18	0x3ca3fcf1	0.020018073
19	0x3d9c8155	0.076418556
20	0x3dc4795b	0.09593459
21	0xbe06a862	-0.1315017
22	0x3e0a8b8a	0.13529792
23	0x3ddbe0f7	0.10736268
24	0x3e01e1cf	0.12683795
25	0x3daa2fd4	0.08309904
26	0xbc700861	-0.014650435
27	0xbe1a599a	-0.15073243
28	0x3e3e16bb	0.18563358
29	0x3dd3f419	0.10349292
30	0xbe0749ba	-0.13211718
31	0xbe1ef97f	-0.15524863
32	0x3d8a7111	0.06759847
33	0xbded2da6	-0.115809724
34	0x3d3c2c21	0.045940522
35	0xbcad2f8c	-0.021140836
36	0xbe08ac01	-0.13346864
37	0x3d7d482f	0.061836418
38	0x3de31db5	0.110896505
39	0x3d70182d	0.058616806
40	0x3e06e004	0.13171393
41	0x3e3c428c	0.1838476
42	0xbd931ccb	-0.07183226
43	0x3db47091	0.08810533
44	0x3c8c90e7	0.017158939
45	0xbdeefa41	-0.11668826
46	0x3c06a4d9	0.008218014
47	0xbc961b60	-0.0183236
48	0xbd6652be	-0.056231253
49	0x3a5cf16b	0.0008428308
50	0xbcb45324	-0.0220123
51	0xbe1cc6be	-0.15310189
52	0x3e1f3f57	0.15551506
53	0xbd85892c	-0.06520304
54	0xbe3a8ef3	-0.18218593
55	0xbc7c9d7f	-0.015418409
56	0xbd7d78f7	-0.06188294
57	0xbe0f2efa	-0.13982764
58	0x3e0ebbda	0.13938847
59	0x3e0f1496	0.13972697
60	0xbe15c7c2	-0.14626983
61	0x3d5cb9e3	0.053888213
62	0x3dd38312	0.10327734
63	0xbd864b5a	-0.06557341
64	0x3d833e50	0.064083695
65	0x3d97e4ab	0.07416662
66	0xbdfc9167	-0.12332421
67	0xbddea1f2	-0.10870732
68	0xbe1938cf	-0.14963077
69	0x3e057f36	0.13036808
70	0x3e0485ab	0.12941615
71	0xbd8b1097	-0.06790274
72	0x3e287037	0.16449057
73	0xbcd034f6	-0.025415879
74	0x3de2e647	0.11079078
75	0xbd068cbb	-0.032849055
76	0x3e30b9fd	0.17258449
77	0x3d3845ef	0.04498857
78	0x3cd1d266	0.025613021
79	0xbde9afb0	-0.11410463
80	0xbe0edcf0	-0.13951468
81	0x3d90c111	0.070680745
82	0x3e16e3b3	0.14735298
83	0xbdf4724b	-0.11935862
84	0xbdc83d0a	-0.09777267
85	0x3e01a686	0.1266118
86	0xbc0d89fe	-0.008638857
87	0xbd5b8925	-0.053597588
88	0xbba44013	-0.005012521
89	0xbdc43ca0	-0.09581876
90	0xbd1af92e	-0.037835293
91	0x3da26b9c	0.07930681
92	0xbb6953e2	-0.0035602977
93	0xbe364fd2	-0.17803887
94	0xbd84aa9a	-0.06477852
95	0x3dd1507c	0.10220429
96	0xbd065060	-0.032791495
97	0x3dcfcb18	0.10146159
98	0xbe2994ef	-0.1656072
99	0x3c9f0c4e	0.019415047
100	0x3d592ca8	0.053021103
101	0xbe3105fd	-0.1728744
102	0xbe26fc2e	-0.16307136
103	0xbe023219	-0.12714423
104	0xbd81de0a	-0.06341179
105	0x3db0f669	0.08640749
106	0x3e1206dd	0.1426043
107	0xbd6299fc	-0.055322632
108	0xbe0523a5	-0.13001879
109	0xbe36b188	-0.1784116
110	0x3d42dc93	0.047573637
111	0xbd219407	-0.03944781
112	0xbd8529d2	-0.06502117
113	0x3e386096	0.18005595
114	0xbe14be98	-0.14525831
115	0xbe11b316	-0.14228472
116	0xbd87792e	-0.0661491
117	0x3deff161	0.11715961
118	0xbda4df40	-0.08050394
119	0xbdec2448	-0.115303576
120	0x3d64e2cc	0.055880353
121	0xbe015005	-0.12628181
122	0xbdaba3e3	-0.08380868
123	0xbc339e93	-0.0109631
124	0x3d6ab2c2	0.057299383
125	0x3df917e1	0.12162758
126	0x3db5d264	0.088780195
127	0x3dbe327f	0.09286975

lstm.bias_hh_l0 f4 [128]
0	0x3d905922	0.07048251
1	0xbe2195a5	-0.15779741
2	0xbe1e2a67	-0.15445863
3	0xbddd0a11	-0.10792936
4	0xbd9b2589	-0.07575519
5	0xbdc0ed8e	-0.0942031
6	0x3e1a7b85	0.15086181
7	0x3e0bd80a	0.13656631
8	0xbd308cae	-0.043102913
9	0x3c7b3fc4	0.015335027
10	0xbdbe8db8	-0.093043745
11	0x3d30592b	0.043053787
12	0x3d36ec7a	0.044659115
13	0x3d5a883b	0.053352576
14	0x3e25ad94	0.16179496
15	0x3e06efd0	0.13177419
16	0x3e395390	0.18098283
17	0x3e224dcf	0.15849994
18	0x3e2d96e5	0.16952093
19	0x3d4ddf81	0.050261978
20	0x3b11ab29	0.0022227264
21	0x3d885552	0.066568986
22	0x3d8914dc	0.06693432
23	0xbda50965	-0.080584325
24	0x3e334fa1	0.17510845
25	0x3d649a99	0.0558115
26	0x3da18bfb	0.07888027
27	0x3e10cd46	0.14140806
28	0x3dba4386	0.0909491
29	0x3d8bdfdb	0.068298064
30	0x3ddf1c06	0.10894017
31	0xbe27e4c5	-0.16395862
32	0xbd6e2034	-0.05813618
33	0xbac71da7	-0.0015191332
34	0xbe3b71ec	-0.18305176
35	0xbdf76d40	-0.12081385
36	0x3d2a6c08	0.041606933
37	0xbe105270	-0.14093947
38	0x3d2af1f8	0.041734666
39	0x3cebf145	0.02880157
40	0x3dd2788d	0.102768995
41	0x3e2cb092	0.16864231
42	0x3b455a59	0.0030113666
43	0x3d974e6f	0.07388007
44	0xbe1d3346	-0.1535159
45	0x3d3f5573	0.04671235
46	0x3d8ed49e	0.06974147
47	0xbdead9ee	-0.11467348
48	0xbd0bca70	-0.034128606
49	0x3e0e4333	0.13892822
50	0xbe2247d3	-0.15847711
51	0x3d08b250	0.033373177
52	0x3d9dd0f3	0.077058695
53	0x3d2d78b0	0.042351425
54	0xbd6fd325	-0.058550972
55	0xbd85e74b	-0.06538256
56	0xbdcc3734	-0.09971467
57	0x3d3562e9	0.04428378
58	0xbb210561	-0.0024569856
59	0xbde86fcb	-0.11349448
60	0xbe133316	-0.14374956
61	0x3dc031f4	0.09384528
62	0xbe187d79	-0.14891614
63	0xbe1bf1d9	-0.15228976
64	0x3b5c812e	0.0033646333
65	0xbdbe5a1b	-0.0929453
66	0x3dd17d03	0.10228922
67	0x3d491c51	0.04909927
68	0x3d9dd2c1	0.07706214
69	0x3dcb0c83	0.09914496
70	0x3d2c6375	0.042087037
71	0x3ddbe33f	0.10736703
72	0xbe1be283	-0.15223126
73	0x3df1d391	0.11807931
74	0x3e23c48f	0.1599295
75	0x3dfa4860	0.12220836
76	0xbdcb1fff	-0.09918212
77	0x3b97808e	0.004623479
78	0xbde8a31e	-0.11359237
79	0xbde7b1f4	-0.11313239
80	0x3e1cb7d4	0.153045
81	0xbdfe19e3	-0.12407281
82	0x3d105ea7	0.035246518
83	0xbe04a4ce	-0.12953493
84	0x3e1157ba	0.14193621
85	0xbd15aab9	-0.036539767
86	0x3e01e69a	0.12685624
87	0xbdba4055	-0.090943016
88	0xbdcd2715	-0.1001722
89	0x3daef852	0.08543457
90	0x3d1f19d4	0.03884299
91	0x3d071725	0.032981057
92	0x3dd58472	0.104256526
93	0x3e203d90	0.15648484
94	0xbd22d20a	-0.03975109
95	0xbd8b866c	-0.06812748
96	0x3dc9b86d	0.098496296
97	0xbe137c6a	-0.14402929
98	0xbc3339ab	-0.010939042
99	0xbd383826	-0.044975422
100	0xbddc3f72	-0.10754289
101	0xbe137b71	-0.14402558
102	0x3cfb4cf7	0.030676348
103	0x3c1ade4f	0.009452417
104	0x3c85a463	0.016313737
105	0x3dec71f9	0.11545176
106	0xbdb8917f	-0.09012126
107	0xbe4e92e5	-0.20173223
108	0x3dd6b71c	0.10484144
109	0xbe07a796	-0.13247523
110	0xbe26d487	-0.1629201
111	0x3e321150	0.17389417
112	0x3cc2f141	0.02379668
113	0xbd697833	-0.056999397
114	0x3de6cf4a	0.11270006
115	0x3deb9005	0.11502079
116	0xbccfdbf8	-0.025373444
117	0xbda0024f	-0.0781294
118	0xbc1400a0	-0.009033352
119	0xbdf9bfb8	-0.121947706
120	0xbd575b34	-0.052577212
121	0xbe3e1b39	-0.18565072
122	0xbddbb915	-0.10728661
123	0xbcfbb55e	-0.030726131
124	0x3dd7ac0f	0.105308644
125	0x3e068724	0.1313749
126	0x3e243786	0.16036806
127	0x3e0c9a32	0.13730696

lstm.weight_ih_l0_reverse f4 [128, 64]
0	0xbd7bece4	-0.061505213
1	0x3e2df8ea	0.16989484
2	0xbd2ae0bf	-0.04171824
3	0x3d607901	0.0548029
4	0xbc77bf00	-0.015121222
5	0x3e126cd5	0.14299329
6	0x3dc1c89e	0.09462093
7	0xbe254665	-0.16140135
8	0x3e0e0d20	0.13872194
9	0xb9f49286	-0.00046648475
10	0x3e1b37c6	0.15157995
11	0x3dc0166a	0.09379275
12	0xbd413212	-0.04716689
13	0xbd5ae10f	-0.05343729
14	0xbdcf815c	-0.10132095
15	0xbdc06aea	-0.09395392
16	0xbcbfb8a3	-0.023403471
17	0xbd037fcb	-0.032104295
18	0xbbbc5600	-0.0057475567
19	0xbc272418	-0.0102014765
20	0x3e138b09	0.14408506
21	0xbd42cdaa	-0.047559418
22	0x3e18e448	0.14930832
23	0x3c5076d5	0.012723644
24	0xbda6f79d	-0.08152697
25	0x3e3a5f4b	0.18200414
26	0x3cd40b38	0.025884256
27	0x3c43d500	0.011952639
28	0xbda9a2a4	-0.08282974
29	0x3d178ebc	0.037001356
30	0x3d2ccd23	0.04218782
31	0x3d32e21b	0.043672662
32	0xbcb7f0c0	-0.022453666
33	0x3d987b1a	0.07445355
34	0xbdd9d47c	-0.10636231
35	0x3e3e13f3	0.18562298
36	0xbdbeb676	-0.093121454
37	0x3d3d82e7	0.046267416
38	0x3d475018	0.048660368
39	0xbb7853da	-0.0037891776
40	0x3df65f2e	0.12029873
41	0xbcd27b00	-0.025693417
42	0xbdf0fc48	-0.11766869
43	0x3dd1b223	0.10239055
44	0x3e0d7dbd	0.13817497
45	0x3e28203a	0.16418543
46	0xbe1b2b6e	-0.15153286
47	0x3d1e16c4	0.03859593
48	0x3e4007e9	0.18753017
49	0x3d1ae6fe	0.037817948
50	0x3dd3df09	0.10345275
51	0x3d5ff306	0.054675125
52	0x3da6e407	0.081489615
53	0x3d632afe	0.055460922
54	0xbc54e1e0	-0.012993306
55	0x3cfb63ca	0.030687232
56	0x3d9293d0	0.07157099
57	0x3cb9dbf3	0.022687888
58	0xbcd67dcf	-0.026183037
59	0x3de287b6	0.11061041
60	0xbd9745e5	-0.07386378
61	0x3e150aab	0.14554851
62	0x3e05e8d7	0.13077103
63	0x3da6f8a6	0.08152895
64	0xbda0101c	-0.078155726
65	0x3d48b1e7	0.048997786
66	0x3cc78551	0.024355562
67	0xbd62cfc6	-0.05537393
68	0xbe06354e	-0.13106272
69	0x3e0d5b8b	0.13804452
70	0x3d364814	0.044502333
71	0xbd2bb32a	-0.04191891
72	0xbe2d3996	-0.16916499
73	0xbe4b0381	-0.19825555
74	0xbd9708f5	-0.07374755
75	0x3d14c974	0.036324933
76	0x3df80554	0.12110391
77	0xbde77f95	-0.11303631
78	0xbd8bb52c	-0.06821665
79	0x3e156533	0.14589386
80	0xbdefa707	-0.1170178
81	0xbd91fac6	-0.07127909
82	0x3e2479c9	0.16062082
83	0x3e2a4745	0.1662875
84	0x3d39c368	0.04535237
85	0xbd8ec157	-0.069704704
86	0xbd0f53a3	-0.03499187
87	0xbdfcd1e3	-0.1234472
88	0x3d19a2c2	0.037508734
89	0x3d30e24c	0.043184564
90	0x3c3d9d68	0.011573173
91	0x3e3240ab	0.17407481
92	0xbd97065e	-0.07374261
93	0x3deb6ed2	0.11495747
94	0xbe181e8a	-0.148554
95	0xba08053d	-0.0005188769
96	0xbde1549a	-0.110024646
97	0x39eaa25f	0.00044752934
98	0x3d1dabc8	0.0384939
99	0x3df25d33	0.118341826
100	0xbe4cb357	-0.19990288
101	0x3d23b206	0.0399647
102	0xbe0a5e01	-0.13512422
103	0xbdbc51e5	-0.09195308
104	0x3dc60fa6	0.096709535
105	0xbe041952	-0.12900284
106	0x3da4cbc6	0.08046679
107	0xbddd3b93	-0.108023785
108	0xbda37778	-0.07981771
109	0x3de9912e	0.11404644
110	0xbddf996b	-0.10917934
111	0x3dad9e56	0.08477466
112	0xbdd509dc	-0.10402271
113	0xbe4fe4a9	-0.2030207
114	0x3d84fc19	0.06493396
115	0xbe0798a1	-0.13241817
116	0x3d93c6cc	0.07215652
117	0x3c390596	0.011292836
118	0xbcfc97f0	-0.030834168
119	0x3df70759	0.12061948
120	0xbd1122b8	-0.0354335
121	0x3c2cd129	0.010547915
122	0xbd2caeb2	-0.04215879
123	0x3ddbdb56	0.107351944
124	0x3d0b0054	0.03393586
125	0x3dcb0384	0.0991278
126	0x3ddd1b81	0.107962616
127	0xbdaa0661	-0.08301998
128	0x3c64d840	0.013967574
129	0xbe302cc6	-0.1720458
130	0xbb93ad56	-0.0045067472
131	0x3e41b09c	0.18915027
132	0x3d0896f4	0.033347085
133	0xbe07b2a0	-0.13251734
134	0xbdf07dd8	-0.11742753
135	0x3dc09f63	0.094054006
136	0x3e391e2a	0.18077913
137	0xbca5ecca	-0.020254511
138	0xbd8f4afa	-0.069967225
139	0x3e143131	0.1447189
140	0x3d99a718	0.07502574
141	0x3ddce825	0.107864656
142	0xbe089006	-0.1333619
143	0x3e08c514	0.1335643
144	0x3c4401f7	0.011963359
145	0x3e167683	0.14693646
146	0x3d046e21	0.03233159
147	0xbe0c79c3	-0.13718323
148	0x3cddbc18	0.02706723
149	0x3e172398	0.14759672
150	0xbd374870	-0.044746816
151	0xbdc766f8	-0.097364366
152	0x3e4a7494	0.19771034
153	0xbdb913c3	-0.090369724
154	0x3d328109	0.04358009
155	0xbd92fc8b	-0.07177075
156	0x3d17a150	0.037019074
157	0xbe010d8c	-0.12602824
158	0xbe0b4641	-0.13601018
159	0x3e2d90f3	0.16949825
160	0x3e18b067	0.14911042
161	0xbd246bb9	-0.040141795
162	0xbdd413b9	-0.10355324
163	0x3c38fc57	0.011290631
164	0x3d28aa4f	0.041178044
165	0xbd1a89df	-0.03772914
166	0xbdbf5919	-0.09343166
167	0x3d8fe486	0.07026009
168	0xbdce711b	-0.10080167
169	0x3e20a12b	0.1568648
170	0xbb24a3c0	-0.0025122017
171	0xbba614b7	-0.0050683874
172	0x3d36b331	0.044604484
173	0xbd7668f3	-0.06015868
174	0x3dcffba2	0.10155417
175	0x3e0273f3	0.12739544
176	0x3e1b9cab	0.15196483
177	0xbdb13488	-0.08652598
178	0xbdcf88ca	-0.10133512
179	0xbde183f4	-0.11011496
180	0x3e26d384	0.16291624
181	0x3dc539a9	0.096301384
182	0x3d90a726	0.07063131
183	0xbccac89a	-0.024753857
184	0x3d00b5fc	0.031423554
185	0x3e0bc8a4	0.13650757
186	0x3dcb1534	0.099161536
187	0xbd013dcc	-0.031553075
188	0x3db5d092	0.08877672
189	0x3d9b1f36	0.075743124
190	0x3e55b647	0.20870315
191	0x3e13705c	0.1439833
192	0x3dbf5f42	0.09344341
193	0x3bd77f20	0.006576434
194	0x3e2fc869	0.17166294
195	0x3e3ac54b	0.18239324
196	0x3d79d6e0	0.060995936
197	0xbe0f6d52	-0.14006546
198	0xbda70d3b	-0.081568204
199	0x3caede37	0.021346195
200	0x3db9ccc1	0.09072257
201	0xbe0d1b7f	-0.1378002
202	0x3d733636	0.05937787
203	0x3cea9248	0.028634205
204	0xbbd59682	-0.006518186
205	0x3d99debc	0.07513186
206	0x3dc1ab57	0.094565086
207	0x3dad4ac8	0.08461529
208	0xbda8279a	-0.082106784
209	0x3ccb5a9d	0.024823481
210	0x3dc4edf8	0.096157014
211	0x3c1768b4	0.009241272
212	0xbdcf4a49	-0.10121591
213	0xbe04da88	-0.12973988
214	0x3d1703b1	0.036868755
215	0xbdddb64a	-0.108257845
216	0x3e000cf8	0.12504947
217	0xbdbcfd5a	-0.092280105
218	0xbcdfcd44	-0.027319558
219	0xbbd8fd60	-0.0066220015
220	0x3e28b22f	0.16474222
221	0xbdede8ff	-0.11616706
222	0x3de99447	0.11405235
223	0xbe1bc604	-0.15212256
224	0x3dfa535d	0.122229315
225	0x3dc38cd3	0.095483445
226	0xbdf3249f	-0.11872219
227	0xbe0a3ce5	-0.13499792
228	0x3b890ced	0.004182449
229	0xbe362f47	-0.17791472
230	0x3e1cfc39	0.1533059
231	0xbe251680	-0.16121864
232	0xbdc87a6a	-0.09788974
233	0xbdacbfc3	-0.08435013
234	0x3c0c0d90	0.008548155
235	0x3e031783	0.12801938
236	0xbdbe4428	-0.092903435
237	0xbdaf3ad5	-0.08556143
238	0xbd9bb9da	-0.07603808
239	0x3a85ee00	0.0010218024
240	0x3e357d5c	0.17723602
241	0x3b8600be	0.004089444
242	0xbd7b9129	-0.061417732
243	0xbae38ad3	-0.0017360098
244	0x3e10db4a	0.14146152
245	0xbe16c03e	-0.14721772
246	0xbe29fa99	-0.16599502
247	0x3cb2f2e1	0.02184433
248	0x3d414dc8	0.04719332
249	0xbd77dd86	-0.060513996
250	0x3d6b5d48	0.057462007
251	0xbe26b760	-0.1628089
252	0xbdba1e53	-0.09087815
253	0xbcb6998f	-0.02229002
254	0x3e29bbb7	0.16575514
255	0xbe0cc67f	-0.13747595
