saved_models/Complete_OHLCAG_Hybrid_Model_1h_plus_1.pth (torch, 194954 bytes, 17 tensors)

conv1d_1.weight f4 [64, 6, 3]
0	0xbe19cbe6	-0.15019187
1	0x3e110714	0.14162856
2	0xbe0cc341	-0.13746358
3	0x3e357957	0.17722069
4	0x3e3c88fd	0.18411632
5	0x3c6c557d	0.014424679
6	0xbe117757	-0.14205681
7	0x3de4b02e	0.11166416
8	0x3e1d9c62	0.15391687
9	0xbd80b713	-0.06284919
10	0x3e164ef9	0.14678563
11	0x3d41f70a	0.047354735
12	0x3d02be41	0.03191972
13	0x3e314167	0.17310105
14	0x3e108cc8	0.14116204
15	0xbe53560b	-0.20638292
16	0x3e3dbc5b	0.18528883
17	0x3dd9b603	0.10630419
18	0xbc634c23	-0.013873133
19	0x3e804eda	0.2506016
20	0xbe382c5d	-0.17985673
21	0x3e54e955	0.20792134
22	0x3e201171	0.15631653
23	0xbd899c72	-0.06719293
24	0xbd962a6e	-0.073323116
25	0x3e113bf9	0.14183034
26	0x3dd90f56	0.10598628
27	0xbdd90575	-0.10596744
28	0x3e7431aa	0.2384707
29	0xbd0e531a	-0.03474722
30	0xbd1304ff	-0.035893437
31	0x3ebcec8c	0.3689922
32	0x3e4017f3	0.18759136
33	0xbd47141a	-0.048603155
34	0x3e1fff8c	0.15624827
35	0x3e5ee943	0.2176867
36	0x3e4eeffd	0.20208736
37	0x3e0e3c7d	0.13890262
38	0xbdfdf2bf	-0.12399816
39	0xbdc4fc45	-0.09618429
40	0x3e412bb5	0.18864329
41	0x3dca43a4	0.09876183
42	0x3deaadb9	0.11458916
43	0x3e0f1981	0.13974573
44	0x3e01c4a6	0.12672672
45	0x3b700131	0.0036621804
46	0xbd7e382e	-0.062065296
47	0x3e0f004e	0.1396496
48	0x3d2f0633	0.04273052
49	0x3e9aa029	0.30200318
50	0x3e414168	0.18872607
51	0x3dc2f5e9	0.0951956
52	0xbc85d647	-0.016337527
53	0xbe47db47	-0.19517241
54	0x3dac3357	0.0840823
55	0x3de639c8	0.1124149
56	0x3d67532b	0.0564758
57	0x3bd43dbc	0.006477086
58	0x3e8233b3	0.25430068
59	0xbe144788	-0.14480412
60	0xbe6681a0	-0.22510386
61	0x3e522ff3	0.20526104
62	0xbe8620f5	-0.2619702
63	0xbd48d28f	-0.04902893
64	0x3d3647d4	0.044502094
65	0xbe431d99	-0.1905426
66	0xbdfa67a9	-0.12226803
67	0x3ee056fd	0.43816367
68	0xbe440a9a	-0.19144669
69	0x3d82c86a	0.06385882
70	0x3e1514d1	0.14558722
71	0x3d9bd227	0.07608443
72	0xbe1cca40	-0.15311527
73	0xbd40d284	-0.047075763
74	0x3de254c1	0.11051322
75	0xbd0ba60b	-0.034093898
76	0xbc2754cf	-0.010213091
77	0x3e3cc3ab	0.18434016
78	0x3e3167be	0.17324731
79	0x3d047d7d	0.032346237
80	0xbe927f96	-0.28612965
81	0xbdb7c82b	-0.08973726
82	0xbc9b0934	-0.018925287
83	0x3e43b247	0.19110976
84	0x3e4633bb	0.19355671
85	0x3ead39bc	0.3383311
86	0x3e5df32e	0.21674797
87	0x3b9df62d	0.004820606
88	0x3e80117c	0.2501334
89	0xbdb5f396	-0.08884351
90	0x3e62e8eb	0.22159164
91	0x3e68d650	0.22738004
92	0x3baf191d	0.00534357
93	0xbdb14730	-0.08656156
94	0xbe49b30a	-0.19697204
95	0xbe498777	-0.19680582
96	0xbe565d4e	-0.2093403
97	0x3e11832a	0.14210191
98	0x3e1f05bc	0.15529531
99	0xbd5096e0	-0.050925136
100	0x3d97fd3a	0.07421346
101	0x3e345e2c	0.17614049
102	0x3e23e277	0.16004358
103	0x3dadd213	0.08487334
104	0x3e577f7d	0.21044727
105	0x3e251741	0.16122152
106	0xbdb0eed4	-0.08639303
107	0xbe48b464	-0.19600064
108	0x3e538a25	0.20658167
109	0x3d6cbf1b	0.05779944
110	0x3c84e6bd	0.016223306
111	0xbd28731b	-0.041125398
112	0x3e589d86	0.2115384
113	0xbe5fe2aa	-0.21863809
114	0x3e371fe3	0.17883258
115	0x3e6f3841	0.23361303
116	0xbd498976	-0.04920336
117	0x3c323a44	0.010878149
118	0x3d2d9950	0.04238254
119	0x3c8d1f88	0.01722695
120	0xbe250949	-0.16116823
121	0x3e02e192	0.12781361
122	0xbd25e9a5	-0.040506024
123	0xbe5dc9af	-0.21658967
124	0xbe84dfd8	-0.2595203
125	0xbcc4807e	-0.023987051
126	0x3bd03e00	0.006355047
127	0xbe2815d4	-0.16414577
128	0x3e6eed0b	0.23332612
129	0x3dac3fea	0.08410628
130	0x3db72b52	0.089438096
131	0x3c4bed00	0.012446642
132	0x3e2ebbf9	0.17063893
133	0xbbe0cd40	-0.006860405
134	0xbe088494	-0.13331825
135	0xbe334a98	-0.17508924
136	0xbe2411df	-0.16022442
137	0xbdc884ae	-0.09790932
138	0x3e21eaf5	0.15812285
139	0x3de751fe	0.11294936
140	0x3d0aed6c	0.03391783
141	0x3dd5272a	0.104078606
142	0x3e1719c7	0.14755927
143	0x3cfee0d8	0.031113073
144	0x3c5483be	0.012970863
145	0x3e41953a	0.18904582
146	0x3e8239a0	0.2543459
147	0x3bad9f64	0.005298542
148	0x3e11f90f	0.14255165
149	0xbdb588cc	-0.088639826
150	0xbe1f5c36	-0.1556252
151	0x3dce1ae0	0.1006372
152	0x3db9e729	0.090772934
153	0x3e770ce9	0.24126019
154	0x3dc4a2a0	0.09601331
155	0x3c53962e	0.012914224
156	0xbe186385	-0.14881714
157	0x3d432f1e	0.047652356
158	0x3e87c8e0	0.26520443
159	0x3d677b91	0.056514326
160	0x3da87673	0.082257174
161	0xbe7cd302	-0.24689868
162	0xbe0e43c7	-0.13893043
163	0xbd003188	-0.031297237
164	0xbdb7abba	-0.08968301
165	0x3df8fa06	0.12157063
166	0x3e0206ad	0.12697859
167	0xbd813fc8	-0.063109934
168	0x3d81ddea	0.06341155
169	0x3dadd322	0.08487536
170	0xbd6d5570	-0.057942808
171	0xbccd4fb8	-0.025062427
172	0xbe0fa8dc	-0.14029258
173	0xbd557a48	-0.05211857
174	0xbe2fade2	-0.17156175
175	0x3e25fe87	0.16210376
176	0xbc9e0378	-0.019288763
177	0xbd254918	-0.04035291
178	0xbe2068c0	-0.15664959
179	0xbd5e0508	-0.054204017
180	0x3e1c2935	0.15250094
181	0xbe4b558a	-0.1985685
182	0xbe5e13e3	-0.21687274
183	0xbe59d3ae	-0.21272156
184	0xbdd7daec	-0.10539803
185	0x3d19f9b4	0.03759165
186	0x3e4c0fa5	0.19927843
187	0xbb9844a0	-0.0046468526
188	0x3d841dce	0.06450997
189	0x3d9b274e	0.07575856
190	0x3e4be9df	0.19913433
191	0x3df26db6	0.11837332
192	0xbdc75784	-0.09733489
193	0xbda71ea4	-0.08160141
194	0x3e06e73b	0.13174145
195	0x3d0a4334	0.033755496
196	0x3e4716e3	0.19442324
197	0x3d815b1e	0.06316207
198	0x3e51061c	0.20412487
199	0x3e5b9a48	0.21445572
200	0xbd43a833	-0.04776783
201	0xbe45a06b	-0.19299476
202	0x3e6f84ad	0.23390456
203	0x3e4058df	0.18783902
204	0xbd0fcf7a	-0.035109974
205	0x3e03cc93	0.12871008
206	0xbd1a3802	-0.03765107
207	0xbe3c545b	-0.18391554
208	0xbde92775	-0.11384479
209	0x3e590552	0.21193436
210	0x3e31744d	0.17329521
211	0x3e524008	0.20532238
212	0x3e082cc7	0.13298331
213	0xbc1c55f3	-0.009541976
214	0xbddd771a	-0.108137324
215	0xbc9158c8	-0.01774253
216	0xbd5ef064	-0.054428473
217	0xbe5d5569	-0.21614613
218	0x3e4ed5dd	0.2019877
219	0xbdfdde64	-0.12395933
220	0x3d5ad344	0.053424135
221	0xbc93aa00	-0.018025398
222	0x3e0a236d	0.13490076
223	0x3d629b44	0.055323854
224	0xbe4857c4	-0.1956473
225	0x3d3ccbc4	0.046092764
226	0x3e1e4c11	0.15458705
227	0x3cf30c68	0.029669002
228	0xbc71b270	-0.0147520155
229	0xbe1688c2	-0.14700606
230	0xbe642a6c	-0.22281808
231	0x3e25269f	0.16128014
232	0xbe336fb8	-0.17523086
233	0x3d6379bc	0.055536017
234	0x3dced937	0.10100024
235	0xbdaba206	-0.08380513
236	0x3ce58e3d	0.028021926
237	0x3d6a6d54	0.05723317
238	0x3e094233	0.13404159
239	0x3e30143c	0.17195219
240	0x3e0be0f5	0.13660033
241	0xbd8ad24c	-0.06778392
242	0x3da2dcd7	0.07952278
243	0x3dd5c098	0.10437125
244	0x3db6158b	0.08890828
245	0x3cd98e05	0.026556978
246	0xbdc4ea39	-0.09614987
247	0x3ec2a130	0.380136
248	0x3ef2b9e4	0.47407448
249	0xbda26082	-0.07928564
250	0x3df6e4b5	0.12055341
251	0xbcd9a1d6	-0.026566427
252	0xbdf778eb	-0.1208361
253	0x3e22b802	0.15890506
254	0xbe4128cb	-0.18863218
255	0xbdb6a179	-0.08917517

conv1d_1.bias f4 [64]
0	0x3e2b27e3	0.16714434
1	0xbe50bf1e	-0.20385405
2	0x3e51ce4e	0.20488855
3	0x3cf05c64	0.02934093
4	0x3dc00bcd	0.09377251
5	0xbe5b51e9	-0.21417965
6	0xbd2ec00a	-0.04266361
7	0xbdde2916	-0.1084768
8	0xbe493d81	-0.19652368
9	0xbe3ff626	-0.18746242
10	0xbd965df4	-0.07342139
11	0x3c21896f	0.009859427
12	0xbdf77d27	-0.12084418
13	0xbdca1f85	-0.09869293
14	0x3df711cf	0.120639436
15	0x3e5f2ac5	0.21793659
16	0xbe0a65c3	-0.13515382
17	0xbde1e5e0	-0.11030173
18	0x3d731d0e	0.05935388
19	0x3e381720	0.17977571
20	0x3d8a85e1	0.067638166
21	0xbe217f52	-0.15771225
22	0x3e287dc3	0.16454224
23	0x3da43165	0.08017234
24	0x3e248ed7	0.16070114
25	0x3c79cfa9	0.015247264
26	0x3e33bdfc	0.17552942
27	0x3c602e33	0.01368289
28	0x3da2c5f5	0.079479136
29	0xbe543eed	-0.2072713
30	0xbd77f886	-0.060539745
31	0xbba78999	-0.0051128385
32	0xbe09624e	-0.13416407
33	0xbcdb4760	-0.026767433
34	0x3e3df523	0.18550543
35	0xbda66ae8	-0.081258595
36	0x3e26e6ee	0.1629903
37	0xbe094d63	-0.13408427
38	0xbe5ae77e	-0.2137737
39	0x3c0fcfcc	0.00877757
40	0x3e0ff55e	0.14058444
41	0xbd5173e8	-0.051135927
42	0xbe3fe0c3	-0.18738084
43	0x3e5140f2	0.20434931
44	0x3dd75d59	0.105158515
45	0x3cda67d3	0.026660835
46	0x3e228dc9	0.15874399
47	0xbd9e06ca	-0.07716139
48	0xbd0cdd22	-0.034390576
49	0xbe4d176d	-0.20028467
50	0x3ccef96a	0.025265414
51	0x3c40ff8d	0.011779678
52	0x3df17bcd	0.11791191
53	0xbdda55d0	-0.10660899
54	0xbe608df2	-0.21929148
55	0x3e1fa595	0.15590508
56	0xbe09fd74	-0.13475591
57	0x3caf0b95	0.021367827
58	0xbc9fa140	-0.01948607
59	0xbdff3b44	-0.12462476
60	0x3e1e0116	0.15430102
61	0x3d1b8146	0.03796508
62	0xbd7f8034	-0.062378123
63	0xbbd9900b	-0.0066394857

conv1d_2.weight f4 [64, 64, 3]
0	0x3d6449f6	0.055734597
1	0x3d65c0ba	0.056092
2	0x3c9cf1a3	0.01915819
3	0x3d99859b	0.07496186
4	0x3d8fa9e5	0.07014827
5	0x3db211b2	0.08694781
6	0x3d16014a	0.036622323
7	0x3c0b6a24	0.008509193
8	0x3d68d459	0.056843136
9	0xbd6381dc	-0.055543765
10	0x3d5a5d98	0.053311914
11	0x3d73ccd8	0.059521526
12	0xbd2f66d9	-0.042822693
13	0x3a7d87b3	0.0009671405
14	0x398a9e8f	0.00026439546
15	0xbd9694b5	-0.07352582
16	0x3d208a1d	0.039194215
17	0xbd8411d7	-0.06448715
18	0x3d1aedc8	0.037824422
19	0xbd0d84a9	-0.034550343
20	0x3daf6795	0.085646786
21	0xbc1412e8	-0.009037711
22	0xbce9cade	-0.028539117
23	0x3b83d720	0.0040234476
24	0xbb00002f	-0.001953136
25	0x3d217578	0.039418668
26	0xbcb2c3cb	-0.021821877
27	0xbd2adcae	-0.041714363
28	0xbd8f57af	-0.06999146
29	0xbd428f6a	-0.04750005
30	0xbd2945c4	-0.0413263
31	0x3bd57c10	0.0065150335
32	0xbd0ec276	-0.03485342
33	0x3d5dc93a	0.054146983
34	0x3bac9282	0.0052664885
35	0xbcad6306	-0.021165382
36	0x3ca5a474	0.020220019
37	0xbd71620b	-0.05893139
38	0x3c080e58	0.008304201
39	0x3cbcc759	0.023044275
40	0x3d569685	0.05238964
41	0x3cfb0f62	0.030646984
42	0xbd9571af	-0.07297074
43	0xbd8aad8b	-0.06771382
44	0xbcd9cfc7	-0.026588334
45	0x3bf2831b	0.007400883
46	0xbd893672	-0.06699838
47	0xbd2bf317	-0.041979875
48	0xbcc248ec	-0.023716412
49	0x3d30a3ec	0.043125078
50	0xbc161ba0	-0.00916186
51	0x3d3240a4	0.043518677
52	0x3d666ec0	0.056257963
53	0xbd50c103	-0.05096532
54	0x3d5c7874	0.05382581
55	0x3da57ca5	0.08080415
56	0x3db6fa8a	0.08934505
57	0x3cdff953	0.027340567
58	0xbcafbdd2	-0.021452818
59	0x3c9dc7d9	0.019260334
60	0xbdb4e562	-0.08832814
61	0xbd1e244d	-0.038608838
62	0x3cde777b	0.027156582
63	0xba022b00	-0.0004965514
64	0xbd559ce2	-0.05215157
65	0xbd6001e0	-0.05468929
66	0x3d4b0303	0.04956342
67	0xbc678e41	-0.014133037
68	0x3c9f103a	0.019416917
69	0x3d3472c0	0.044054747
70	0x3d4ccadb	0.049998146
71	0xbcead25c	-0.02866476
72	0x3d35f89f	0.044426557
73	0x3a385e76	0.0007033119
74	0xbd3d701a	-0.046249487
75	0x3d865dbd	0.06560848
76	0x3c24b38e	0.010052575
77	0x3db7129a	0.08939095
78	0xbb869fb1	-0.004108392
79	0xbd7c7452	-0.06163437
80	0xbd9711fb	-0.073764764
81	0x3d7fd9af	0.06246346
82	0x3b80243a	0.0039105685
83	0x3de29fe5	0.11065654
84	0xbd08391b	-0.033257585
85	0xbd985b35	-0.07439271
86	0xbac4a53c	-0.0015002857
87	0xbbd65320	-0.006540671
88	0xbd03a9aa	-0.032144226
89	0xbcc91cec	-0.024549924
90	0xbc823b7e	-0.015897509
91	0x3d9eda63	0.07756498
92	0x3d035a0f	0.03206831
93	0x3d6186b8	0.05506012
94	0xbd0fb8c1	-0.035088304
95	0x3d92dab6	0.07170622
96	0x3c93342c	0.017969213
97	0x3bde83e0	0.006790623
98	0xbbf2f030	-0.0074138865
99	0x3c214420	0.009842902
100	0x3d32e6c8	0.04367712
101	0xbd8de9a8	-0.06929332
102	0x3d621f90	0.05520588
103	0xbd013def	-0.031553205
104	0xbc832fe1	-0.016014041
105	0xbcaab9cc	-0.020840548
106	0xbd713eae	-0.058897667
107	0x3ccb2c68	0.024801448
108	0x3adf284c	0.0017025559
109	0x3d57a2d0	0.052645504
110	0x3c88b1a1	0.016686263
111	0x3d6540e5	0.05597009
112	0xbc665907	-0.014059312
113	0x3da5bae7	0.080922894
114	0xbd2c9336	-0.04213258
115	0xbc2941c8	-0.010330625
116	0x3cbb104c	0.02283492
117	0xbcdf49f6	-0.027256947
118	0x3d8a0888	0.067399085
119	0x3d080e90	0.033217013
120	0x3d239c91	0.039944235
121	0x3c891892	0.016735349
122	0xbd93e174	-0.07220736
123	0xbc12fd10	-0.008971468
124	0xbd6ceb87	-0.057841804
125	0xbd657590	-0.05602032
126	0x3c053591	0.008130447
127	0x3d889ec4	0.06670907
128	0xbb43e544	-0.0029891292
129	0xbd0b954f	-0.03407794
130	0xba1444ff	-0.0005656033
131	0xbda1257d	-0.078684784
132	0x3d0a638f	0.033786353
133	0xbcd46dd6	-0.02593128
134	0x3c5fe9b8	0.013666563
135	0x3da949df	0.08266043
136	0x3bba381b	0.005682958
137	0x3da2b420	0.07944512
138	0x3d3ad682	0.045614727
139	0xbc84c7d8	-0.016208574
140	0xbd74acbd	-0.05973505
141	0xbd2f0d9c	-0.04273759
142	0x3db267b6	0.087111875
143	0x3de6d098	0.11270255
144	0x3bfb9eb5	0.0076788315
145	0x3da5049d	0.080575205
146	0x3e5de8b7	0.21670805
147	0x3df535d9	0.11973161
148	0x3db3d8ef	0.08781611
149	0x3de0847b	0.10962769
150	0xbcffee34	-0.031241514
151	0x3d3ebb1a	0.046565153
152	0x3d40d9eb	0.047082823
153	0x3d854fc3	0.06509354
154	0xbc9f3690	-0.019435197
155	0x3d135df2	0.035978265
156	0x3cb937c8	0.022609606
157	0x3d71b444	0.059009805
158	0xbd9b2ebb	-0.075772725
159	0x3d3ddaaa	0.046351112
160	0xbd10e05c	-0.035370216
161	0x3cc1724c	0.023614071
162	0xbcdc4af6	-0.026891213
163	0xbcc1c8f8	-0.0236554
164	0xbc1d4410	-0.009598747
165	0xbc10fd81	-0.008849503
166	0xbcbf37ad	-0.023341978
167	0x3d8d02c1	0.06885291
168	0x3d8b29af	0.0679506
169	0xbc8ac596	-0.01693992
170	0x3bc9b7c0	0.006155938
171	0xbdc2a09d	-0.09503291
172	0x3d551620	0.052023053
173	0xbbed8232	-0.0072481865
174	0x3d43a209	0.04776195
175	0x3dd29e9c	0.102841586
176	0x3c4a4e57	0.012347779
177	0x3b5af11b	0.003340787
178	0xbd5514f1	-0.052021924
179	0x3cdeb565	0.027186105
180	0xbd527b0c	-0.051386878
181	0xbdad5903	-0.08464243
182	0x3c671900	0.014105082
183	0xbc4eaa9a	-0.012613917
184	0xbc8919f0	-0.016736
185	0x3c99f46e	0.018793311
186	0xbc7ae871	-0.015314207
187	0x3c48d807	0.012258536
188	0xbce0924b	-0.027413508
189	0xbd5d2b92	-0.05399663
190	0x3da53845	0.08067373
191	0x3cb43cf2	0.022001717
192	0x3d5c9faf	0.053863224
193	0x3d2500e0	0.040284038
194	0x3d12c67e	0.03583383
195	0x3d4b8a80	0.04969263
196	0xbd52f2ae	-0.05150097
197	0xbd9abf4b	-0.075560175
198	0xbd52019c	-0.051271066
199	0x3c3f4945	0.011675184
200	0x3d8de572	0.06928529
201	0x3e2e3788	0.17013371
202	0x3c9ee144	0.019394524
203	0xbd5ad76c	-0.0534281
204	0x3bbe0582	0.0057989964
205	0x3d830792	0.06397928
206	0x3d65b14e	0.056077294
207	0x3cd7d8f7	0.026348574
208	0xbce3557c	-0.027750723
209	0xbd3d423c	-0.046205744
210	0xbc73b1a2	-0.014873894
211	0x3d14c4b4	0.036320403
212	0xbd8884bd	-0.06665943
213	0xbc854d3a	-0.016272176
214	0xbd67f0f5	-0.05662628
215	0x3d910c9a	0.07082482
216	0xbbe3779a	-0.006941748
217	0xbd442152	-0.04788334
218	0xbd930290	-0.07178223
219	0x3d1bec2a	0.03806702
220	0x3d59e83c	0.05319999
221	0x3d7d8dfc	0.061902985
222	0x3d07a502	0.033116348
223	0xbcb7d2de	-0.022439416
224	0xbc4eacec	-0.01261447
225	0xbb1f62ff	-0.002432048
226	0xbd604446	-0.05475261
227	0xbab98026	-0.0014152571
228	0xbcace60e	-0.021105792
229	0x3d7a7240	0.061144114
230	0xbcb89a20	-0.02253443
231	0xbd2f0713	-0.042731356
232	0xbb0c93ff	-0.0021450517
233	0xbe008637	-0.12551199
234	0x3e54e6b5	0.20791133
235	0x3e093b17	0.13401447
236	0x3d804d60	0.06264758
237	0x3d74db0c	0.059779212
238	0x3e11233a	0.14173594
239	0x3dea3956	0.11436717
240	0xbd3f6772	-0.046729513
241	0x3d0ba17e	0.034089558
242	0xbc9f1eae	-0.019423809
243	0x3d15bb75	0.036555726
244	0xbccb93b5	-0.024850706
245	0x3c952d9e	0.018210229
246	0x3d897eb5	0.067136206
247	0xbd86456d	-0.06556211
248	0xbc6c1cc6	-0.014411157
249	0x3de93642	0.11387302
250	0x3d7b0d2c	0.06129186
251	0x3b4468b1	0.0029969628
252	0x3d4b528f	0.04963928
253	0x3d4f53cd	0.050617028
254	0xbd2aa47d	-0.041660774
255	0xbd5e1714	-0.054221228

conv1d_2.bias f4 [64]
0	0xbd3e9c42	-0.046535738
1	0x3dcad804	0.09904483
2	0x3d636fa8	0.055526406
3	0xbd2aad78	-0.04166934
4	0xbd97d46d	-0.07413564
5	0xbd60ac89	-0.054852042
6	0x3ce63dda	0.028105665
7	0xbd561c08	-0.052272826
8	0xbcfa40df	-0.030548511
9	0x3d3cfeaa	0.046141304
10	0x3d26e4f0	0.040745676
11	0x3d4fa687	0.050695922
12	0xbca4bf95	-0.020110885
13	0xbd51c7ea	-0.051216044
14	0xbd54bf2c	-0.05194013
15	0x3bf24b80	0.007394254
16	0x3d469709	0.048483882
17	0x3d3c928b	0.04603819
18	0x3b5fc382	0.0034143631
19	0x3d377887	0.04479268
20	0xbc17fc6b	-0.00927649
21	0xbd90507f	-0.070466034
22	0xbd1e21fa	-0.03860662
23	0x3d92af99	0.07162399
24	0xbb32c6a3	-0.0027279041
25	0x3cb3a3c0	0.021928668
26	0x3bb9b72d	0.005667588
27	0x3c770ff5	0.015079488
28	0xbc33c9f3	-0.010973441
29	0xbccefa21	-0.025265755
30	0xbda3fc76	-0.080071375
31	0xbbf51777	-0.007479604
32	0xbbc21ae1	-0.0059236144
33	0xbd04d003	-0.032424938
34	0xbd016c43	-0.031597387
35	0xbce255bf	-0.027628778
36	0xbce5f24f	-0.028069643
37	0xbc328aaf	-0.010897323
38	0xbdbf0e02	-0.09328844
39	0x3c726344	0.014794175
40	0xbcc17053	-0.02361313
41	0x3c2b29f2	0.010447012
42	0x3c823140	0.015892625
43	0xbb2f2b75	-0.0026728783
44	0x3c9c28d4	0.019062437
45	0xbc1ecb28	-0.009691991
46	0x3bf3db0e	0.007441885
47	0x3aa7f11f	0.0012812949
48	0xbd0495fc	-0.0323696
49	0xbcc32a97	-0.02382402
50	0x3c434698	0.011918686
51	0xbcfb7eac	-0.03070005
52	0x3d89b08b	0.06723126
53	0xbd8a5192	-0.067538396
54	0xbd89f36c	-0.06735882
55	0xbd8588ac	-0.06520209
56	0xbd364879	-0.04450271
57	0xbd978b50	-0.073996186
58	0xbd267f26	-0.040648602
59	0xbd1c3a01	-0.038141254
60	0xbc955f9f	-0.018234072
61	0x3c7c282a	0.015390435
62	0x3ca16a1f	0.019703923
63	0x3cc8d314	0.024514712

lstm.weight_ih_l0 f4 [128, 64]
0	0x3a2ab918	0.00065125665
1	0x3def4d0c	0.116846174
2	0x3dc10680	0.09425068
3	0xbe11bcd8	-0.14232194
4	0x3d7ecf92	0.062209673
5	0x3e0e7d0f	0.13914894
6	0x3d220294	0.03955324
7	0x3d8c7d95	0.0685989
8	0xbda308cb	-0.079606615
9	0xbde09d84	-0.10967544
10	0xbd22ceb6	-0.039747916
11	0xbcae6bd4	-0.02129165
12	0x3dbd0ad7	0.09230583
13	0xbe3833d9	-0.17988528
14	0xbdfbdf28	-0.12298423
15	0xbdd01a51	-0.101612695
16	0xbdb5bd44	-0.0887399
17	0xbc00e00f	-0.00786592
18	0x3d4c7d06	0.04992392
19	0xbe269209	-0.16266645
20	0x3e00263f	0.1251459
21	0x3e0cb666	0.13741454
22	0xbccdb60b	-0.025111219
23	0xbdb27854	-0.08714357
24	0xbdefd2fc	-0.11710164
25	0xbd12a960	-0.03580606
26	0xbd3593e5	-0.044330496
27	0x3e396f12	0.18108776
28	0xbdae7f68	-0.085203946
29	0x3d188237	0.037233558
30	0x3e1fb850	0.15597653
31	0x3e1a3e10	0.15062737
32	0x3df010c3	0.11721947
33	0xbda32941	-0.07966853
34	0x3e0ac543	0.13551812
35	0xbe2709e4	-0.16312367
36	0xbdaa3577	-0.08310979
37	0x3e0b381c	0.13595623
38	0x3cd15d47	0.025557173
39	0xbdf333c7	-0.1187511
40	0x3e0782db	0.13233511
41	0xbd973d0b	-0.0738469
42	0xbd8e96b5	-0.06962339
43	0x3e0d99b9	0.13828172
44	0x3dffb8a2	0.12486388
45	0xbda47ef6	-0.080320284
46	0xbe244df0	-0.16045356
47	0xbe047411	-0.12934901
48	0xbbbf590b	-0.005839472
49	0x3dfad739	0.12248082
50	0x3d110083	0.03540088
51	0x3e1cef6a	0.15325704
52	0x3d9fb8bc	0.07798907
53	0xbd50c665	-0.050970454
54	0x3e129d9b	0.14317934
55	0xbe3c3146	-0.18378171
56	0x3db30ca1	0.08742643
57	0x3d09729f	0.033556577
58	0xbd8ab01e	-0.06771873
59	0xbd932def	-0.071864955
60	0x3d9500fe	0.0727558
61	0x3cd43966	0.025906276
62	0x3d35a2cd	0.044344712
63	0x3e15bf24	0.14623696
64	0xbe2c5a69	-0.16831364
65	0xbce2823f	-0.027649997
66	0xbdb24871	-0.08705223
67	0xbd715e08	-0.058927566
68	0xbe1e71a6	-0.15473041
69	0x3e30b475	0.17256339
70	0x3e338a91	0.17533328
71	0x3e348e96	0.17632517
72	0x3e32d7b2	0.17465094
73	0x3deb928f	0.11502563
74	0xbc16b031	-0.009197281
75	0xbd6243bd	-0.05524038
76	0x3da87c37	0.08226817
77	0x3d94b124	0.072603494
78	0xbcfe3f48	-0.031036034
79	0x3e130586	0.14357576
80	0xbe330621	-0.17482807
81	0xbdc6e073	-0.09710779
82	0x3caced8e	0.021109369
83	0xbd4a5bdb	-0.049404006
84	0x3d90b1e9	0.07065184
85	0xbd8fa3f0	-0.070136905
86	0x3d9bacad	0.07601295
87	0xbe14affa	-0.14520255
88	0x3e3d42cf	0.18482517
89	0x3d066ff9	0.03282163
90	0x3c00077a	0.007814283
91	0x3e1d32ed	0.15351458
92	0x3e12e2e9	0.14344372
93	0x3e2f7fb3	0.17138557
94	0x3dc64f67	0.096831135
95	0x3e260041	0.16211034
96	0x3e11d575	0.14241584
97	0xbe0efeb3	-0.13964348
98	0x3e52e367	0.2059456
99	0xbd562d73	-0.052289438
100	0x3e1c0a37	0.15238272
101	0x3e1e0502	0.15431598
102	0xba9d8028	-0.0012016343
103	0xbe065a5c	-0.13120407
104	0xbcd8f442	-0.026483659
105	0xbcc9253d	-0.02455389
106	0xbd3b6807	-0.045753505
107	0x3dcfc5f2	0.10145177
108	0xbb2da1c0	-0.0026494116
109	0x3dab9092	0.08377184
110	0xbdd361e0	-0.103214025
111	0x3d21ca97	0.039499845
112	0x3d01668a	0.03159193
113	0x3d548ca0	0.051891923
114	0xbc0f39ad	-0.008741778
115	0x3e1a2f0f	0.15057014
116	0xbe1f4a1d	-0.15555616
117	0xbcbcfe1d	-0.02307039
118	0xbd04cf7c	-0.032424435
119	0xbdb7b76b	-0.08970531
120	0x3e2b9e6e	0.16759655
121	0x3dfb2231	0.12262381
122	0x3dc6eca7	0.097131066
123	0xbda4a7fc	-0.08039853
124	0xbca17ba1	-0.019712271
125	0xbe192315	-0.14954789
126	0xbd896036	-0.06707804
127	0xbdb21aaa	-0.08696492
128	0x3d8e0576	0.06934635
129	0x3c847c15	0.016172448
130	0xbe3cc940	-0.18436146
131	0xbddd6e4c	-0.10812053
132	0x3e14f2f4	0.14545804
133	0xbe1d09cf	-0.15335773
134	0x3cbe660e	0.023242023
135	0x3db363e9	0.08759291
136	0x3d0842ed	0.03326695
137	0x3cc9d660	0.024638355
138	0x3dec18a1	0.11528135
139	0x3e0a6431	0.13514782
140	0xbe5e94cd	-0.2173645
141	0x3da9b100	0.08285713
142	0x3da443ee	0.08020769
143	0x3d126a69	0.035746012
144	0xbbf13d43	-0.0073620393
145	0x3d907605	0.070537604
146	0xbe349d3d	-0.17638107
147	0xbc3cd94e	-0.011526419
148	0xbe0582fe	-0.13038251
149	0x3dc9381e	0.09825157
150	0xbe542026	-0.20715389
151	0xbe14bec0	-0.1452589
152	0xbda8836a	-0.0822819
153	0xbe2c1505	-0.16804893
154	0x3c341821	0.010992081
155	0xbe4e79c0	-0.20163631
156	0xbdc99bc1	-0.09844161
157	0xbe4eb003	-0.2018433
158	0x3d5ec35f	0.05438554
159	0x3d122206	0.03567698
160	0x3deef516	0.1166784
161	0xbdeb0e72	-0.114773646
162	0x3d875f80	0.06610012
163	0x3dcc4d44	0.09975675
164	0xbd6da804	-0.05802156
165	0xbbdec270	-0.006798081
166	0x3e120424	0.14259392
167	0xbe2f7fad	-0.17138548
168	0xbc10d717	-0.008840344
169	0xbd9b807c	-0.07592866
170	0xbe0e55e1	-0.13899948
171	0x3e0d2990	0.13785386
172	0x3d8f76fe	0.07005118
173	0xbd4af6fc	-0.04955195
174	0xbe307221	-0.17231037
175	0x3c58cd0b	0.01323248
176	0xbe029564	-0.127523
177	0xbddf5775	-0.10905353
178	0xbe164072	-0.14673021
179	0x3e08c8f1	0.13357903
180	0xbd2c876b	-0.042121332
181	0xbe377b9f	-0.17918251
182	0xbb92dadb	-0.004481656
183	0x3b44b3fe	0.003001451
184	0xbe340729	-0.17580856
185	0xbe09b1da	-0.13446751
186	0xbe16ae19	-0.1471485
187	0xbda87211	-0.082248814
188	0xbb88af78	-0.004171308
189	0xbc17b57f	-0.009259581
190	0x3dbc90cd	0.09207306
191	0xbdafc0a6	-0.08581667
192	0xbcd2e8bb	-0.02574574
193	0x3e18c3bb	0.14918415
194	0x3e58c5fc	0.21169275
195	0x3d6ed0a0	0.05830443
196	0xbdccaefd	-0.09994314
197	0x3e24d2e1	0.16096069
198	0x3ce5fec6	0.028075587
199	0x3d8952d6	0.06705253
200	0x3e628653	0.22121553
201	0x3c9f28b1	0.019428583
202	0xbdf0783d	-0.11741684
203	0xbe0615c2	-0.13094237
204	0x3c278f33	0.010227012
205	0x3dc0db09	0.09416778
206	0x3c274850	0.010210112
207	0xbe04ed3b	-0.12981121
208	0xbe27f416	-0.16401705
209	0x3e642244	0.22278696
210	0xbd2c035e	-0.0419954
211	0xbd12c98f	-0.035836753
212	0x3cf3826d	0.029725278
213	0x3b29be3e	0.0025900747
214	0x3e04b3ed	0.12959261
215	0x3d1562c5	0.036471147
216	0x3e2b85ea	0.16750303
217	0x3de6a947	0.11262756
218	0x3d9087e1	0.07057167
219	0x3c9dd435	0.019266227
220	0x3dde0074	0.1083993
221	0x3e307847	0.17233382
222	0xbd9d9b3e	-0.07695626
223	0x3dd6c9db	0.104877196
224	0x3d14747a	0.036243893
225	0x3e6a86ae	0.22902939
226	0x3d3515c9	0.04421023
227	0xbd8340c8	-0.064088404
228	0x3c4884e0	0.012238711
229	0x3e88462b	0.26616034
230	0x3e5bb190	0.21454453
231	0x3de5a84e	0.11213742
232	0x3c746a98	0.014917992
233	0x3caca22c	0.021073423
234	0xbca8c2bc	-0.02060067
235	0x3e1e7a70	0.15476394
236	0xbddba0de	-0.10724042
237	0x3da92c22	0.08260371
238	0xbdb769f1	-0.089557536
239	0x3e46c5eb	0.19411437
240	0x3d5a1297	0.053240385
241	0x3e787e60	0.24266958
242	0xbd8537ca	-0.065047815
243	0x3e7912e7	0.24323617
244	0xbdba5045	-0.090973414
245	0x3be929c7	0.007115576
246	0x3e1e9999	0.1548828
247	0x3e3c102e	0.18365547
248	0x3db8370f	0.089948766
249	0xbd2d3c4c	-0.04229383
250	0xbdbd9386	-0.092566535
251	0x3d07d9e5	0.033166785
252	0x3be15e7b	0.006877718
253	0x3e5127bc	0.20425314
254	0xbe0e3fef	-0.13891576
255	0x3e090949	0.13382448

lstm.weight_hh_l0 f4 [128, 32]
0	0x3e3eda9a	0.18638077
1	0x3c3d71d3	0.011562782
2	0xbc003231	-0.007824467
3	0xbe0e8b80	-0.13920403
4	0x3d0b5eee	0.03402608
5	0x3e05c100	0.13061905
6	0x3d056c9a	0.032574274
7	0x3db8b9df	0.09019827
8	0x3db3f06b	0.087860905
9	0x3d1e5762	0.038657553
10	0xbb7be2ef	-0.0038434824
11	0xbdb1f4db	-0.086892806
12	0x3d6fab87	0.05851319
13	0xbda10faf	-0.078643195
14	0xbe4361c0	-0.19080257
15	0xbc0bc929	-0.008531847
16	0xbd80a1c0	-0.06280851
17	0x3e309111	0.17242838
18	0x3c3a51ef	0.011372074
19	0xbd89331f	-0.06699204
20	0xbcb2b6d2	-0.021815691
21	0x3d395928	0.04525104
22	0xbd8344ea	-0.06409629
23	0xbd98f2c6	-0.0746818
24	0xbc459762	-0.012060018
25	0x3e414ff4	0.18878156
26	0xbe09ad1e	-0.13444945
27	0x3e44bc31	0.19212414
28	0x3dcb7308	0.0993405
29	0x3e3a9037	0.18219076
30	0x3d5a5f0c	0.0533133
31	0x3dd343d4	0.103156716
32	0xbe2e69e2	-0.17032579
33	0x3df16100	0.117860794
34	0x3e11e8ff	0.14249037
35	0x3dde1d1a	0.108453944
36	0x3e4058fc	0.18783945
37	0x3df8e897	0.12153738
38	0xbe169963	-0.1470695
39	0xbb860b72	-0.00409072
40	0xbdbd0023	-0.09228542
41	0xbd075765	-0.03304233
42	0x3ce5a1b3	0.028031206
43	0xbd4405c1	-0.04785705
44	0xbe218f38	-0.1577729
45	0xbde676d0	-0.112531304
46	0xbddc1f4b	-0.10748156
47	0xbd9f2921	-0.077715166
48	0x3e1a65f0	0.15077949
49	0x3dc442da	0.095830634
50	0xbddcfe6f	-0.10790717
51	0x3c9e81a7	0.019348932
52	0x3d835933	0.06413498
53	0xbe09584b	-0.13412587
54	0xbe2c73ea	-0.16841093
55	0x3d677aad	0.056513477
56	0xbe06eaee	-0.13175556
57	0xbdfa93b3	-0.12235203
58	0x3e07cea2	0.13262418
59	0x3e0c549d	0.13704152
60	0x3de4d4a3	0.1117337
61	0x3df6d3e2	0.12052132
62	0x3d79ed7f	0.06101751
63	0x3ddf6977	0.10908788
64	0x3c30219b	0.0107502
65	0x3e2e2f47	0.17010222
66	0xbe3b19d7	-0.18271576
67	0xbd34dd93	-0.044156622
68	0x3e277323	0.16352515
69	0x3e4863ba	0.19569293
70	0xbd70981f	-0.058738824
71	0xbd86e431	-0.06586493
72	0xbd49982c	-0.049217388
73	0xbd28694a	-0.041116036
74	0xbe340c99	-0.1758293
75	0x3e3556c7	0.17708884
76	0xbe0bc964	-0.13651043
77	0xbe1069e2	-0.14102891
78	0xbdb51740	-0.08842325
79	0xbdeea9ca	-0.116534784
80	0x3da3f460	0.08005595
81	0xbe37a74d	-0.17934914
82	0xbda3a670	-0.0799073
83	0xbdc6d22e	-0.09708057
84	0xbe5da800	-0.21646118
85	0x3e4e52f5	0.20148833
86	0x3e02f171	0.12787415
87	0xbe52c91c	-0.2058453
88	0x3daf86de	0.08570646
89	0xbe3f9b5c	-0.18711609
90	0xbd58ed99	-0.052960966
91	0xbbd66d05	-0.006543758
92	0x3c75628b	0.014977108
93	0xbdbdb892	-0.092637196
94	0x3bd6c74a	0.006554519
95	0x3d9684dd	0.073495604
96	0xbe29f0cd	-0.16595764
97	0x3ded4f18	0.115873516
98	0xbe02d357	-0.12775932
99	0xbd814bf1	-0.06313313
100	0xbd8dcecf	-0.06924211
101	0xbdd18401	-0.10230256
102	0x3d8e6d6c	0.06954464
103	0x3cd98db1	0.026556822
104	0x3d160265	0.036623377
105	0xbd467e7f	-0.04846048
106	0x3d4d2f1b	0.05009375
107	0x3e3cebee	0.18449375
108	0x3dda6b1b	0.1066496
109	0x3d332dfc	0.043745026
110	0x3da28cc7	0.079370074
111	0xbcc2e45c	-0.02379053
112	0x3e11db09	0.14243712
113	0xbe0f0bc9	-0.1396934
114	0x3d2f5a1f	0.042810556
115	0x3d535bbb	0.051601153
116	0x3d3e4cd8	0.046460003
117	0x3c14b6b4	0.009076763
118	0xbda45b75	-0.080252565
119	0x3e187efd	0.14892192
120	0xbdd2bc06	-0.10289769
121	0xbe077013	-0.13226347
122	0x3be79091	0.007066794
123	0x3d189769	0.03725377
124	0x3dd3e0a6	0.10345583
125	0x3e24e61c	0.16103405
126	0x3da9a5b4	0.082835585
127	0x3dff78ab	0.124741875
128	0xbdb3d8ab	-0.087815605
129	0xbe7f0785	-0.24905212
130	0x3d139864	0.036034003
131	0x3dc90ee1	0.09817291
132	0x3dc3c3d6	0.09558837
133	0x3d910af3	0.070821665
134	0xbc2c1b6f	-0.010504588
135	0x3e741746	0.23837003
136	0x3deb3bed	0.11486039
137	0x3c6cc63b	0.014451559
138	0xbd285690	-0.041098177
139	0xbcd00967	-0.025395108
140	0xbda50c32	-0.08058967
141	0xbd913aa9	-0.07091267
142	0x3dc873ab	0.09787687
143	0xbb246bb5	-0.0025088612
144	0x3d8e1e2b	0.06939348
145	0x3d48a28f	0.048983153
146	0xbe1ee836	-0.15518269
147	0xbe5a66cd	-0.21328278
148	0x3db1ad1c	0.08675596
149	0xbd1b6fc3	-0.03794838
150	0xbd319c2e	-0.043361835
151	0x3ddefaf3	0.108877085
152	0x3db5cec5	0.08877329
153	0x3d9133e6	0.07089977
154	0xbe19532c	-0.14973134
155	0x3d13d25b	0.036089282
156	0x3d5f1056	0.05445894
157	0x3e10d5bb	0.14144032
158	0x3e09c06f	0.13452314
159	0x3e15fa75	0.14646323
160	0x3cb05b2c	0.02152785
161	0x3e29fe8d	0.1660101
162	0xbd891c3c	-0.066948384
163	0x3d86b50a	0.06577499
164	0x3d398058	0.045288414
165	0xbe1657cc	-0.1468193
166	0xbca4b94e	-0.020107891
167	0x3e1078fb	0.1410865
168	0x3e109d66	0.14122543
169	0x3d1cfc78	0.03832671
170	0xbddf01c7	-0.10889011
171	0x3e212ecb	0.15740506
172	0x3d9b8613	0.07593932
173	0xbe25f3a5	-0.16206224
174	0xbd1f131b	-0.03883658
175	0x3d912469	0.07087023
176	0x3e3d1f8d	0.18469067
177	0xbe290814	-0.16506988
178	0x3e047fc6	0.12939367
179	0x3c76b95f	0.015058844
180	0x3d89674a	0.06709154
181	0x3e339cee	0.17540333
182	0xbd87af25	-0.06625203
183	0x3d7ac7ab	0.061225574
184	0xbe017f3e	-0.12646195
185	0xbde34107	-0.11096387
186	0x3d835262	0.06412198
187	0xbe24bddd	-0.16088052
188	0xbe1d5d19	-0.15367545
189	0x3df2ee4c	0.11861858
190	0x3c0a0743	0.008424583
191	0xbd8e4a0b	-0.06947716
192	0x3d204e8d	0.03913741
193	0x3e2eea47	0.17081557
194	0xbdc94941	-0.09828425
195	0xbd2b7e6c	-0.041868612
196	0x3e68b2c5	0.22724445
197	0x3dd44894	0.10365406
198	0xbc113de9	-0.008864858
199	0x3d590108	0.0529795
200	0xbe30494e	-0.17215464
201	0xbccb65f3	-0.024828887
202	0x3d16e43b	0.03683875
203	0x3e1418c9	0.1446258
204	0x3dae1d8e	0.08501731
205	0x3c32bedd	0.010909763
206	0xbd84f9ab	-0.06492933
207	0xbd529db7	-0.05141994
208	0x3dfc1840	0.12309313
209	0x3e0de60b	0.13857286
210	0x3cfcf2ac	0.030877434
211	0xbdf5ca3a	-0.12001462
212	0xbdaa0218	-0.083011806
213	0x3bec309e	0.007207944
214	0xbdeb9d83	-0.11504652
215	0x3d679cef	0.056546148
216	0xbda618e0	-0.08110213
217	0xbdec8028	-0.11547881
218	0x3e0e7950	0.13913465
219	0x3dfc0c77	0.12307065
220	0xbd9bd0c8	-0.07608181
221	0xbe4cd46b	-0.20002906
222	0xbd8b3aaf	-0.067983024
223	0xbde3dee9	-0.11126501
224	0x3d26eafa	0.040751435
225	0xbe035fa0	-0.12829447
226	0x3dbc6256	0.091984436
227	0x3c9f2a84	0.019429453
228	0xbd702dc0	-0.05863738
229	0x3e345cf2	0.17613581
230	0xbe29a958	-0.16568506
231	0xbc61e2a9	-0.01378695
232	0x3e12be79	0.14330472
233	0x3d470168	0.048585325
234	0xbdb173f3	-0.08664694
235	0x3df4f376	0.11960499
236	0xbdb2c04e	-0.087280855
237	0x3df51ae7	0.11968022
238	0xba740a32	-0.00093093805
239	0xb7cae689	-2.4187628e-05
240	0x3d893b2e	0.06700741
241	0xbd3e9c35	-0.04653569
242	0xbdc3d70a	-0.095625
243	0xbd822894	-0.06355396
244	0xbb6ed525	-0.0036442962
245	0xbde442ef	-0.11145579
246	0xbd249091	-0.04017693
247	0xbd87969a	-0.06620522
248	0xbdfcbf1a	-0.12341137
249	0xbcf827e6	-0.030292463
250	0x3db7f265	0.0898178
251	0xbe22fc38	-0.15916526
252	0xbda17d39	-0.078852125
253	0x3c730320	0.014832288
254	0x3dff58a3	0.12468078
255	0xbe0ff62e	-0.14058754

lstm.bias_ih_l0 f4 [128]
0	0xbe166f67	-0.14690934
1	0x3deea980	0.11653423
2	0xbe69fd2d	-0.22850485
3	0xbdcbd802	-0.099533096
4	0x3e0868ac	0.13321179
5	0x3d07f3f6	0.033191644
6	0xbe3e9dbe	-0.18614861
7	0x3dd14d49	0.10219819
8	0xbe41e7e6	-0.18936118
9	0xbd0f07d2	-0.034919567
10	0x3d802ecb	0.06258925
11	0xbd4ac6ed	-0.049506117
12	0xbd07d9b5	-0.033166606
13	0x3dde27bf	0.10847425
14	0x3dd4722e	0.103733405
15	0xbafbfb8a	-0.0019224745
16	0xbdf2d2d2	-0.11856617
17	0xbe1399e4	-0.14414173
18	0xbd808fa9	-0.06277401
19	0xbdb13f0c	-0.08654603
20	0xbe42365e	-0.18966052
21	0xbd25e38e	-0.040500216
22	0xbdf6a16c	-0.120425075
23	0xbbfaeb79	-0.007657465
24	0x3d09789a	0.03356228
25	0xbce16a40	-0.027516484
26	0x3cdbdeb7	0.026839597
27	0xbdd8fde8	-0.10595304
28	0x3dfa13c7	0.122108035
29	0x3dc57618	0.09641665
30	0xbdbccd74	-0.092188746
31	0x3e199d3c	0.15001386
32	0xbe157410	-0.14595056
33	0xbd905692	-0.07047762
34	0xbdcc421c	-0.09973547
35	0xbdefb6e7	-0.11704808
36	0x3deb4c98	0.114892185
37	0x3cfc8288	0.03082396
38	0xbdc47b5e	-0.09593843
39	0xbe2b19d6	-0.16709074
40	0x3d53d2eb	0.05171482
41	0xbccba7cc	-0.024860285
42	0x3ab97299	0.0014148533
43	0x3d4bf1b6	0.04979106
44	0x3ca20212	0.019776378
45	0xbc90144f	-0.017587809
46	0xbca22ad2	-0.019795809
47	0x3e0c2bd8	0.136886
48	0x3dc63c9c	0.09679529
49	0xbe7023d2	-0.23451164
50	0x3cd3ce44	0.025855191
51	0xbbff968c	-0.007799929
52	0xbe381496	-0.17976603
53	0xbe569bc8	-0.20957863
54	0x3de2b517	0.110696964
55	0xbe1e0ac8	-0.154338
56	0xbdf0fabb	-0.11766573
57	0xbdcef1ef	-0.10104739
58	0xbc47bb5a	-0.012190664
59	0x3dc24505	0.09485821
60	0xbe1e902e	-0.15484688
61	0x3b38a262	0.002817296
62	0xbcfc5385	-0.030801544
63	0xbe3a2ab1	-0.18180348
64	0xbe0f8284	-0.14014632
65	0x3e0e7353	0.1391118
66	0xbddc9454	-0.10770479
67	0x3e0b78c5	0.13620289
68	0xbd68a936	-0.056801997
69	0xbd388807	-0.0450516
70	0x3dacfc4f	0.084465615
71	0xbd1b933d	-0.037982214
72	0x3c423bcb	0.011855076
73	0xbdad20cf	-0.08453523
74	0xbcf0a85c	-0.029377155
75	0x3de3e7fe	0.111282334
76	0xbe0000f9	-0.12500371
77	0xbd5a7284	-0.053331867
78	0xbe207a0c	-0.15671557
79	0x3cc1fd41	0.023680331
80	0xbd4803c3	-0.048831712
81	0xbe1e6648	-0.15468705
82	0x3c0b04c1	0.00848502
83	0xbcc86869	-0.02446385
84	0x3ae1d3cd	0.0017229259
85	0x3d8f7c83	0.070061706
86	0xbe2b7fc0	-0.16747952
87	0xbc1e829d	-0.009674695
88	0xbd859622	-0.06522776
89	0x3e1c78a2	0.15280393
90	0x3dfbc079	0.122925706
91	0x3d85c7e0	0.06532264
92	0x3cd9044d	0.026491309
93	0xbda5eadc	-0.081014365
94	0x3e1c882f	0.15286325
95	0xbdfb79a5	-0.12279061
96	0xbe075214	-0.13214904
97	0x3d9df2d8	0.077123344
98	0x3de5d0b1	0.11221445
99	0xbda6671c	-0.08125135
100	0x3e1a70ea	0.15082136
101	0xbe1d5b0e	-0.15366766
102	0x3d3751f7	0.044755902
103	0x3d39e177	0.045381036
104	0x3da7a2ea	0.0818537
105	0xbd696ccb	-0.05698852
106	0xbc5f8521	-0.01364258
107	0x3e26b129	0.16278519
108	0x3d6e5fc9	0.058196817
109	0xbe15bd47	-0.14622985
110	0x3c53e2a5	0.012932454
111	0x3d8acb76	0.06777088
112	0x3d48190e	0.04885202
113	0xbdb4731a	-0.088110164
114	0xbc0932ae	-0.008373899
115	0x3d43f361	0.047839526
116	0xbe15a0ec	-0.14612168
117	0xbe01fe75	-0.12694724
118	0x3e03af52	0.12859848
119	0xbe3c138c	-0.18366832
120	0xbd72b2f2	-0.059252687
121	0xbd29eb59	-0.04148421
122	0xbe6f0d32	-0.23344877
123	0xbe304048	-0.17212021
124	0x3d124424	0.035709515
125	0x3dd6a156	0.10479991
126	0xbe388f7d	-0.18023486
127	0xbddfaa6c	-0.10921177

lstm.bias_hh_l0 f4 [128]
0	0xbe1fe759	-0.15615596
1	0x3d2b36d5	0.04180034
2	0x382169d4	3.848395e-05
3	0x3cb8970f	0.022532968
4	0x3d8aa1c7	0.06769138
5	0x3e048a43	0.12943368
6	0xbe3e9016	-0.18609652
7	0xbd382fbf	-0.04496741
8	0x3d7ab22c	0.061205074
9	0xbe893aec	-0.26802766
10	0xbdcbe1d9	-0.099551864
11	0xbe0c9be0	-0.13731337
12	0xba7f8bc2	-0.00097483036
13	0x3e0af298	0.13569105
14	0xbd915326	-0.070959374
15	0xbc94b7dd	-0.01815408
16	0x3e2257d7	0.1585382
17	0x3e07f836	0.13278279
18	0x3daed459	0.08536596
19	0x3d13ab6e	0.03605216
20	0x3c0d606a	0.008628944
21	0x3e0020fe	0.12512586
22	0xbe3af12a	-0.1825606
23	0xbdfbd307	-0.1229611
24	0xbd95ce22	-0.07314707
25	0xbdcbd24a	-0.09952219
26	0x3e076d12	0.13225201
27	0x3d6ae475	0.05734678
28	0xbd441bfe	-0.047878258
29	0x3d4fe3f8	0.050754517
30	0x3e0fe9a3	0.14053969
31	0x3d232871	0.03983349
32	0xbe15be4a	-0.14623371
33	0xbd15e168	-0.036591917
34	0xbdc939a4	-0.09825447
35	0x3dbb2037	0.09137004
36	0x3d39db37	0.045375075
37	0x39a11034	0.00030720385
38	0x3d0f4350	0.034976304
39	0xbe4670c0	-0.19378948
40	0x3d5d8ad3	0.05408747
41	0xbb0f26ba	-0.0021843151
42	0x3b9e2712	0.004826435
43	0xbe4eb01e	-0.20184371
44	0xbdf315ea	-0.11869414
45	0xbcb785ab	-0.022402605
46	0x3da45e1f	0.08025765
47	0x3e12f2ca	0.14350429
48	0xbc91ac9f	-0.017782507
49	0xbe2cc358	-0.16871393
50	0xbd2181a8	-0.03943029
51	0x3d463599	0.04839096
52	0xbda6fe06	-0.0815392
53	0xbdea667f	-0.11445331
54	0xbdba5d4b	-0.090998255
55	0x3d89a40e	0.06720744
56	0xbd84563b	-0.0646176
57	0x3cc08935	0.023502925
58	0xbd1c6c2a	-0.03818909
59	0x3db5f955	0.08885447
60	0xbdda528e	-0.10660277
61	0x3c390dbc	0.011294778
62	0xbcedd381	-0.029031517
63	0x3c11eb3c	0.008906182
64	0x3e1baa58	0.152017
65	0xbd08e6a6	-0.03342309
66	0x3d762074	0.060089543
67	0xbdf57e22	-0.119869485
68	0xbd2f961a	-0.042867757
69	0x3d93efb4	0.07223454
70	0x3dc7e57b	0.09760567
71	0x3da65438	0.08121532
72	0xbe18a24e	-0.14905664
73	0xbdb1c55b	-0.08680221
74	0x3e05edf8	0.13079059
75	0x3e3682e9	0.17823376
76	0x3d295387	0.041339424
77	0x3d8ed84f	0.06974851
78	0x3da67ee8	0.08129674
79	0xbe0b8278	-0.13623989
80	0xbdae71ed	-0.08517823
81	0x3de1fb64	0.11034277
82	0xbc6c9087	-0.014438755
83	0x3d4a4cd9	0.049389694
84	0x3e12decd	0.14342804
85	0xbdc46afd	-0.09590719
86	0xbd8006b8	-0.062512815
87	0x3dc14dac	0.09438643
88	0x3df9631e	0.12177108
89	0xbd586adf	-0.052836295
90	0xbdc46a69	-0.095906086
91	0xbcb3e8e2	-0.021961633
92	0x3dd62ba8	0.104575455
93	0x3c09e110	0.0084154755
94	0xbe05ec3f	-0.13078402
95	0x3d74947b	0.059711915
96	0x3e38e50e	0.18056127
97	0xbe3af4f5	-0.18257506
98	0xbcc6184c	-0.024181508
99	0x3d8e90d6	0.06961219
100	0x3e0340ac	0.12817639
101	0x3e2e9124	0.17047554
102	0xbdd279e7	-0.10277157
103	0xbe49b9b9	-0.19699754
104	0x3cea7fbe	0.028625365
105	0xbe27e71e	-0.16396758
106	0x3cdc4eef	0.026893107
107	0xbdbc6ede	-0.09200834
108	0x3e12042c	0.14259404
109	0xbe01516c	-0.12628716
110	0x3d7a885b	0.061165195
111	0x3dd0fadc	0.10204098
112	0xbe531baf	-0.20616029
113	0x3d8f84b0	0.0700773
114	0xbd83557b	-0.064127885
115	0x3dc2ada8	0.095057786
116	0x39b66bce	0.00034794066
117	0xbd86db9a	-0.065848544
118	0x3dc7a75f	0.097487204
119	0xbd7ce276	-0.061739407
120	0xbd9bdb26	-0.076101586
121	0x3de45471	0.111489184
122	0xbdcba25e	-0.099430785
123	0xbded316d	-0.11581693
124	0x3c0920fc	0.0083696805
125	0x3b1a49aa	0.0023542442
126	0xbd91d2d0	-0.071202874
127	0x3e2ba53e	0.16762254

lstm.weight_ih_l0_reverse f4 [128, 64]
0	0x3d8495ab	0.064738594
1	0xbd77d8be	-0.060509436
2	0xbd2c94f8	-0.042134255
3	0x3d28e882	0.04123736
4	0x3bb5ba16	0.005545865
5	0x3d269a78	0.040674657
6	0x3de37951	0.11107124
7	0x3df774ee	0.120828494
8	0x3e08f484	0.13374525
9	0x3ddd2bf4	0.10799399
10	0xbd07dab2	-0.03316755
11	0xbd8677e4	-0.06565836
12	0x3d915392	0.07096018
13	0x3db429b6	0.08797018
14	0x3dfe1d96	0.12407987
15	0x3d9fb20f	0.07797634
16	0xbe0b386c	-0.13595742
17	0x3db1dcc2	0.08684684
18	0x3e171eaa	0.14757791
19	0x3c7b63dc	0.015343633
20	0xb9ad7a00	-0.00033088028
21	0xbbefb36c	-0.00731509
22	0xbd0572c6	-0.03258016
23	0xbdd14189	-0.10217578
24	0x3dfd0e88	0.12356287
25	0x3e66cb6f	0.22538541
26	0x3d23639b	0.039889913
27	0x3e26163f	0.16219424
28	0xbd520198	-0.05127105
29	0x3c0fa867	0.008768178
30	0x3c1a5b71	0.009421215
31	0x3e57cfc6	0.21075353
32	0xbddad56c	-0.10685238
33	0x3e2c9dd1	0.16857077
34	0xbc6919fd	-0.0142273875
35	0xbcd892d4	-0.0264372
36	0xbe0d37ac	-0.13790768
37	0x3dd0efc9	0.102019854
38	0xbd0682ab	-0.03283946
39	0x3df40093	0.11914172
40	0xbdb262ed	-0.08710275
41	0x3d93b8f8	0.07213014
42	0xbdb3942a	-0.087684944
43	0x3e4400cb	0.19140927
44	0xbdf56fea	-0.119842365
45	0xbd34ef44	-0.044173494
46	0x3d93c5aa	0.07215436
47	0xbc3c68f0	-0.011499628
48	0x3e235b6d	0.15952845
49	0x3e13fa19	0.14450873
50	0x3e4107c0	0.18850613
51	0xbd1ca2f2	-0.038241334
52	0xbddbf01c	-0.107391566
53	0xbd2727cc	-0.040809438
54	0x3d20fb8c	0.039302394
55	0xbdb0bdc5	-0.08629946
56	0x3e6d6ce7	0.23186074
57	0x3cc07b88	0.023496404
58	0x3e1958e1	0.14975311
59	0xbd9bfd62	-0.07616688
60	0x3e2901fa	0.1650466
61	0x3e2280b4	0.15869409
62	0xbd748de4	-0.05970563
63	0x3ddc176c	0.10746655
64	0x3e3fce50	0.18731046
65	0x3d73e040	0.059540033
66	0x3e381f1e	0.1798062
67	0x3e40a460	0.18812704
68	0xbdf49091	-0.11941636
69	0x3daddd1e	0.084894404
70	0xbe220af2	-0.15824488
71	0x3d908532	0.07056655
72	0xbd3c1b33	-0.045924377
73	0x3e0ca845	0.13736065
74	0xbdcf4986	-0.10121445
75	0xbe1d6a5b	-0.15372603
76	0x3c193255	0.009350379
77	0xbd6418ee	-0.055687837
78	0x3e272c6b	0.16325538
79	0xbddc4d22	-0.107568994
80	0x3e3694b1	0.17830159
81	0xbd759238	-0.0599539
82	0x3bf72730	0.0075425133
83	0xbde1701f	-0.110077135
84	0x3c2dd9c0	0.010610998
85	0x3e62e1f5	0.22156508
86	0x3e4e4410	0.20143151
87	0x3dcc8d38	0.09987873
88	0x3e24ba13	0.16086607
89	0x3dc03932	0.09385909
90	0xbd3256e8	-0.04353991
91	0xbdd3acfc	-0.103357285
92	0xbc8304ad	-0.01599344
93	0xbd5dc818	-0.054145902
94	0x3e12535e	0.14289615
95	0x3d854a29	0.065082856
96	0x3deee078	0.11663908
97	0xbce64026	-0.02810676
98	0x3e0831c8	0.1330024
99	0x3e1d8b7d	0.15385242
100	0x3d2be954	0.041970566
101	0xbc635d10	-0.013877168
102	0xbdf12b63	-0.117758535
103	0xbc6b7522	-0.014371188
104	0x3d787414	0.060657576
105	0xbd61eea8	-0.05515924
106	0xbc8be87b	-0.017078629
107	0xbd821a69	-0.063526936
108	0xbd35d4c4	-0.044392362
109	0xbdcc2cb1	-0.09969462
110	0xbe2c91a0	-0.16852427
111	0x3d9741ff	0.07385635
112	0xb9c9faa2	-0.00038524444
113	0x3c9ff518	0.01952605
114	0xbdd4ca67	-0.10390168
115	0x3e243a49	0.16037859
116	0x3c204b8a	0.009783635
117	0xbd05f871	-0.032707635
118	0x3e3fb8f7	0.18722902
119	0x3e085551	0.13313796
120	0xbda88cc2	-0.082299724
121	0x3e14b6d3	0.14522867
122	0x3df0d61b	0.117595874
123	0x3d9b9be0	0.0759809
124	0x3c2efa01	0.010679723
125	0x3dcf1be7	0.10112744
126	0xbe1c1d0e	-0.15245458
127	0xbd441cc2	-0.047878988
128	0x3da2c8c3	0.079484485
129	0xbdd3955f	-0.10331225
130	0xbca0eb6d	-0.01964351
131	0x3dc4e442	0.09613849
132	0xbe187232	-0.14887312
133	0xbd430ef0	-0.047621667
134	0xbcbe6076	-0.023239356
135	0xbddabcd9	-0.10680551
136	0xbe466c6e	-0.193773
137	0xbe41a83d	-0.18911834
138	0xbd88a418	-0.066719234
139	0xbd73342f	-0.059375938
140	0x3d9bf64f	0.07615339
141	0xbde049ed	-0.109516
142	0xbb44ff80	-0.0030059516
143	0xbdb7a24d	-0.08966503
144	0xbdc14688	-0.09437281
145	0xbe47781b	-0.1947941
146	0x3e05c191	0.13062121
147	0x3de006ce	0.10938798
148	0xbe331fd3	-0.17492609
149	0xbd289adc	-0.04116331
150	0xbe2aa0c5	-0.16662891
151	0xbded41fd	-0.11584852
152	0xbdbdb444	-0.092628986
153	0x3def97f3	0.11698904
154	0xbd2fad38	-0.042889804
155	0x3daf0d97	0.08547514
156	0x3d19c2cb	0.037539285
157	0xbdcbc28e	-0.09949218
158	0x3e0a1e8f	0.1348822
159	0xbca3992a	-0.019970495
160	0x3dc65ce3	0.096856855
161	0xbe13f684	-0.14449507
162	0x3d7b3f4d	0.061339665
163	0x3dca11a2	0.098666444
164	0xbe082b59	-0.13297786
165	0xbda53831	-0.08067358
166	0xbc8e220b	-0.017350217
167	0xbd9c18b1	-0.07621897
168	0x3d159f59	0.03652892
169	0xbe254eaa	-0.16143289
170	0x3e39ba98	0.18137586
171	0x3e25745b	0.16157667
172	0x3d2b210c	0.041779563
173	0xbd758f9a	-0.059951402
174	0x3b5e1397	0.0033886188
175	0x3d2da525	0.042393822
176	0xbc33fbf9	-0.010985368
177	0x3d7ca2c7	0.061678674
178	0xbd346169	-0.04403821
179	0xbd62acf1	-0.05534071
180	0xbc5128c4	-0.012766067
181	0x3e1437a7	0.14474355
182	0xbc953f86	-0.018218767
183	0xbd963cca	-0.07335813
184	0x3d65aaf5	0.05607124
185	0xbdfd6202	-0.12372209
186	0xba51da0e	-0.000800521
187	0xbdb4420f	-0.08801662
188	0xbe2599cf	-0.16171955
189	0xbdb28895	-0.08717457
190	0x3d8dfd41	0.0693307
191	0x3cf88f1b	0.030341676
192	0x3dd316c0	0.103070736
193	0x3d824307	0.06360441
194	0x3da1104e	0.07864438
195	0x3d1d607c	0.038422093
196	0x3dfd9de2	0.123836294
197	0xbd391568	-0.04518643
198	0xbe1ad2b2	-0.15119436
199	0xbd1dbf2c	-0.038512394
200	0xbd9a75d1	-0.07542003
201	0xbc909766	-0.017650317
202	0xbda8dbc3	-0.08245041
203	0xbbe07009	-0.006849293
204	0x3d4ddc7a	0.05025909
205	0xbe13d03d	-0.14434905
206	0xbdff5580	-0.1246748
207	0x3cc49027	0.023994518
208	0xbda0785d	-0.078354575
209	0xbde17a85	-0.11009697
210	0xbd5f57de	-0.054527156
211	0x3d3d0dfa	0.046155907
212	0x3d683a18	0.056696028
213	0x3d22d7a6	0.03975644
214	0x3dd32d5c	0.10311386
215	0xbe302a77	-0.17203699
216	0xbc51b21c	-0.012798812
217	0xbe23e394	-0.16004783
218	0xbb62bbbf	-0.0034596769
219	0xbd0f5a0d	-0.03499799
220	0x3de0bf27	0.109739594
221	0x3d8a9295	0.067662396
222	0x3df3ec5e	0.11910318
223	0xbddd0d5c	-0.10793564
224	0xbdd0aaa3	-0.10188796
225	0xbd803c8d	-0.06261549
226	0xbe07b740	-0.13253498
227	0xbe1ef178	-0.155218
228	0xbd0fca78	-0.0351052
229	0x3d969200	0.07352066
230	0xbdd64875	-0.10463039
231	0xbd932581	-0.07184888
232	0xbcac2112	-0.021011863
233	0xbe246f84	-0.16058165
234	0x3d995c22	0.07488276
235	0xbda11d78	-0.07866949
236	0x3d31493c	0.043282732
237	0x3c74f990	0.014952078
238	0x3e2ade3a	0.16686335
239	0xbce1585f	-0.027507959
240	0x3d269904	0.04067327
241	0x3cc31e25	0.023818085
242	0xbdca112d	-0.09866557
243	0x3da7d72f	0.0819534
244	0x3da86e38	0.082241476
245	0x3da3de7e	0.080014214
246	0xbd1602ea	-0.036623873
247	0x3db84642	0.089977756
248	0xbdd28dd0	-0.10280955
249	0xbe092d60	-0.13396215
250	0xbd8a421e	-0.06750892
251	0x3e243b76	0.16038308
252	0x3d9d6e98	0.0768711
253	0xbe216d27	-0.15764295
254	0xbdc7dd0f	-0.097589605
255	0xbcf9d01e	-0.030494746
